program(1.0)
[buildInfo = dict<tensor<string, []>, tensor<string, []>>({{"coremlc-component-MIL", "4.28.4"}, {"coremlc-version", "1429.0.0"}})]
{
    func main<ios16>(tensor<fp16, [2, 1024, 1, 77]> encoder_hidden_states, tensor<fp32, [2, 1280, 8, 8]> hidden_states_149_cast, tensor<fp32, [2, 640, 32, 32]> input_115_cast, tensor<fp32, [2, 640, 16, 16]> input_117_cast, tensor<fp32, [2, 1280, 16, 16]> input_143_cast, tensor<fp32, [2, 1280, 1, 1]> input_15_cast, tensor<fp32, [2, 1280, 16, 16]> input_169_cast, tensor<fp32, [2, 1280, 8, 8]> input_171_cast, tensor<fp32, [2, 2560, 8, 8]> input_253_cast, tensor<fp32, [2, 320, 64, 64]> input_35_cast, tensor<fp32, [2, 320, 64, 64]> input_61_cast, tensor<fp32, [2, 320, 32, 32]> input_63_cast, tensor<fp32, [2, 320, 64, 64]> input_7_cast, tensor<fp32, [2, 640, 32, 32]> input_89_cast) {
            tensor<string, []> cast_10_dtype_0 = const()[name = tensor<string, []>("cast_10_dtype_0"), val = tensor<string, []>("fp16")];
            tensor<string, []> cast_8_dtype_0 = const()[name = tensor<string, []>("cast_8_dtype_0"), val = tensor<string, []>("fp16")];
            tensor<string, []> cast_5_dtype_0 = const()[name = tensor<string, []>("cast_5_dtype_0"), val = tensor<string, []>("fp16")];
            tensor<string, []> cast_14_dtype_0 = const()[name = tensor<string, []>("cast_14_dtype_0"), val = tensor<string, []>("fp16")];
            tensor<string, []> cast_7_dtype_0 = const()[name = tensor<string, []>("cast_7_dtype_0"), val = tensor<string, []>("fp16")];
            tensor<string, []> cast_9_dtype_0 = const()[name = tensor<string, []>("cast_9_dtype_0"), val = tensor<string, []>("fp16")];
            tensor<string, []> cast_2_dtype_0 = const()[name = tensor<string, []>("cast_2_dtype_0"), val = tensor<string, []>("fp16")];
            tensor<string, []> cast_6_dtype_0 = const()[name = tensor<string, []>("cast_6_dtype_0"), val = tensor<string, []>("fp16")];
            tensor<string, []> cast_11_dtype_0 = const()[name = tensor<string, []>("cast_11_dtype_0"), val = tensor<string, []>("fp16")];
            tensor<string, []> cast_12_dtype_0 = const()[name = tensor<string, []>("cast_12_dtype_0"), val = tensor<string, []>("fp16")];
            tensor<string, []> cast_3_dtype_0 = const()[name = tensor<string, []>("cast_3_dtype_0"), val = tensor<string, []>("fp16")];
            tensor<int32, []> var_5405 = const()[name = tensor<string, []>("op_5405"), val = tensor<int32, []>(1)];
            tensor<string, []> cast_4_dtype_0 = const()[name = tensor<string, []>("cast_4_dtype_0"), val = tensor<string, []>("fp16")];
            tensor<string, []> cast_13_dtype_0 = const()[name = tensor<string, []>("cast_13_dtype_0"), val = tensor<string, []>("fp16")];
            tensor<int32, [2]> var_5502 = const()[name = tensor<string, []>("op_5502"), val = tensor<int32, [2]>([1, 1])];
            tensor<int32, [2]> var_5504 = const()[name = tensor<string, []>("op_5504"), val = tensor<int32, [2]>([1, 1])];
            tensor<string, []> x_7_pad_type_0 = const()[name = tensor<string, []>("x_7_pad_type_0"), val = tensor<string, []>("custom")];
            tensor<int32, [4]> x_7_pad_0 = const()[name = tensor<string, []>("x_7_pad_0"), val = tensor<int32, [4]>([0, 0, 0, 0])];
            tensor<fp16, [1280, 2560, 1, 1]> up_blocks_0_resnets_1_conv_shortcut_weight_to_fp16 = const()[name = tensor<string, []>("up_blocks_0_resnets_1_conv_shortcut_weight_to_fp16"), val = tensor<fp16, [1280, 2560, 1, 1]>(BLOBFILE(path = tensor<string, []>("@model_path/weights/weight.bin"), offset = tensor<uint64, []>(64)))];
            tensor<fp16, [1280]> up_blocks_0_resnets_1_conv_shortcut_bias_to_fp16 = const()[name = tensor<string, []>("up_blocks_0_resnets_1_conv_shortcut_bias_to_fp16"), val = tensor<fp16, [1280]>(BLOBFILE(path = tensor<string, []>("@model_path/weights/weight.bin"), offset = tensor<uint64, []>(6553728)))];
            tensor<fp16, [2, 2560, 8, 8]> cast_2 = cast(dtype = cast_4_dtype_0, x = input_253_cast);
            tensor<fp16, [2, 1280, 8, 8]> x_7_cast = conv(bias = up_blocks_0_resnets_1_conv_shortcut_bias_to_fp16, dilations = var_5504, groups = var_5405, pad = x_7_pad_0, pad_type = x_7_pad_type_0, strides = var_5502, weight = up_blocks_0_resnets_1_conv_shortcut_weight_to_fp16, x = cast_2);
            tensor<fp16, [2, 1280, 8, 8]> cast_1 = cast(dtype = cast_13_dtype_0, x = hidden_states_149_cast);
            tensor<fp16, [2, 1280, 8, 8]> hidden_states_151_cast = add(x = x_7_cast, y = cast_1);
            tensor<bool, []> input_267_interleave_0 = const()[name = tensor<string, []>("input_267_interleave_0"), val = tensor<bool, []>(false)];
            tensor<fp16, [2, 1280, 8, 8]> cast_3 = cast(dtype = cast_3_dtype_0, x = input_171_cast);
            tensor<fp16, [2, 2560, 8, 8]> input_267_cast = concat(axis = var_5405, interleave = input_267_interleave_0, values = (hidden_states_151_cast, cast_3));
            tensor<int32, [5]> reshape_124_shape_0 = const()[name = tensor<string, []>("reshape_124_shape_0"), val = tensor<int32, [5]>([2, 32, 80, 8, 8])];
            tensor<fp16, [2, 32, 80, 8, 8]> reshape_124_cast = reshape(shape = reshape_124_shape_0, x = input_267_cast);
            tensor<int32, [3]> reduce_mean_93_axes_0 = const()[name = tensor<string, []>("reduce_mean_93_axes_0"), val = tensor<int32, [3]>([2, 3, 4])];
            tensor<bool, []> reduce_mean_93_keep_dims_0 = const()[name = tensor<string, []>("reduce_mean_93_keep_dims_0"), val = tensor<bool, []>(true)];
            tensor<fp16, [2, 32, 1, 1, 1]> reduce_mean_93_cast = reduce_mean(axes = reduce_mean_93_axes_0, keep_dims = reduce_mean_93_keep_dims_0, x = reshape_124_cast);
            tensor<fp16, [2, 32, 80, 8, 8]> sub_62_cast = sub(x = reshape_124_cast, y = reduce_mean_93_cast);
            tensor<fp16, [2, 32, 80, 8, 8]> square_31_cast = square(x = sub_62_cast);
            tensor<int32, [3]> reduce_mean_95_axes_0 = const()[name = tensor<string, []>("reduce_mean_95_axes_0"), val = tensor<int32, [3]>([2, 3, 4])];
            tensor<bool, []> reduce_mean_95_keep_dims_0 = const()[name = tensor<string, []>("reduce_mean_95_keep_dims_0"), val = tensor<bool, []>(true)];
            tensor<fp16, [2, 32, 1, 1, 1]> reduce_mean_95_cast = reduce_mean(axes = reduce_mean_95_axes_0, keep_dims = reduce_mean_95_keep_dims_0, x = square_31_cast);
            tensor<fp16, []> add_62_y_0_to_fp16 = const()[name = tensor<string, []>("add_62_y_0_to_fp16"), val = tensor<fp16, []>(0x1.5p-17)];
            tensor<fp16, [2, 32, 1, 1, 1]> add_62_cast = add(x = reduce_mean_95_cast, y = add_62_y_0_to_fp16);
            tensor<fp16, [2, 32, 1, 1, 1]> sqrt_31_cast = sqrt(x = add_62_cast);
            tensor<fp16, [2, 32, 80, 8, 8]> real_div_31_cast = real_div(x = sub_62_cast, y = sqrt_31_cast);
            tensor<int32, [4]> reshape_125_shape_0 = const()[name = tensor<string, []>("reshape_125_shape_0"), val = tensor<int32, [4]>([2, 2560, 8, 8])];
            tensor<fp16, [2, 2560, 8, 8]> reshape_125_cast = reshape(shape = reshape_125_shape_0, x = real_div_31_cast);
            tensor<fp16, [2560]> add_63_mean_0_to_fp16 = const()[name = tensor<string, []>("add_63_mean_0_to_fp16"), val = tensor<fp16, [2560]>(BLOBFILE(path = tensor<string, []>("@model_path/weights/weight.bin"), offset = tensor<uint64, []>(6556352)))];
            tensor<fp16, [2560]> add_63_variance_0_to_fp16 = const()[name = tensor<string, []>("add_63_variance_0_to_fp16"), val = tensor<fp16, [2560]>(BLOBFILE(path = tensor<string, []>("@model_path/weights/weight.bin"), offset = tensor<uint64, []>(6561536)))];
            tensor<fp16, [2560]> add_63_gamma_0_to_fp16 = const()[name = tensor<string, []>("add_63_gamma_0_to_fp16"), val = tensor<fp16, [2560]>(BLOBFILE(path = tensor<string, []>("@model_path/weights/weight.bin"), offset = tensor<uint64, []>(6566720)))];
            tensor<fp16, [2560]> add_63_beta_0_to_fp16 = const()[name = tensor<string, []>("add_63_beta_0_to_fp16"), val = tensor<fp16, [2560]>(BLOBFILE(path = tensor<string, []>("@model_path/weights/weight.bin"), offset = tensor<uint64, []>(6571904)))];
            tensor<fp16, []> add_63_epsilon_0_to_fp16 = const()[name = tensor<string, []>("add_63_epsilon_0_to_fp16"), val = tensor<fp16, []>(0x1.5p-17)];
            tensor<fp16, [2, 2560, 8, 8]> add_63_cast = batch_norm(beta = add_63_beta_0_to_fp16, epsilon = add_63_epsilon_0_to_fp16, gamma = add_63_gamma_0_to_fp16, mean = add_63_mean_0_to_fp16, variance = add_63_variance_0_to_fp16, x = reshape_125_cast);
            tensor<fp16, [2, 2560, 8, 8]> input_271_cast = silu(x = add_63_cast);
            tensor<int32, [2]> var_5522 = const()[name = tensor<string, []>("op_5522"), val = tensor<int32, [2]>([1, 1])];
            tensor<int32, [2]> var_5524 = const()[name = tensor<string, []>("op_5524"), val = tensor<int32, [2]>([1, 1])];
            tensor<string, []> hidden_states_153_pad_type_0 = const()[name = tensor<string, []>("hidden_states_153_pad_type_0"), val = tensor<string, []>("custom")];
            tensor<int32, [4]> hidden_states_153_pad_0 = const()[name = tensor<string, []>("hidden_states_153_pad_0"), val = tensor<int32, [4]>([1, 1, 1, 1])];
            tensor<fp16, [1280, 2560, 3, 3]> up_blocks_0_resnets_2_conv1_weight_to_fp16 = const()[name = tensor<string, []>("up_blocks_0_resnets_2_conv1_weight_to_fp16"), val = tensor<fp16, [1280, 2560, 3, 3]>(BLOBFILE(path = tensor<string, []>("@model_path/weights/weight.bin"), offset = tensor<uint64, []>(6577088)))];
            tensor<fp16, [1280]> up_blocks_0_resnets_2_conv1_bias_to_fp16 = const()[name = tensor<string, []>("up_blocks_0_resnets_2_conv1_bias_to_fp16"), val = tensor<fp16, [1280]>(BLOBFILE(path = tensor<string, []>("@model_path/weights/weight.bin"), offset = tensor<uint64, []>(65559552)))];
            tensor<fp16, [2, 1280, 8, 8]> hidden_states_153_cast = conv(bias = up_blocks_0_resnets_2_conv1_bias_to_fp16, dilations = var_5524, groups = var_5405, pad = hidden_states_153_pad_0, pad_type = hidden_states_153_pad_type_0, strides = var_5522, weight = up_blocks_0_resnets_2_conv1_weight_to_fp16, x = input_271_cast);
            tensor<int32, [2]> var_5530 = const()[name = tensor<string, []>("op_5530"), val = tensor<int32, [2]>([1, 1])];
            tensor<int32, [2]> var_5532 = const()[name = tensor<string, []>("op_5532"), val = tensor<int32, [2]>([1, 1])];
            tensor<string, []> temb_25_pad_type_0 = const()[name = tensor<string, []>("temb_25_pad_type_0"), val = tensor<string, []>("custom")];
            tensor<int32, [4]> temb_25_pad_0 = const()[name = tensor<string, []>("temb_25_pad_0"), val = tensor<int32, [4]>([0, 0, 0, 0])];
            tensor<fp16, [1280, 1280, 1, 1]> up_blocks_0_resnets_2_time_emb_proj_weight_to_fp16 = const()[name = tensor<string, []>("up_blocks_0_resnets_2_time_emb_proj_weight_to_fp16"), val = tensor<fp16, [1280, 1280, 1, 1]>(BLOBFILE(path = tensor<string, []>("@model_path/weights/weight.bin"), offset = tensor<uint64, []>(65562176)))];
            tensor<fp16, [1280]> up_blocks_0_resnets_2_time_emb_proj_bias_to_fp16 = const()[name = tensor<string, []>("up_blocks_0_resnets_2_time_emb_proj_bias_to_fp16"), val = tensor<fp16, [1280]>(BLOBFILE(path = tensor<string, []>("@model_path/weights/weight.bin"), offset = tensor<uint64, []>(68839040)))];
            tensor<fp16, [2, 1280, 1, 1]> cast_12 = cast(dtype = cast_8_dtype_0, x = input_15_cast);
            tensor<fp16, [2, 1280, 1, 1]> temb_25_cast = conv(bias = up_blocks_0_resnets_2_time_emb_proj_bias_to_fp16, dilations = var_5532, groups = var_5405, pad = temb_25_pad_0, pad_type = temb_25_pad_type_0, strides = var_5530, weight = up_blocks_0_resnets_2_time_emb_proj_weight_to_fp16, x = cast_12);
            tensor<fp16, [2, 1280, 8, 8]> input_275_cast = add(x = hidden_states_153_cast, y = temb_25_cast);
            tensor<int32, [5]> reshape_128_shape_0 = const()[name = tensor<string, []>("reshape_128_shape_0"), val = tensor<int32, [5]>([2, 32, 40, 8, 8])];
            tensor<fp16, [2, 32, 40, 8, 8]> reshape_128_cast = reshape(shape = reshape_128_shape_0, x = input_275_cast);
            tensor<int32, [3]> reduce_mean_96_axes_0 = const()[name = tensor<string, []>("reduce_mean_96_axes_0"), val = tensor<int32, [3]>([2, 3, 4])];
            tensor<bool, []> reduce_mean_96_keep_dims_0 = const()[name = tensor<string, []>("reduce_mean_96_keep_dims_0"), val = tensor<bool, []>(true)];
            tensor<fp16, [2, 32, 1, 1, 1]> reduce_mean_96_cast = reduce_mean(axes = reduce_mean_96_axes_0, keep_dims = reduce_mean_96_keep_dims_0, x = reshape_128_cast);
            tensor<fp16, [2, 32, 40, 8, 8]> sub_64_cast = sub(x = reshape_128_cast, y = reduce_mean_96_cast);
            tensor<fp16, [2, 32, 40, 8, 8]> square_32_cast = square(x = sub_64_cast);
            tensor<int32, [3]> reduce_mean_98_axes_0 = const()[name = tensor<string, []>("reduce_mean_98_axes_0"), val = tensor<int32, [3]>([2, 3, 4])];
            tensor<bool, []> reduce_mean_98_keep_dims_0 = const()[name = tensor<string, []>("reduce_mean_98_keep_dims_0"), val = tensor<bool, []>(true)];
            tensor<fp16, [2, 32, 1, 1, 1]> reduce_mean_98_cast = reduce_mean(axes = reduce_mean_98_axes_0, keep_dims = reduce_mean_98_keep_dims_0, x = square_32_cast);
            tensor<fp16, []> add_64_y_0_to_fp16 = const()[name = tensor<string, []>("add_64_y_0_to_fp16"), val = tensor<fp16, []>(0x1.5p-17)];
            tensor<fp16, [2, 32, 1, 1, 1]> add_64_cast = add(x = reduce_mean_98_cast, y = add_64_y_0_to_fp16);
            tensor<fp16, [2, 32, 1, 1, 1]> sqrt_32_cast = sqrt(x = add_64_cast);
            tensor<fp16, [2, 32, 40, 8, 8]> real_div_32_cast = real_div(x = sub_64_cast, y = sqrt_32_cast);
            tensor<int32, [4]> reshape_129_shape_0 = const()[name = tensor<string, []>("reshape_129_shape_0"), val = tensor<int32, [4]>([2, 1280, 8, 8])];
            tensor<fp16, [2, 1280, 8, 8]> reshape_129_cast = reshape(shape = reshape_129_shape_0, x = real_div_32_cast);
            tensor<fp16, [1280]> add_65_mean_0_to_fp16 = const()[name = tensor<string, []>("add_65_mean_0_to_fp16"), val = tensor<fp16, [1280]>(BLOBFILE(path = tensor<string, []>("@model_path/weights/weight.bin"), offset = tensor<uint64, []>(68841664)))];
            tensor<fp16, [1280]> add_65_variance_0_to_fp16 = const()[name = tensor<string, []>("add_65_variance_0_to_fp16"), val = tensor<fp16, [1280]>(BLOBFILE(path = tensor<string, []>("@model_path/weights/weight.bin"), offset = tensor<uint64, []>(68844288)))];
            tensor<fp16, [1280]> add_65_gamma_0_to_fp16 = const()[name = tensor<string, []>("add_65_gamma_0_to_fp16"), val = tensor<fp16, [1280]>(BLOBFILE(path = tensor<string, []>("@model_path/weights/weight.bin"), offset = tensor<uint64, []>(68846912)))];
            tensor<fp16, [1280]> add_65_beta_0_to_fp16 = const()[name = tensor<string, []>("add_65_beta_0_to_fp16"), val = tensor<fp16, [1280]>(BLOBFILE(path = tensor<string, []>("@model_path/weights/weight.bin"), offset = tensor<uint64, []>(68849536)))];
            tensor<fp16, []> add_65_epsilon_0_to_fp16 = const()[name = tensor<string, []>("add_65_epsilon_0_to_fp16"), val = tensor<fp16, []>(0x1.5p-17)];
            tensor<fp16, [2, 1280, 8, 8]> add_65_cast = batch_norm(beta = add_65_beta_0_to_fp16, epsilon = add_65_epsilon_0_to_fp16, gamma = add_65_gamma_0_to_fp16, mean = add_65_mean_0_to_fp16, variance = add_65_variance_0_to_fp16, x = reshape_129_cast);
            tensor<fp16, [2, 1280, 8, 8]> input_279_cast = silu(x = add_65_cast);
            tensor<int32, [2]> var_5542 = const()[name = tensor<string, []>("op_5542"), val = tensor<int32, [2]>([1, 1])];
            tensor<int32, [2]> var_5544 = const()[name = tensor<string, []>("op_5544"), val = tensor<int32, [2]>([1, 1])];
            tensor<string, []> hidden_states_155_pad_type_0 = const()[name = tensor<string, []>("hidden_states_155_pad_type_0"), val = tensor<string, []>("custom")];
            tensor<int32, [4]> hidden_states_155_pad_0 = const()[name = tensor<string, []>("hidden_states_155_pad_0"), val = tensor<int32, [4]>([1, 1, 1, 1])];
            tensor<fp16, [1280, 1280, 3, 3]> up_blocks_0_resnets_2_conv2_weight_to_fp16 = const()[name = tensor<string, []>("up_blocks_0_resnets_2_conv2_weight_to_fp16"), val = tensor<fp16, [1280, 1280, 3, 3]>(BLOBFILE(path = tensor<string, []>("@model_path/weights/weight.bin"), offset = tensor<uint64, []>(68852160)))];
            tensor<fp16, [1280]> up_blocks_0_resnets_2_conv2_bias_to_fp16 = const()[name = tensor<string, []>("up_blocks_0_resnets_2_conv2_bias_to_fp16"), val = tensor<fp16, [1280]>(BLOBFILE(path = tensor<string, []>("@model_path/weights/weight.bin"), offset = tensor<uint64, []>(98343424)))];
            tensor<fp16, [2, 1280, 8, 8]> hidden_states_155_cast = conv(bias = up_blocks_0_resnets_2_conv2_bias_to_fp16, dilations = var_5544, groups = var_5405, pad = hidden_states_155_pad_0, pad_type = hidden_states_155_pad_type_0, strides = var_5542, weight = up_blocks_0_resnets_2_conv2_weight_to_fp16, x = input_279_cast);
            tensor<int32, [2]> var_5549 = const()[name = tensor<string, []>("op_5549"), val = tensor<int32, [2]>([1, 1])];
            tensor<int32, [2]> var_5551 = const()[name = tensor<string, []>("op_5551"), val = tensor<int32, [2]>([1, 1])];
            tensor<string, []> x_9_pad_type_0 = const()[name = tensor<string, []>("x_9_pad_type_0"), val = tensor<string, []>("custom")];
            tensor<int32, [4]> x_9_pad_0 = const()[name = tensor<string, []>("x_9_pad_0"), val = tensor<int32, [4]>([0, 0, 0, 0])];
            tensor<fp16, [1280, 2560, 1, 1]> up_blocks_0_resnets_2_conv_shortcut_weight_to_fp16 = const()[name = tensor<string, []>("up_blocks_0_resnets_2_conv_shortcut_weight_to_fp16"), val = tensor<fp16, [1280, 2560, 1, 1]>(BLOBFILE(path = tensor<string, []>("@model_path/weights/weight.bin"), offset = tensor<uint64, []>(98346048)))];
            tensor<fp16, [1280]> up_blocks_0_resnets_2_conv_shortcut_bias_to_fp16 = const()[name = tensor<string, []>("up_blocks_0_resnets_2_conv_shortcut_bias_to_fp16"), val = tensor<fp16, [1280]>(BLOBFILE(path = tensor<string, []>("@model_path/weights/weight.bin"), offset = tensor<uint64, []>(104899712)))];
            tensor<fp16, [2, 1280, 8, 8]> x_9_cast = conv(bias = up_blocks_0_resnets_2_conv_shortcut_bias_to_fp16, dilations = var_5551, groups = var_5405, pad = x_9_pad_0, pad_type = x_9_pad_type_0, strides = var_5549, weight = up_blocks_0_resnets_2_conv_shortcut_weight_to_fp16, x = input_267_cast);
            tensor<fp16, [2, 1280, 8, 8]> input_281_cast = add(x = x_9_cast, y = hidden_states_155_cast);
            tensor<fp32, []> input_283_scale_factor_height_0 = const()[name = tensor<string, []>("input_283_scale_factor_height_0"), val = tensor<fp32, []>(0x1p+1)];
            tensor<fp32, []> input_283_scale_factor_width_0 = const()[name = tensor<string, []>("input_283_scale_factor_width_0"), val = tensor<fp32, []>(0x1p+1)];
            tensor<fp16, [2, 1280, 16, 16]> input_283_cast = upsample_nearest_neighbor(scale_factor_height = input_283_scale_factor_height_0, scale_factor_width = input_283_scale_factor_width_0, x = input_281_cast);
            tensor<int32, [2]> var_5560 = const()[name = tensor<string, []>("op_5560"), val = tensor<int32, [2]>([1, 1])];
            tensor<int32, [2]> var_5562 = const()[name = tensor<string, []>("op_5562"), val = tensor<int32, [2]>([1, 1])];
            tensor<string, []> hidden_states_157_pad_type_0 = const()[name = tensor<string, []>("hidden_states_157_pad_type_0"), val = tensor<string, []>("custom")];
            tensor<int32, [4]> hidden_states_157_pad_0 = const()[name = tensor<string, []>("hidden_states_157_pad_0"), val = tensor<int32, [4]>([1, 1, 1, 1])];
            tensor<fp16, [1280, 1280, 3, 3]> up_blocks_0_upsamplers_0_conv_weight_to_fp16 = const()[name = tensor<string, []>("up_blocks_0_upsamplers_0_conv_weight_to_fp16"), val = tensor<fp16, [1280, 1280, 3, 3]>(BLOBFILE(path = tensor<string, []>("@model_path/weights/weight.bin"), offset = tensor<uint64, []>(104902336)))];
            tensor<fp16, [1280]> up_blocks_0_upsamplers_0_conv_bias_to_fp16 = const()[name = tensor<string, []>("up_blocks_0_upsamplers_0_conv_bias_to_fp16"), val = tensor<fp16, [1280]>(BLOBFILE(path = tensor<string, []>("@model_path/weights/weight.bin"), offset = tensor<uint64, []>(134393600)))];
            tensor<fp16, [2, 1280, 16, 16]> hidden_states_157_cast = conv(bias = up_blocks_0_upsamplers_0_conv_bias_to_fp16, dilations = var_5562, groups = var_5405, pad = hidden_states_157_pad_0, pad_type = hidden_states_157_pad_type_0, strides = var_5560, weight = up_blocks_0_upsamplers_0_conv_weight_to_fp16, x = input_283_cast);
            tensor<bool, []> var_5594 = const()[name = tensor<string, []>("op_5594"), val = tensor<bool, []>(true)];
            tensor<int32, []> var_5599 = const()[name = tensor<string, []>("op_5599"), val = tensor<int32, []>(1)];
            tensor<bool, []> input_285_interleave_0 = const()[name = tensor<string, []>("input_285_interleave_0"), val = tensor<bool, []>(false)];
            tensor<fp16, [2, 1280, 16, 16]> cast_4 = cast(dtype = cast_12_dtype_0, x = input_169_cast);
            tensor<fp16, [2, 2560, 16, 16]> input_285_cast = concat(axis = var_5599, interleave = input_285_interleave_0, values = (hidden_states_157_cast, cast_4));
            tensor<int32, [5]> reshape_132_shape_0 = const()[name = tensor<string, []>("reshape_132_shape_0"), val = tensor<int32, [5]>([2, 32, 80, 16, 16])];
            tensor<fp16, [2, 32, 80, 16, 16]> reshape_132_cast = reshape(shape = reshape_132_shape_0, x = input_285_cast);
            tensor<int32, [3]> reduce_mean_99_axes_0 = const()[name = tensor<string, []>("reduce_mean_99_axes_0"), val = tensor<int32, [3]>([2, 3, 4])];
            tensor<bool, []> reduce_mean_99_keep_dims_0 = const()[name = tensor<string, []>("reduce_mean_99_keep_dims_0"), val = tensor<bool, []>(true)];
            tensor<fp16, [2, 32, 1, 1, 1]> reduce_mean_99_cast = reduce_mean(axes = reduce_mean_99_axes_0, keep_dims = reduce_mean_99_keep_dims_0, x = reshape_132_cast);
            tensor<fp16, [2, 32, 80, 16, 16]> sub_66_cast = sub(x = reshape_132_cast, y = reduce_mean_99_cast);
            tensor<fp16, [2, 32, 80, 16, 16]> square_33_cast = square(x = sub_66_cast);
            tensor<int32, [3]> reduce_mean_101_axes_0 = const()[name = tensor<string, []>("reduce_mean_101_axes_0"), val = tensor<int32, [3]>([2, 3, 4])];
            tensor<bool, []> reduce_mean_101_keep_dims_0 = const()[name = tensor<string, []>("reduce_mean_101_keep_dims_0"), val = tensor<bool, []>(true)];
            tensor<fp16, [2, 32, 1, 1, 1]> reduce_mean_101_cast = reduce_mean(axes = reduce_mean_101_axes_0, keep_dims = reduce_mean_101_keep_dims_0, x = square_33_cast);
            tensor<fp16, []> add_66_y_0_to_fp16 = const()[name = tensor<string, []>("add_66_y_0_to_fp16"), val = tensor<fp16, []>(0x1.5p-17)];
            tensor<fp16, [2, 32, 1, 1, 1]> add_66_cast = add(x = reduce_mean_101_cast, y = add_66_y_0_to_fp16);
            tensor<fp16, [2, 32, 1, 1, 1]> sqrt_33_cast = sqrt(x = add_66_cast);
            tensor<fp16, [2, 32, 80, 16, 16]> real_div_33_cast = real_div(x = sub_66_cast, y = sqrt_33_cast);
            tensor<int32, [4]> reshape_133_shape_0 = const()[name = tensor<string, []>("reshape_133_shape_0"), val = tensor<int32, [4]>([2, 2560, 16, 16])];
            tensor<fp16, [2, 2560, 16, 16]> reshape_133_cast = reshape(shape = reshape_133_shape_0, x = real_div_33_cast);
            tensor<fp16, [2560]> add_67_mean_0_to_fp16 = const()[name = tensor<string, []>("add_67_mean_0_to_fp16"), val = tensor<fp16, [2560]>(BLOBFILE(path = tensor<string, []>("@model_path/weights/weight.bin"), offset = tensor<uint64, []>(134396224)))];
            tensor<fp16, [2560]> add_67_variance_0_to_fp16 = const()[name = tensor<string, []>("add_67_variance_0_to_fp16"), val = tensor<fp16, [2560]>(BLOBFILE(path = tensor<string, []>("@model_path/weights/weight.bin"), offset = tensor<uint64, []>(134401408)))];
            tensor<fp16, [2560]> add_67_gamma_0_to_fp16 = const()[name = tensor<string, []>("add_67_gamma_0_to_fp16"), val = tensor<fp16, [2560]>(BLOBFILE(path = tensor<string, []>("@model_path/weights/weight.bin"), offset = tensor<uint64, []>(134406592)))];
            tensor<fp16, [2560]> add_67_beta_0_to_fp16 = const()[name = tensor<string, []>("add_67_beta_0_to_fp16"), val = tensor<fp16, [2560]>(BLOBFILE(path = tensor<string, []>("@model_path/weights/weight.bin"), offset = tensor<uint64, []>(134411776)))];
            tensor<fp16, []> add_67_epsilon_0_to_fp16 = const()[name = tensor<string, []>("add_67_epsilon_0_to_fp16"), val = tensor<fp16, []>(0x1.5p-17)];
            tensor<fp16, [2, 2560, 16, 16]> add_67_cast = batch_norm(beta = add_67_beta_0_to_fp16, epsilon = add_67_epsilon_0_to_fp16, gamma = add_67_gamma_0_to_fp16, mean = add_67_mean_0_to_fp16, variance = add_67_variance_0_to_fp16, x = reshape_133_cast);
            tensor<fp16, [2, 2560, 16, 16]> input_289_cast = silu(x = add_67_cast);
            tensor<int32, [2]> var_5628 = const()[name = tensor<string, []>("op_5628"), val = tensor<int32, [2]>([1, 1])];
            tensor<int32, [2]> var_5630 = const()[name = tensor<string, []>("op_5630"), val = tensor<int32, [2]>([1, 1])];
            tensor<string, []> hidden_states_159_pad_type_0 = const()[name = tensor<string, []>("hidden_states_159_pad_type_0"), val = tensor<string, []>("custom")];
            tensor<int32, [4]> hidden_states_159_pad_0 = const()[name = tensor<string, []>("hidden_states_159_pad_0"), val = tensor<int32, [4]>([1, 1, 1, 1])];
            tensor<fp16, [1280, 2560, 3, 3]> up_blocks_1_resnets_0_conv1_weight_to_fp16 = const()[name = tensor<string, []>("up_blocks_1_resnets_0_conv1_weight_to_fp16"), val = tensor<fp16, [1280, 2560, 3, 3]>(BLOBFILE(path = tensor<string, []>("@model_path/weights/weight.bin"), offset = tensor<uint64, []>(134416960)))];
            tensor<fp16, [1280]> up_blocks_1_resnets_0_conv1_bias_to_fp16 = const()[name = tensor<string, []>("up_blocks_1_resnets_0_conv1_bias_to_fp16"), val = tensor<fp16, [1280]>(BLOBFILE(path = tensor<string, []>("@model_path/weights/weight.bin"), offset = tensor<uint64, []>(193399424)))];
            tensor<fp16, [2, 1280, 16, 16]> hidden_states_159_cast = conv(bias = up_blocks_1_resnets_0_conv1_bias_to_fp16, dilations = var_5630, groups = var_5599, pad = hidden_states_159_pad_0, pad_type = hidden_states_159_pad_type_0, strides = var_5628, weight = up_blocks_1_resnets_0_conv1_weight_to_fp16, x = input_289_cast);
            tensor<int32, [2]> var_5636 = const()[name = tensor<string, []>("op_5636"), val = tensor<int32, [2]>([1, 1])];
            tensor<int32, [2]> var_5638 = const()[name = tensor<string, []>("op_5638"), val = tensor<int32, [2]>([1, 1])];
            tensor<string, []> temb_27_pad_type_0 = const()[name = tensor<string, []>("temb_27_pad_type_0"), val = tensor<string, []>("custom")];
            tensor<int32, [4]> temb_27_pad_0 = const()[name = tensor<string, []>("temb_27_pad_0"), val = tensor<int32, [4]>([0, 0, 0, 0])];
            tensor<fp16, [1280, 1280, 1, 1]> up_blocks_1_resnets_0_time_emb_proj_weight_to_fp16 = const()[name = tensor<string, []>("up_blocks_1_resnets_0_time_emb_proj_weight_to_fp16"), val = tensor<fp16, [1280, 1280, 1, 1]>(BLOBFILE(path = tensor<string, []>("@model_path/weights/weight.bin"), offset = tensor<uint64, []>(193402048)))];
            tensor<fp16, [1280]> up_blocks_1_resnets_0_time_emb_proj_bias_to_fp16 = const()[name = tensor<string, []>("up_blocks_1_resnets_0_time_emb_proj_bias_to_fp16"), val = tensor<fp16, [1280]>(BLOBFILE(path = tensor<string, []>("@model_path/weights/weight.bin"), offset = tensor<uint64, []>(196678912)))];
            tensor<fp16, [2, 1280, 1, 1]> temb_27_cast = conv(bias = up_blocks_1_resnets_0_time_emb_proj_bias_to_fp16, dilations = var_5638, groups = var_5599, pad = temb_27_pad_0, pad_type = temb_27_pad_type_0, strides = var_5636, weight = up_blocks_1_resnets_0_time_emb_proj_weight_to_fp16, x = cast_12);
            tensor<fp16, [2, 1280, 16, 16]> input_293_cast = add(x = hidden_states_159_cast, y = temb_27_cast);
            tensor<int32, [5]> reshape_136_shape_0 = const()[name = tensor<string, []>("reshape_136_shape_0"), val = tensor<int32, [5]>([2, 32, 40, 16, 16])];
            tensor<fp16, [2, 32, 40, 16, 16]> reshape_136_cast = reshape(shape = reshape_136_shape_0, x = input_293_cast);
            tensor<int32, [3]> reduce_mean_102_axes_0 = const()[name = tensor<string, []>("reduce_mean_102_axes_0"), val = tensor<int32, [3]>([2, 3, 4])];
            tensor<bool, []> reduce_mean_102_keep_dims_0 = const()[name = tensor<string, []>("reduce_mean_102_keep_dims_0"), val = tensor<bool, []>(true)];
            tensor<fp16, [2, 32, 1, 1, 1]> reduce_mean_102_cast = reduce_mean(axes = reduce_mean_102_axes_0, keep_dims = reduce_mean_102_keep_dims_0, x = reshape_136_cast);
            tensor<fp16, [2, 32, 40, 16, 16]> sub_68_cast = sub(x = reshape_136_cast, y = reduce_mean_102_cast);
            tensor<fp16, [2, 32, 40, 16, 16]> square_34_cast = square(x = sub_68_cast);
            tensor<int32, [3]> reduce_mean_104_axes_0 = const()[name = tensor<string, []>("reduce_mean_104_axes_0"), val = tensor<int32, [3]>([2, 3, 4])];
            tensor<bool, []> reduce_mean_104_keep_dims_0 = const()[name = tensor<string, []>("reduce_mean_104_keep_dims_0"), val = tensor<bool, []>(true)];
            tensor<fp16, [2, 32, 1, 1, 1]> reduce_mean_104_cast = reduce_mean(axes = reduce_mean_104_axes_0, keep_dims = reduce_mean_104_keep_dims_0, x = square_34_cast);
            tensor<fp16, []> add_68_y_0_to_fp16 = const()[name = tensor<string, []>("add_68_y_0_to_fp16"), val = tensor<fp16, []>(0x1.5p-17)];
            tensor<fp16, [2, 32, 1, 1, 1]> add_68_cast = add(x = reduce_mean_104_cast, y = add_68_y_0_to_fp16);
            tensor<fp16, [2, 32, 1, 1, 1]> sqrt_34_cast = sqrt(x = add_68_cast);
            tensor<fp16, [2, 32, 40, 16, 16]> real_div_34_cast = real_div(x = sub_68_cast, y = sqrt_34_cast);
            tensor<int32, [4]> reshape_137_shape_0 = const()[name = tensor<string, []>("reshape_137_shape_0"), val = tensor<int32, [4]>([2, 1280, 16, 16])];
            tensor<fp16, [2, 1280, 16, 16]> reshape_137_cast = reshape(shape = reshape_137_shape_0, x = real_div_34_cast);
            tensor<fp16, [1280]> add_69_mean_0_to_fp16 = const()[name = tensor<string, []>("add_69_mean_0_to_fp16"), val = tensor<fp16, [1280]>(BLOBFILE(path = tensor<string, []>("@model_path/weights/weight.bin"), offset = tensor<uint64, []>(196681536)))];
            tensor<fp16, [1280]> add_69_variance_0_to_fp16 = const()[name = tensor<string, []>("add_69_variance_0_to_fp16"), val = tensor<fp16, [1280]>(BLOBFILE(path = tensor<string, []>("@model_path/weights/weight.bin"), offset = tensor<uint64, []>(196684160)))];
            tensor<fp16, [1280]> add_69_gamma_0_to_fp16 = const()[name = tensor<string, []>("add_69_gamma_0_to_fp16"), val = tensor<fp16, [1280]>(BLOBFILE(path = tensor<string, []>("@model_path/weights/weight.bin"), offset = tensor<uint64, []>(196686784)))];
            tensor<fp16, [1280]> add_69_beta_0_to_fp16 = const()[name = tensor<string, []>("add_69_beta_0_to_fp16"), val = tensor<fp16, [1280]>(BLOBFILE(path = tensor<string, []>("@model_path/weights/weight.bin"), offset = tensor<uint64, []>(196689408)))];
            tensor<fp16, []> add_69_epsilon_0_to_fp16 = const()[name = tensor<string, []>("add_69_epsilon_0_to_fp16"), val = tensor<fp16, []>(0x1.5p-17)];
            tensor<fp16, [2, 1280, 16, 16]> add_69_cast = batch_norm(beta = add_69_beta_0_to_fp16, epsilon = add_69_epsilon_0_to_fp16, gamma = add_69_gamma_0_to_fp16, mean = add_69_mean_0_to_fp16, variance = add_69_variance_0_to_fp16, x = reshape_137_cast);
            tensor<fp16, [2, 1280, 16, 16]> input_297_cast = silu(x = add_69_cast);
            tensor<int32, [2]> var_5648 = const()[name = tensor<string, []>("op_5648"), val = tensor<int32, [2]>([1, 1])];
            tensor<int32, [2]> var_5650 = const()[name = tensor<string, []>("op_5650"), val = tensor<int32, [2]>([1, 1])];
            tensor<string, []> hidden_states_161_pad_type_0 = const()[name = tensor<string, []>("hidden_states_161_pad_type_0"), val = tensor<string, []>("custom")];
            tensor<int32, [4]> hidden_states_161_pad_0 = const()[name = tensor<string, []>("hidden_states_161_pad_0"), val = tensor<int32, [4]>([1, 1, 1, 1])];
            tensor<fp16, [1280, 1280, 3, 3]> up_blocks_1_resnets_0_conv2_weight_to_fp16 = const()[name = tensor<string, []>("up_blocks_1_resnets_0_conv2_weight_to_fp16"), val = tensor<fp16, [1280, 1280, 3, 3]>(BLOBFILE(path = tensor<string, []>("@model_path/weights/weight.bin"), offset = tensor<uint64, []>(196692032)))];
            tensor<fp16, [1280]> up_blocks_1_resnets_0_conv2_bias_to_fp16 = const()[name = tensor<string, []>("up_blocks_1_resnets_0_conv2_bias_to_fp16"), val = tensor<fp16, [1280]>(BLOBFILE(path = tensor<string, []>("@model_path/weights/weight.bin"), offset = tensor<uint64, []>(226183296)))];
            tensor<fp16, [2, 1280, 16, 16]> hidden_states_161_cast = conv(bias = up_blocks_1_resnets_0_conv2_bias_to_fp16, dilations = var_5650, groups = var_5599, pad = hidden_states_161_pad_0, pad_type = hidden_states_161_pad_type_0, strides = var_5648, weight = up_blocks_1_resnets_0_conv2_weight_to_fp16, x = input_297_cast);
            tensor<int32, [2]> var_5655 = const()[name = tensor<string, []>("op_5655"), val = tensor<int32, [2]>([1, 1])];
            tensor<int32, [2]> var_5657 = const()[name = tensor<string, []>("op_5657"), val = tensor<int32, [2]>([1, 1])];
            tensor<string, []> x_11_pad_type_0 = const()[name = tensor<string, []>("x_11_pad_type_0"), val = tensor<string, []>("custom")];
            tensor<int32, [4]> x_11_pad_0 = const()[name = tensor<string, []>("x_11_pad_0"), val = tensor<int32, [4]>([0, 0, 0, 0])];
            tensor<fp16, [1280, 2560, 1, 1]> up_blocks_1_resnets_0_conv_shortcut_weight_to_fp16 = const()[name = tensor<string, []>("up_blocks_1_resnets_0_conv_shortcut_weight_to_fp16"), val = tensor<fp16, [1280, 2560, 1, 1]>(BLOBFILE(path = tensor<string, []>("@model_path/weights/weight.bin"), offset = tensor<uint64, []>(226185920)))];
            tensor<fp16, [1280]> up_blocks_1_resnets_0_conv_shortcut_bias_to_fp16 = const()[name = tensor<string, []>("up_blocks_1_resnets_0_conv_shortcut_bias_to_fp16"), val = tensor<fp16, [1280]>(BLOBFILE(path = tensor<string, []>("@model_path/weights/weight.bin"), offset = tensor<uint64, []>(232739584)))];
            tensor<fp16, [2, 1280, 16, 16]> x_11_cast = conv(bias = up_blocks_1_resnets_0_conv_shortcut_bias_to_fp16, dilations = var_5657, groups = var_5599, pad = x_11_pad_0, pad_type = x_11_pad_type_0, strides = var_5655, weight = up_blocks_1_resnets_0_conv_shortcut_weight_to_fp16, x = input_285_cast);
            tensor<fp16, [2, 1280, 16, 16]> hidden_states_163_cast = add(x = x_11_cast, y = hidden_states_161_cast);
            tensor<int32, [5]> reshape_140_shape_0 = const()[name = tensor<string, []>("reshape_140_shape_0"), val = tensor<int32, [5]>([2, 32, 40, 16, 16])];
            tensor<fp16, [2, 32, 40, 16, 16]> reshape_140_cast = reshape(shape = reshape_140_shape_0, x = hidden_states_163_cast);
            tensor<int32, [3]> reduce_mean_105_axes_0 = const()[name = tensor<string, []>("reduce_mean_105_axes_0"), val = tensor<int32, [3]>([2, 3, 4])];
            tensor<bool, []> reduce_mean_105_keep_dims_0 = const()[name = tensor<string, []>("reduce_mean_105_keep_dims_0"), val = tensor<bool, []>(true)];
            tensor<fp16, [2, 32, 1, 1, 1]> reduce_mean_105_cast = reduce_mean(axes = reduce_mean_105_axes_0, keep_dims = reduce_mean_105_keep_dims_0, x = reshape_140_cast);
            tensor<fp16, [2, 32, 40, 16, 16]> sub_70_cast = sub(x = reshape_140_cast, y = reduce_mean_105_cast);
            tensor<fp16, [2, 32, 40, 16, 16]> square_35_cast = square(x = sub_70_cast);
            tensor<int32, [3]> reduce_mean_107_axes_0 = const()[name = tensor<string, []>("reduce_mean_107_axes_0"), val = tensor<int32, [3]>([2, 3, 4])];
            tensor<bool, []> reduce_mean_107_keep_dims_0 = const()[name = tensor<string, []>("reduce_mean_107_keep_dims_0"), val = tensor<bool, []>(true)];
            tensor<fp16, [2, 32, 1, 1, 1]> reduce_mean_107_cast = reduce_mean(axes = reduce_mean_107_axes_0, keep_dims = reduce_mean_107_keep_dims_0, x = square_35_cast);
            tensor<fp16, []> add_70_y_0_to_fp16 = const()[name = tensor<string, []>("add_70_y_0_to_fp16"), val = tensor<fp16, []>(0x1.1p-20)];
            tensor<fp16, [2, 32, 1, 1, 1]> add_70_cast = add(x = reduce_mean_107_cast, y = add_70_y_0_to_fp16);
            tensor<fp16, [2, 32, 1, 1, 1]> sqrt_35_cast = sqrt(x = add_70_cast);
            tensor<fp16, [2, 32, 40, 16, 16]> real_div_35_cast = real_div(x = sub_70_cast, y = sqrt_35_cast);
            tensor<int32, [4]> reshape_141_shape_0 = const()[name = tensor<string, []>("reshape_141_shape_0"), val = tensor<int32, [4]>([2, 1280, 16, 16])];
            tensor<fp16, [2, 1280, 16, 16]> reshape_141_cast = reshape(shape = reshape_141_shape_0, x = real_div_35_cast);
            tensor<fp16, [1280]> add_71_mean_0_to_fp16 = const()[name = tensor<string, []>("add_71_mean_0_to_fp16"), val = tensor<fp16, [1280]>(BLOBFILE(path = tensor<string, []>("@model_path/weights/weight.bin"), offset = tensor<uint64, []>(232742208)))];
            tensor<fp16, [1280]> add_71_variance_0_to_fp16 = const()[name = tensor<string, []>("add_71_variance_0_to_fp16"), val = tensor<fp16, [1280]>(BLOBFILE(path = tensor<string, []>("@model_path/weights/weight.bin"), offset = tensor<uint64, []>(232744832)))];
            tensor<fp16, [1280]> add_71_gamma_0_to_fp16 = const()[name = tensor<string, []>("add_71_gamma_0_to_fp16"), val = tensor<fp16, [1280]>(BLOBFILE(path = tensor<string, []>("@model_path/weights/weight.bin"), offset = tensor<uint64, []>(232747456)))];
            tensor<fp16, [1280]> add_71_beta_0_to_fp16 = const()[name = tensor<string, []>("add_71_beta_0_to_fp16"), val = tensor<fp16, [1280]>(BLOBFILE(path = tensor<string, []>("@model_path/weights/weight.bin"), offset = tensor<uint64, []>(232750080)))];
            tensor<fp16, []> add_71_epsilon_0_to_fp16 = const()[name = tensor<string, []>("add_71_epsilon_0_to_fp16"), val = tensor<fp16, []>(0x1.5p-17)];
            tensor<fp16, [2, 1280, 16, 16]> add_71_cast = batch_norm(beta = add_71_beta_0_to_fp16, epsilon = add_71_epsilon_0_to_fp16, gamma = add_71_gamma_0_to_fp16, mean = add_71_mean_0_to_fp16, variance = add_71_variance_0_to_fp16, x = reshape_141_cast);
            tensor<int32, [2]> var_5677 = const()[name = tensor<string, []>("op_5677"), val = tensor<int32, [2]>([1, 1])];
            tensor<int32, [2]> var_5679 = const()[name = tensor<string, []>("op_5679"), val = tensor<int32, [2]>([1, 1])];
            tensor<string, []> hidden_states_165_pad_type_0 = const()[name = tensor<string, []>("hidden_states_165_pad_type_0"), val = tensor<string, []>("custom")];
            tensor<int32, [4]> hidden_states_165_pad_0 = const()[name = tensor<string, []>("hidden_states_165_pad_0"), val = tensor<int32, [4]>([0, 0, 0, 0])];
            tensor<fp16, [1280, 1280, 1, 1]> up_blocks_1_attentions_0_proj_in_weight_to_fp16 = const()[name = tensor<string, []>("up_blocks_1_attentions_0_proj_in_weight_to_fp16"), val = tensor<fp16, [1280, 1280, 1, 1]>(BLOBFILE(path = tensor<string, []>("@model_path/weights/weight.bin"), offset = tensor<uint64, []>(232752704)))];
            tensor<fp16, [1280]> up_blocks_1_attentions_0_proj_in_bias_to_fp16 = const()[name = tensor<string, []>("up_blocks_1_attentions_0_proj_in_bias_to_fp16"), val = tensor<fp16, [1280]>(BLOBFILE(path = tensor<string, []>("@model_path/weights/weight.bin"), offset = tensor<uint64, []>(236029568)))];
            tensor<fp16, [2, 1280, 16, 16]> hidden_states_165_cast = conv(bias = up_blocks_1_attentions_0_proj_in_bias_to_fp16, dilations = var_5679, groups = var_5599, pad = hidden_states_165_pad_0, pad_type = hidden_states_165_pad_type_0, strides = var_5677, weight = up_blocks_1_attentions_0_proj_in_weight_to_fp16, x = add_71_cast);
            tensor<int32, [4]> var_5684 = const()[name = tensor<string, []>("op_5684"), val = tensor<int32, [4]>([2, 1280, 1, 256])];
            tensor<fp16, [2, 1280, 1, 256]> inputs_43_cast = reshape(shape = var_5684, x = hidden_states_165_cast);
            tensor<int32, [1]> var_5694 = const()[name = tensor<string, []>("op_5694"), val = tensor<int32, [1]>([1])];
            tensor<fp16, [2, 1, 1, 256]> channels_mean_43_cast = reduce_mean(axes = var_5694, keep_dims = var_5594, x = inputs_43_cast);
            tensor<fp16, [2, 1280, 1, 256]> zero_mean_43_cast = sub(x = inputs_43_cast, y = channels_mean_43_cast);
            tensor<fp16, [2, 1280, 1, 256]> zero_mean_sq_43_cast = mul(x = zero_mean_43_cast, y = zero_mean_43_cast);
            tensor<int32, [1]> var_5698 = const()[name = tensor<string, []>("op_5698"), val = tensor<int32, [1]>([1])];
            tensor<fp16, [2, 1, 1, 256]> var_5699_cast = reduce_mean(axes = var_5698, keep_dims = var_5594, x = zero_mean_sq_43_cast);
            tensor<fp16, []> var_5700_to_fp16 = const()[name = tensor<string, []>("op_5700_to_fp16"), val = tensor<fp16, []>(0x1.5p-17)];
            tensor<fp16, [2, 1, 1, 256]> var_5701_cast = add(x = var_5699_cast, y = var_5700_to_fp16);
            tensor<fp16, []> denom_43_epsilon_0_to_fp16 = const()[name = tensor<string, []>("denom_43_epsilon_0_to_fp16"), val = tensor<fp16, []>(0x1p-24)];
            tensor<fp16, [2, 1, 1, 256]> denom_43_cast = rsqrt(epsilon = denom_43_epsilon_0_to_fp16, x = var_5701_cast);
            tensor<fp16, [2, 1280, 1, 256]> out_43_cast = mul(x = zero_mean_43_cast, y = denom_43_cast);
            tensor<fp16, [1, 1280, 1, 1]> var_5705_to_fp16 = const()[name = tensor<string, []>("op_5705_to_fp16"), val = tensor<fp16, [1, 1280, 1, 1]>(BLOBFILE(path = tensor<string, []>("@model_path/weights/weight.bin"), offset = tensor<uint64, []>(236032192)))];
            tensor<fp16, [2, 1280, 1, 256]> var_5706_cast = add(x = out_43_cast, y = var_5705_to_fp16);
            tensor<fp16, [1, 1280, 1, 1]> var_5708_to_fp16 = const()[name = tensor<string, []>("op_5708_to_fp16"), val = tensor<fp16, [1, 1280, 1, 1]>(BLOBFILE(path = tensor<string, []>("@model_path/weights/weight.bin"), offset = tensor<uint64, []>(236034816)))];
            tensor<fp16, [2, 1280, 1, 256]> hidden_states_167_cast = mul(x = var_5706_cast, y = var_5708_to_fp16);
            tensor<int32, [2]> var_5715 = const()[name = tensor<string, []>("op_5715"), val = tensor<int32, [2]>([1, 1])];
            tensor<int32, [2]> var_5717 = const()[name = tensor<string, []>("op_5717"), val = tensor<int32, [2]>([1, 1])];
            tensor<string, []> q_29_pad_type_0 = const()[name = tensor<string, []>("q_29_pad_type_0"), val = tensor<string, []>("custom")];
            tensor<int32, [4]> q_29_pad_0 = const()[name = tensor<string, []>("q_29_pad_0"), val = tensor<int32, [4]>([0, 0, 0, 0])];
            tensor<fp16, [1280, 1280, 1, 1]> up_blocks_1_attentions_0_transformer_blocks_0_attn1_to_q_weight_to_fp16 = const()[name = tensor<string, []>("up_blocks_1_attentions_0_transformer_blocks_0_attn1_to_q_weight_to_fp16"), val = tensor<fp16, [1280, 1280, 1, 1]>(BLOBFILE(path = tensor<string, []>("@model_path/weights/weight.bin"), offset = tensor<uint64, []>(236037440)))];
            tensor<fp16, [2, 1280, 1, 256]> q_29_cast = conv(dilations = var_5717, groups = var_5599, pad = q_29_pad_0, pad_type = q_29_pad_type_0, strides = var_5715, weight = up_blocks_1_attentions_0_transformer_blocks_0_attn1_to_q_weight_to_fp16, x = hidden_states_167_cast);
            tensor<int32, [2]> var_5721 = const()[name = tensor<string, []>("op_5721"), val = tensor<int32, [2]>([1, 1])];
            tensor<int32, [2]> var_5723 = const()[name = tensor<string, []>("op_5723"), val = tensor<int32, [2]>([1, 1])];
            tensor<string, []> k_57_pad_type_0 = const()[name = tensor<string, []>("k_57_pad_type_0"), val = tensor<string, []>("custom")];
            tensor<int32, [4]> k_57_pad_0 = const()[name = tensor<string, []>("k_57_pad_0"), val = tensor<int32, [4]>([0, 0, 0, 0])];
            tensor<fp16, [1280, 1280, 1, 1]> up_blocks_1_attentions_0_transformer_blocks_0_attn1_to_k_weight_to_fp16 = const()[name = tensor<string, []>("up_blocks_1_attentions_0_transformer_blocks_0_attn1_to_k_weight_to_fp16"), val = tensor<fp16, [1280, 1280, 1, 1]>(BLOBFILE(path = tensor<string, []>("@model_path/weights/weight.bin"), offset = tensor<uint64, []>(239314304)))];
            tensor<fp16, [2, 1280, 1, 256]> k_57_cast = conv(dilations = var_5723, groups = var_5599, pad = k_57_pad_0, pad_type = k_57_pad_type_0, strides = var_5721, weight = up_blocks_1_attentions_0_transformer_blocks_0_attn1_to_k_weight_to_fp16, x = hidden_states_167_cast);
            tensor<int32, [2]> var_5727 = const()[name = tensor<string, []>("op_5727"), val = tensor<int32, [2]>([1, 1])];
            tensor<int32, [2]> var_5729 = const()[name = tensor<string, []>("op_5729"), val = tensor<int32, [2]>([1, 1])];
            tensor<string, []> v_29_pad_type_0 = const()[name = tensor<string, []>("v_29_pad_type_0"), val = tensor<string, []>("custom")];
            tensor<int32, [4]> v_29_pad_0 = const()[name = tensor<string, []>("v_29_pad_0"), val = tensor<int32, [4]>([0, 0, 0, 0])];
            tensor<fp16, [1280, 1280, 1, 1]> up_blocks_1_attentions_0_transformer_blocks_0_attn1_to_v_weight_to_fp16 = const()[name = tensor<string, []>("up_blocks_1_attentions_0_transformer_blocks_0_attn1_to_v_weight_to_fp16"), val = tensor<fp16, [1280, 1280, 1, 1]>(BLOBFILE(path = tensor<string, []>("@model_path/weights/weight.bin"), offset = tensor<uint64, []>(242591168)))];
            tensor<fp16, [2, 1280, 1, 256]> v_29_cast = conv(dilations = var_5729, groups = var_5599, pad = v_29_pad_0, pad_type = v_29_pad_type_0, strides = var_5727, weight = up_blocks_1_attentions_0_transformer_blocks_0_attn1_to_v_weight_to_fp16, x = hidden_states_167_cast);
            tensor<int32, [4]> var_5733_begin_0 = const()[name = tensor<string, []>("op_5733_begin_0"), val = tensor<int32, [4]>([0, 0, 0, 0])];
            tensor<int32, [4]> var_5733_end_0 = const()[name = tensor<string, []>("op_5733_end_0"), val = tensor<int32, [4]>([2, 64, 1, 256])];
            tensor<bool, [4]> var_5733_end_mask_0 = const()[name = tensor<string, []>("op_5733_end_mask_0"), val = tensor<bool, [4]>([true, false, true, true])];
            tensor<fp16, [2, 64, 1, 256]> var_5733_cast = slice_by_index(begin = var_5733_begin_0, end = var_5733_end_0, end_mask = var_5733_end_mask_0, x = q_29_cast);
            tensor<int32, [4]> var_5737_begin_0 = const()[name = tensor<string, []>("op_5737_begin_0"), val = tensor<int32, [4]>([0, 64, 0, 0])];
            tensor<int32, [4]> var_5737_end_0 = const()[name = tensor<string, []>("op_5737_end_0"), val = tensor<int32, [4]>([2, 128, 1, 256])];
            tensor<bool, [4]> var_5737_end_mask_0 = const()[name = tensor<string, []>("op_5737_end_mask_0"), val = tensor<bool, [4]>([true, false, true, true])];
            tensor<fp16, [2, 64, 1, 256]> var_5737_cast = slice_by_index(begin = var_5737_begin_0, end = var_5737_end_0, end_mask = var_5737_end_mask_0, x = q_29_cast);
            tensor<int32, [4]> var_5741_begin_0 = const()[name = tensor<string, []>("op_5741_begin_0"), val = tensor<int32, [4]>([0, 128, 0, 0])];
            tensor<int32, [4]> var_5741_end_0 = const()[name = tensor<string, []>("op_5741_end_0"), val = tensor<int32, [4]>([2, 192, 1, 256])];
            tensor<bool, [4]> var_5741_end_mask_0 = const()[name = tensor<string, []>("op_5741_end_mask_0"), val = tensor<bool, [4]>([true, false, true, true])];
            tensor<fp16, [2, 64, 1, 256]> var_5741_cast = slice_by_index(begin = var_5741_begin_0, end = var_5741_end_0, end_mask = var_5741_end_mask_0, x = q_29_cast);
            tensor<int32, [4]> var_5745_begin_0 = const()[name = tensor<string, []>("op_5745_begin_0"), val = tensor<int32, [4]>([0, 192, 0, 0])];
            tensor<int32, [4]> var_5745_end_0 = const()[name = tensor<string, []>("op_5745_end_0"), val = tensor<int32, [4]>([2, 256, 1, 256])];
            tensor<bool, [4]> var_5745_end_mask_0 = const()[name = tensor<string, []>("op_5745_end_mask_0"), val = tensor<bool, [4]>([true, false, true, true])];
            tensor<fp16, [2, 64, 1, 256]> var_5745_cast = slice_by_index(begin = var_5745_begin_0, end = var_5745_end_0, end_mask = var_5745_end_mask_0, x = q_29_cast);
            tensor<int32, [4]> var_5749_begin_0 = const()[name = tensor<string, []>("op_5749_begin_0"), val = tensor<int32, [4]>([0, 256, 0, 0])];
            tensor<int32, [4]> var_5749_end_0 = const()[name = tensor<string, []>("op_5749_end_0"), val = tensor<int32, [4]>([2, 320, 1, 256])];
            tensor<bool, [4]> var_5749_end_mask_0 = const()[name = tensor<string, []>("op_5749_end_mask_0"), val = tensor<bool, [4]>([true, false, true, true])];
            tensor<fp16, [2, 64, 1, 256]> var_5749_cast = slice_by_index(begin = var_5749_begin_0, end = var_5749_end_0, end_mask = var_5749_end_mask_0, x = q_29_cast);
            tensor<int32, [4]> var_5753_begin_0 = const()[name = tensor<string, []>("op_5753_begin_0"), val = tensor<int32, [4]>([0, 320, 0, 0])];
            tensor<int32, [4]> var_5753_end_0 = const()[name = tensor<string, []>("op_5753_end_0"), val = tensor<int32, [4]>([2, 384, 1, 256])];
            tensor<bool, [4]> var_5753_end_mask_0 = const()[name = tensor<string, []>("op_5753_end_mask_0"), val = tensor<bool, [4]>([true, false, true, true])];
            tensor<fp16, [2, 64, 1, 256]> var_5753_cast = slice_by_index(begin = var_5753_begin_0, end = var_5753_end_0, end_mask = var_5753_end_mask_0, x = q_29_cast);
            tensor<int32, [4]> var_5757_begin_0 = const()[name = tensor<string, []>("op_5757_begin_0"), val = tensor<int32, [4]>([0, 384, 0, 0])];
            tensor<int32, [4]> var_5757_end_0 = const()[name = tensor<string, []>("op_5757_end_0"), val = tensor<int32, [4]>([2, 448, 1, 256])];
            tensor<bool, [4]> var_5757_end_mask_0 = const()[name = tensor<string, []>("op_5757_end_mask_0"), val = tensor<bool, [4]>([true, false, true, true])];
            tensor<fp16, [2, 64, 1, 256]> var_5757_cast = slice_by_index(begin = var_5757_begin_0, end = var_5757_end_0, end_mask = var_5757_end_mask_0, x = q_29_cast);
            tensor<int32, [4]> var_5761_begin_0 = const()[name = tensor<string, []>("op_5761_begin_0"), val = tensor<int32, [4]>([0, 448, 0, 0])];
            tensor<int32, [4]> var_5761_end_0 = const()[name = tensor<string, []>("op_5761_end_0"), val = tensor<int32, [4]>([2, 512, 1, 256])];
            tensor<bool, [4]> var_5761_end_mask_0 = const()[name = tensor<string, []>("op_5761_end_mask_0"), val = tensor<bool, [4]>([true, false, true, true])];
            tensor<fp16, [2, 64, 1, 256]> var_5761_cast = slice_by_index(begin = var_5761_begin_0, end = var_5761_end_0, end_mask = var_5761_end_mask_0, x = q_29_cast);
            tensor<int32, [4]> var_5765_begin_0 = const()[name = tensor<string, []>("op_5765_begin_0"), val = tensor<int32, [4]>([0, 512, 0, 0])];
            tensor<int32, [4]> var_5765_end_0 = const()[name = tensor<string, []>("op_5765_end_0"), val = tensor<int32, [4]>([2, 576, 1, 256])];
            tensor<bool, [4]> var_5765_end_mask_0 = const()[name = tensor<string, []>("op_5765_end_mask_0"), val = tensor<bool, [4]>([true, false, true, true])];
            tensor<fp16, [2, 64, 1, 256]> var_5765_cast = slice_by_index(begin = var_5765_begin_0, end = var_5765_end_0, end_mask = var_5765_end_mask_0, x = q_29_cast);
            tensor<int32, [4]> var_5769_begin_0 = const()[name = tensor<string, []>("op_5769_begin_0"), val = tensor<int32, [4]>([0, 576, 0, 0])];
            tensor<int32, [4]> var_5769_end_0 = const()[name = tensor<string, []>("op_5769_end_0"), val = tensor<int32, [4]>([2, 640, 1, 256])];
            tensor<bool, [4]> var_5769_end_mask_0 = const()[name = tensor<string, []>("op_5769_end_mask_0"), val = tensor<bool, [4]>([true, false, true, true])];
            tensor<fp16, [2, 64, 1, 256]> var_5769_cast = slice_by_index(begin = var_5769_begin_0, end = var_5769_end_0, end_mask = var_5769_end_mask_0, x = q_29_cast);
            tensor<int32, [4]> var_5773_begin_0 = const()[name = tensor<string, []>("op_5773_begin_0"), val = tensor<int32, [4]>([0, 640, 0, 0])];
            tensor<int32, [4]> var_5773_end_0 = const()[name = tensor<string, []>("op_5773_end_0"), val = tensor<int32, [4]>([2, 704, 1, 256])];
            tensor<bool, [4]> var_5773_end_mask_0 = const()[name = tensor<string, []>("op_5773_end_mask_0"), val = tensor<bool, [4]>([true, false, true, true])];
            tensor<fp16, [2, 64, 1, 256]> var_5773_cast = slice_by_index(begin = var_5773_begin_0, end = var_5773_end_0, end_mask = var_5773_end_mask_0, x = q_29_cast);
            tensor<int32, [4]> var_5777_begin_0 = const()[name = tensor<string, []>("op_5777_begin_0"), val = tensor<int32, [4]>([0, 704, 0, 0])];
            tensor<int32, [4]> var_5777_end_0 = const()[name = tensor<string, []>("op_5777_end_0"), val = tensor<int32, [4]>([2, 768, 1, 256])];
            tensor<bool, [4]> var_5777_end_mask_0 = const()[name = tensor<string, []>("op_5777_end_mask_0"), val = tensor<bool, [4]>([true, false, true, true])];
            tensor<fp16, [2, 64, 1, 256]> var_5777_cast = slice_by_index(begin = var_5777_begin_0, end = var_5777_end_0, end_mask = var_5777_end_mask_0, x = q_29_cast);
            tensor<int32, [4]> var_5781_begin_0 = const()[name = tensor<string, []>("op_5781_begin_0"), val = tensor<int32, [4]>([0, 768, 0, 0])];
            tensor<int32, [4]> var_5781_end_0 = const()[name = tensor<string, []>("op_5781_end_0"), val = tensor<int32, [4]>([2, 832, 1, 256])];
            tensor<bool, [4]> var_5781_end_mask_0 = const()[name = tensor<string, []>("op_5781_end_mask_0"), val = tensor<bool, [4]>([true, false, true, true])];
            tensor<fp16, [2, 64, 1, 256]> var_5781_cast = slice_by_index(begin = var_5781_begin_0, end = var_5781_end_0, end_mask = var_5781_end_mask_0, x = q_29_cast);
            tensor<int32, [4]> var_5785_begin_0 = const()[name = tensor<string, []>("op_5785_begin_0"), val = tensor<int32, [4]>([0, 832, 0, 0])];
            tensor<int32, [4]> var_5785_end_0 = const()[name = tensor<string, []>("op_5785_end_0"), val = tensor<int32, [4]>([2, 896, 1, 256])];
            tensor<bool, [4]> var_5785_end_mask_0 = const()[name = tensor<string, []>("op_5785_end_mask_0"), val = tensor<bool, [4]>([true, false, true, true])];
            tensor<fp16, [2, 64, 1, 256]> var_5785_cast = slice_by_index(begin = var_5785_begin_0, end = var_5785_end_0, end_mask = var_5785_end_mask_0, x = q_29_cast);
            tensor<int32, [4]> var_5789_begin_0 = const()[name = tensor<string, []>("op_5789_begin_0"), val = tensor<int32, [4]>([0, 896, 0, 0])];
            tensor<int32, [4]> var_5789_end_0 = const()[name = tensor<string, []>("op_5789_end_0"), val = tensor<int32, [4]>([2, 960, 1, 256])];
            tensor<bool, [4]> var_5789_end_mask_0 = const()[name = tensor<string, []>("op_5789_end_mask_0"), val = tensor<bool, [4]>([true, false, true, true])];
            tensor<fp16, [2, 64, 1, 256]> var_5789_cast = slice_by_index(begin = var_5789_begin_0, end = var_5789_end_0, end_mask = var_5789_end_mask_0, x = q_29_cast);
            tensor<int32, [4]> var_5793_begin_0 = const()[name = tensor<string, []>("op_5793_begin_0"), val = tensor<int32, [4]>([0, 960, 0, 0])];
            tensor<int32, [4]> var_5793_end_0 = const()[name = tensor<string, []>("op_5793_end_0"), val = tensor<int32, [4]>([2, 1024, 1, 256])];
            tensor<bool, [4]> var_5793_end_mask_0 = const()[name = tensor<string, []>("op_5793_end_mask_0"), val = tensor<bool, [4]>([true, false, true, true])];
            tensor<fp16, [2, 64, 1, 256]> var_5793_cast = slice_by_index(begin = var_5793_begin_0, end = var_5793_end_0, end_mask = var_5793_end_mask_0, x = q_29_cast);
            tensor<int32, [4]> var_5797_begin_0 = const()[name = tensor<string, []>("op_5797_begin_0"), val = tensor<int32, [4]>([0, 1024, 0, 0])];
            tensor<int32, [4]> var_5797_end_0 = const()[name = tensor<string, []>("op_5797_end_0"), val = tensor<int32, [4]>([2, 1088, 1, 256])];
            tensor<bool, [4]> var_5797_end_mask_0 = const()[name = tensor<string, []>("op_5797_end_mask_0"), val = tensor<bool, [4]>([true, false, true, true])];
            tensor<fp16, [2, 64, 1, 256]> var_5797_cast = slice_by_index(begin = var_5797_begin_0, end = var_5797_end_0, end_mask = var_5797_end_mask_0, x = q_29_cast);
            tensor<int32, [4]> var_5801_begin_0 = const()[name = tensor<string, []>("op_5801_begin_0"), val = tensor<int32, [4]>([0, 1088, 0, 0])];
            tensor<int32, [4]> var_5801_end_0 = const()[name = tensor<string, []>("op_5801_end_0"), val = tensor<int32, [4]>([2, 1152, 1, 256])];
            tensor<bool, [4]> var_5801_end_mask_0 = const()[name = tensor<string, []>("op_5801_end_mask_0"), val = tensor<bool, [4]>([true, false, true, true])];
            tensor<fp16, [2, 64, 1, 256]> var_5801_cast = slice_by_index(begin = var_5801_begin_0, end = var_5801_end_0, end_mask = var_5801_end_mask_0, x = q_29_cast);
            tensor<int32, [4]> var_5805_begin_0 = const()[name = tensor<string, []>("op_5805_begin_0"), val = tensor<int32, [4]>([0, 1152, 0, 0])];
            tensor<int32, [4]> var_5805_end_0 = const()[name = tensor<string, []>("op_5805_end_0"), val = tensor<int32, [4]>([2, 1216, 1, 256])];
            tensor<bool, [4]> var_5805_end_mask_0 = const()[name = tensor<string, []>("op_5805_end_mask_0"), val = tensor<bool, [4]>([true, false, true, true])];
            tensor<fp16, [2, 64, 1, 256]> var_5805_cast = slice_by_index(begin = var_5805_begin_0, end = var_5805_end_0, end_mask = var_5805_end_mask_0, x = q_29_cast);
            tensor<int32, [4]> var_5809_begin_0 = const()[name = tensor<string, []>("op_5809_begin_0"), val = tensor<int32, [4]>([0, 1216, 0, 0])];
            tensor<int32, [4]> var_5809_end_0 = const()[name = tensor<string, []>("op_5809_end_0"), val = tensor<int32, [4]>([2, 1280, 1, 256])];
            tensor<bool, [4]> var_5809_end_mask_0 = const()[name = tensor<string, []>("op_5809_end_mask_0"), val = tensor<bool, [4]>([true, false, true, true])];
            tensor<fp16, [2, 64, 1, 256]> var_5809_cast = slice_by_index(begin = var_5809_begin_0, end = var_5809_end_0, end_mask = var_5809_end_mask_0, x = q_29_cast);
            tensor<int32, [4]> k_59_perm_0 = const()[name = tensor<string, []>("k_59_perm_0"), val = tensor<int32, [4]>([0, 3, 2, 1])];
            tensor<int32, [4]> var_5816_begin_0 = const()[name = tensor<string, []>("op_5816_begin_0"), val = tensor<int32, [4]>([0, 0, 0, 0])];
            tensor<int32, [4]> var_5816_end_0 = const()[name = tensor<string, []>("op_5816_end_0"), val = tensor<int32, [4]>([2, 256, 1, 64])];
            tensor<bool, [4]> var_5816_end_mask_0 = const()[name = tensor<string, []>("op_5816_end_mask_0"), val = tensor<bool, [4]>([true, true, true, false])];
            tensor<fp16, [2, 256, 1, 1280]> transpose_17 = transpose(perm = k_59_perm_0, x = k_57_cast);
            tensor<fp16, [2, 256, 1, 64]> var_5816_cast = slice_by_index(begin = var_5816_begin_0, end = var_5816_end_0, end_mask = var_5816_end_mask_0, x = transpose_17);
            tensor<int32, [4]> var_5820_begin_0 = const()[name = tensor<string, []>("op_5820_begin_0"), val = tensor<int32, [4]>([0, 0, 0, 64])];
            tensor<int32, [4]> var_5820_end_0 = const()[name = tensor<string, []>("op_5820_end_0"), val = tensor<int32, [4]>([2, 256, 1, 128])];
            tensor<bool, [4]> var_5820_end_mask_0 = const()[name = tensor<string, []>("op_5820_end_mask_0"), val = tensor<bool, [4]>([true, true, true, false])];
            tensor<fp16, [2, 256, 1, 64]> var_5820_cast = slice_by_index(begin = var_5820_begin_0, end = var_5820_end_0, end_mask = var_5820_end_mask_0, x = transpose_17);
            tensor<int32, [4]> var_5824_begin_0 = const()[name = tensor<string, []>("op_5824_begin_0"), val = tensor<int32, [4]>([0, 0, 0, 128])];
            tensor<int32, [4]> var_5824_end_0 = const()[name = tensor<string, []>("op_5824_end_0"), val = tensor<int32, [4]>([2, 256, 1, 192])];
            tensor<bool, [4]> var_5824_end_mask_0 = const()[name = tensor<string, []>("op_5824_end_mask_0"), val = tensor<bool, [4]>([true, true, true, false])];
            tensor<fp16, [2, 256, 1, 64]> var_5824_cast = slice_by_index(begin = var_5824_begin_0, end = var_5824_end_0, end_mask = var_5824_end_mask_0, x = transpose_17);
            tensor<int32, [4]> var_5828_begin_0 = const()[name = tensor<string, []>("op_5828_begin_0"), val = tensor<int32, [4]>([0, 0, 0, 192])];
            tensor<int32, [4]> var_5828_end_0 = const()[name = tensor<string, []>("op_5828_end_0"), val = tensor<int32, [4]>([2, 256, 1, 256])];
            tensor<bool, [4]> var_5828_end_mask_0 = const()[name = tensor<string, []>("op_5828_end_mask_0"), val = tensor<bool, [4]>([true, true, true, false])];
            tensor<fp16, [2, 256, 1, 64]> var_5828_cast = slice_by_index(begin = var_5828_begin_0, end = var_5828_end_0, end_mask = var_5828_end_mask_0, x = transpose_17);
            tensor<int32, [4]> var_5832_begin_0 = const()[name = tensor<string, []>("op_5832_begin_0"), val = tensor<int32, [4]>([0, 0, 0, 256])];
            tensor<int32, [4]> var_5832_end_0 = const()[name = tensor<string, []>("op_5832_end_0"), val = tensor<int32, [4]>([2, 256, 1, 320])];
            tensor<bool, [4]> var_5832_end_mask_0 = const()[name = tensor<string, []>("op_5832_end_mask_0"), val = tensor<bool, [4]>([true, true, true, false])];
            tensor<fp16, [2, 256, 1, 64]> var_5832_cast = slice_by_index(begin = var_5832_begin_0, end = var_5832_end_0, end_mask = var_5832_end_mask_0, x = transpose_17);
            tensor<int32, [4]> var_5836_begin_0 = const()[name = tensor<string, []>("op_5836_begin_0"), val = tensor<int32, [4]>([0, 0, 0, 320])];
            tensor<int32, [4]> var_5836_end_0 = const()[name = tensor<string, []>("op_5836_end_0"), val = tensor<int32, [4]>([2, 256, 1, 384])];
            tensor<bool, [4]> var_5836_end_mask_0 = const()[name = tensor<string, []>("op_5836_end_mask_0"), val = tensor<bool, [4]>([true, true, true, false])];
            tensor<fp16, [2, 256, 1, 64]> var_5836_cast = slice_by_index(begin = var_5836_begin_0, end = var_5836_end_0, end_mask = var_5836_end_mask_0, x = transpose_17);
            tensor<int32, [4]> var_5840_begin_0 = const()[name = tensor<string, []>("op_5840_begin_0"), val = tensor<int32, [4]>([0, 0, 0, 384])];
            tensor<int32, [4]> var_5840_end_0 = const()[name = tensor<string, []>("op_5840_end_0"), val = tensor<int32, [4]>([2, 256, 1, 448])];
            tensor<bool, [4]> var_5840_end_mask_0 = const()[name = tensor<string, []>("op_5840_end_mask_0"), val = tensor<bool, [4]>([true, true, true, false])];
            tensor<fp16, [2, 256, 1, 64]> var_5840_cast = slice_by_index(begin = var_5840_begin_0, end = var_5840_end_0, end_mask = var_5840_end_mask_0, x = transpose_17);
            tensor<int32, [4]> var_5844_begin_0 = const()[name = tensor<string, []>("op_5844_begin_0"), val = tensor<int32, [4]>([0, 0, 0, 448])];
            tensor<int32, [4]> var_5844_end_0 = const()[name = tensor<string, []>("op_5844_end_0"), val = tensor<int32, [4]>([2, 256, 1, 512])];
            tensor<bool, [4]> var_5844_end_mask_0 = const()[name = tensor<string, []>("op_5844_end_mask_0"), val = tensor<bool, [4]>([true, true, true, false])];
            tensor<fp16, [2, 256, 1, 64]> var_5844_cast = slice_by_index(begin = var_5844_begin_0, end = var_5844_end_0, end_mask = var_5844_end_mask_0, x = transpose_17);
            tensor<int32, [4]> var_5848_begin_0 = const()[name = tensor<string, []>("op_5848_begin_0"), val = tensor<int32, [4]>([0, 0, 0, 512])];
            tensor<int32, [4]> var_5848_end_0 = const()[name = tensor<string, []>("op_5848_end_0"), val = tensor<int32, [4]>([2, 256, 1, 576])];
            tensor<bool, [4]> var_5848_end_mask_0 = const()[name = tensor<string, []>("op_5848_end_mask_0"), val = tensor<bool, [4]>([true, true, true, false])];
            tensor<fp16, [2, 256, 1, 64]> var_5848_cast = slice_by_index(begin = var_5848_begin_0, end = var_5848_end_0, end_mask = var_5848_end_mask_0, x = transpose_17);
            tensor<int32, [4]> var_5852_begin_0 = const()[name = tensor<string, []>("op_5852_begin_0"), val = tensor<int32, [4]>([0, 0, 0, 576])];
            tensor<int32, [4]> var_5852_end_0 = const()[name = tensor<string, []>("op_5852_end_0"), val = tensor<int32, [4]>([2, 256, 1, 640])];
            tensor<bool, [4]> var_5852_end_mask_0 = const()[name = tensor<string, []>("op_5852_end_mask_0"), val = tensor<bool, [4]>([true, true, true, false])];
            tensor<fp16, [2, 256, 1, 64]> var_5852_cast = slice_by_index(begin = var_5852_begin_0, end = var_5852_end_0, end_mask = var_5852_end_mask_0, x = transpose_17);
            tensor<int32, [4]> var_5856_begin_0 = const()[name = tensor<string, []>("op_5856_begin_0"), val = tensor<int32, [4]>([0, 0, 0, 640])];
            tensor<int32, [4]> var_5856_end_0 = const()[name = tensor<string, []>("op_5856_end_0"), val = tensor<int32, [4]>([2, 256, 1, 704])];
            tensor<bool, [4]> var_5856_end_mask_0 = const()[name = tensor<string, []>("op_5856_end_mask_0"), val = tensor<bool, [4]>([true, true, true, false])];
            tensor<fp16, [2, 256, 1, 64]> var_5856_cast = slice_by_index(begin = var_5856_begin_0, end = var_5856_end_0, end_mask = var_5856_end_mask_0, x = transpose_17);
            tensor<int32, [4]> var_5860_begin_0 = const()[name = tensor<string, []>("op_5860_begin_0"), val = tensor<int32, [4]>([0, 0, 0, 704])];
            tensor<int32, [4]> var_5860_end_0 = const()[name = tensor<string, []>("op_5860_end_0"), val = tensor<int32, [4]>([2, 256, 1, 768])];
            tensor<bool, [4]> var_5860_end_mask_0 = const()[name = tensor<string, []>("op_5860_end_mask_0"), val = tensor<bool, [4]>([true, true, true, false])];
            tensor<fp16, [2, 256, 1, 64]> var_5860_cast = slice_by_index(begin = var_5860_begin_0, end = var_5860_end_0, end_mask = var_5860_end_mask_0, x = transpose_17);
            tensor<int32, [4]> var_5864_begin_0 = const()[name = tensor<string, []>("op_5864_begin_0"), val = tensor<int32, [4]>([0, 0, 0, 768])];
            tensor<int32, [4]> var_5864_end_0 = const()[name = tensor<string, []>("op_5864_end_0"), val = tensor<int32, [4]>([2, 256, 1, 832])];
            tensor<bool, [4]> var_5864_end_mask_0 = const()[name = tensor<string, []>("op_5864_end_mask_0"), val = tensor<bool, [4]>([true, true, true, false])];
            tensor<fp16, [2, 256, 1, 64]> var_5864_cast = slice_by_index(begin = var_5864_begin_0, end = var_5864_end_0, end_mask = var_5864_end_mask_0, x = transpose_17);
            tensor<int32, [4]> var_5868_begin_0 = const()[name = tensor<string, []>("op_5868_begin_0"), val = tensor<int32, [4]>([0, 0, 0, 832])];
            tensor<int32, [4]> var_5868_end_0 = const()[name = tensor<string, []>("op_5868_end_0"), val = tensor<int32, [4]>([2, 256, 1, 896])];
            tensor<bool, [4]> var_5868_end_mask_0 = const()[name = tensor<string, []>("op_5868_end_mask_0"), val = tensor<bool, [4]>([true, true, true, false])];
            tensor<fp16, [2, 256, 1, 64]> var_5868_cast = slice_by_index(begin = var_5868_begin_0, end = var_5868_end_0, end_mask = var_5868_end_mask_0, x = transpose_17);
            tensor<int32, [4]> var_5872_begin_0 = const()[name = tensor<string, []>("op_5872_begin_0"), val = tensor<int32, [4]>([0, 0, 0, 896])];
            tensor<int32, [4]> var_5872_end_0 = const()[name = tensor<string, []>("op_5872_end_0"), val = tensor<int32, [4]>([2, 256, 1, 960])];
            tensor<bool, [4]> var_5872_end_mask_0 = const()[name = tensor<string, []>("op_5872_end_mask_0"), val = tensor<bool, [4]>([true, true, true, false])];
            tensor<fp16, [2, 256, 1, 64]> var_5872_cast = slice_by_index(begin = var_5872_begin_0, end = var_5872_end_0, end_mask = var_5872_end_mask_0, x = transpose_17);
            tensor<int32, [4]> var_5876_begin_0 = const()[name = tensor<string, []>("op_5876_begin_0"), val = tensor<int32, [4]>([0, 0, 0, 960])];
            tensor<int32, [4]> var_5876_end_0 = const()[name = tensor<string, []>("op_5876_end_0"), val = tensor<int32, [4]>([2, 256, 1, 1024])];
            tensor<bool, [4]> var_5876_end_mask_0 = const()[name = tensor<string, []>("op_5876_end_mask_0"), val = tensor<bool, [4]>([true, true, true, false])];
            tensor<fp16, [2, 256, 1, 64]> var_5876_cast = slice_by_index(begin = var_5876_begin_0, end = var_5876_end_0, end_mask = var_5876_end_mask_0, x = transpose_17);
            tensor<int32, [4]> var_5880_begin_0 = const()[name = tensor<string, []>("op_5880_begin_0"), val = tensor<int32, [4]>([0, 0, 0, 1024])];
            tensor<int32, [4]> var_5880_end_0 = const()[name = tensor<string, []>("op_5880_end_0"), val = tensor<int32, [4]>([2, 256, 1, 1088])];
            tensor<bool, [4]> var_5880_end_mask_0 = const()[name = tensor<string, []>("op_5880_end_mask_0"), val = tensor<bool, [4]>([true, true, true, false])];
            tensor<fp16, [2, 256, 1, 64]> var_5880_cast = slice_by_index(begin = var_5880_begin_0, end = var_5880_end_0, end_mask = var_5880_end_mask_0, x = transpose_17);
            tensor<int32, [4]> var_5884_begin_0 = const()[name = tensor<string, []>("op_5884_begin_0"), val = tensor<int32, [4]>([0, 0, 0, 1088])];
            tensor<int32, [4]> var_5884_end_0 = const()[name = tensor<string, []>("op_5884_end_0"), val = tensor<int32, [4]>([2, 256, 1, 1152])];
            tensor<bool, [4]> var_5884_end_mask_0 = const()[name = tensor<string, []>("op_5884_end_mask_0"), val = tensor<bool, [4]>([true, true, true, false])];
            tensor<fp16, [2, 256, 1, 64]> var_5884_cast = slice_by_index(begin = var_5884_begin_0, end = var_5884_end_0, end_mask = var_5884_end_mask_0, x = transpose_17);
            tensor<int32, [4]> var_5888_begin_0 = const()[name = tensor<string, []>("op_5888_begin_0"), val = tensor<int32, [4]>([0, 0, 0, 1152])];
            tensor<int32, [4]> var_5888_end_0 = const()[name = tensor<string, []>("op_5888_end_0"), val = tensor<int32, [4]>([2, 256, 1, 1216])];
            tensor<bool, [4]> var_5888_end_mask_0 = const()[name = tensor<string, []>("op_5888_end_mask_0"), val = tensor<bool, [4]>([true, true, true, false])];
            tensor<fp16, [2, 256, 1, 64]> var_5888_cast = slice_by_index(begin = var_5888_begin_0, end = var_5888_end_0, end_mask = var_5888_end_mask_0, x = transpose_17);
            tensor<int32, [4]> var_5892_begin_0 = const()[name = tensor<string, []>("op_5892_begin_0"), val = tensor<int32, [4]>([0, 0, 0, 1216])];
            tensor<int32, [4]> var_5892_end_0 = const()[name = tensor<string, []>("op_5892_end_0"), val = tensor<int32, [4]>([2, 256, 1, 1280])];
            tensor<bool, [4]> var_5892_end_mask_0 = const()[name = tensor<string, []>("op_5892_end_mask_0"), val = tensor<bool, [4]>([true, true, true, false])];
            tensor<fp16, [2, 256, 1, 64]> var_5892_cast = slice_by_index(begin = var_5892_begin_0, end = var_5892_end_0, end_mask = var_5892_end_mask_0, x = transpose_17);
            tensor<int32, [4]> var_5894_begin_0 = const()[name = tensor<string, []>("op_5894_begin_0"), val = tensor<int32, [4]>([0, 0, 0, 0])];
            tensor<int32, [4]> var_5894_end_0 = const()[name = tensor<string, []>("op_5894_end_0"), val = tensor<int32, [4]>([2, 64, 1, 256])];
            tensor<bool, [4]> var_5894_end_mask_0 = const()[name = tensor<string, []>("op_5894_end_mask_0"), val = tensor<bool, [4]>([true, false, true, true])];
            tensor<fp16, [2, 64, 1, 256]> var_5894_cast = slice_by_index(begin = var_5894_begin_0, end = var_5894_end_0, end_mask = var_5894_end_mask_0, x = v_29_cast);
            tensor<int32, [4]> var_5898_begin_0 = const()[name = tensor<string, []>("op_5898_begin_0"), val = tensor<int32, [4]>([0, 64, 0, 0])];
            tensor<int32, [4]> var_5898_end_0 = const()[name = tensor<string, []>("op_5898_end_0"), val = tensor<int32, [4]>([2, 128, 1, 256])];
            tensor<bool, [4]> var_5898_end_mask_0 = const()[name = tensor<string, []>("op_5898_end_mask_0"), val = tensor<bool, [4]>([true, false, true, true])];
            tensor<fp16, [2, 64, 1, 256]> var_5898_cast = slice_by_index(begin = var_5898_begin_0, end = var_5898_end_0, end_mask = var_5898_end_mask_0, x = v_29_cast);
            tensor<int32, [4]> var_5902_begin_0 = const()[name = tensor<string, []>("op_5902_begin_0"), val = tensor<int32, [4]>([0, 128, 0, 0])];
            tensor<int32, [4]> var_5902_end_0 = const()[name = tensor<string, []>("op_5902_end_0"), val = tensor<int32, [4]>([2, 192, 1, 256])];
            tensor<bool, [4]> var_5902_end_mask_0 = const()[name = tensor<string, []>("op_5902_end_mask_0"), val = tensor<bool, [4]>([true, false, true, true])];
            tensor<fp16, [2, 64, 1, 256]> var_5902_cast = slice_by_index(begin = var_5902_begin_0, end = var_5902_end_0, end_mask = var_5902_end_mask_0, x = v_29_cast);
            tensor<int32, [4]> var_5906_begin_0 = const()[name = tensor<string, []>("op_5906_begin_0"), val = tensor<int32, [4]>([0, 192, 0, 0])];
            tensor<int32, [4]> var_5906_end_0 = const()[name = tensor<string, []>("op_5906_end_0"), val = tensor<int32, [4]>([2, 256, 1, 256])];
            tensor<bool, [4]> var_5906_end_mask_0 = const()[name = tensor<string, []>("op_5906_end_mask_0"), val = tensor<bool, [4]>([true, false, true, true])];
            tensor<fp16, [2, 64, 1, 256]> var_5906_cast = slice_by_index(begin = var_5906_begin_0, end = var_5906_end_0, end_mask = var_5906_end_mask_0, x = v_29_cast);
            tensor<int32, [4]> var_5910_begin_0 = const()[name = tensor<string, []>("op_5910_begin_0"), val = tensor<int32, [4]>([0, 256, 0, 0])];
            tensor<int32, [4]> var_5910_end_0 = const()[name = tensor<string, []>("op_5910_end_0"), val = tensor<int32, [4]>([2, 320, 1, 256])];
            tensor<bool, [4]> var_5910_end_mask_0 = const()[name = tensor<string, []>("op_5910_end_mask_0"), val = tensor<bool, [4]>([true, false, true, true])];
            tensor<fp16, [2, 64, 1, 256]> var_5910_cast = slice_by_index(begin = var_5910_begin_0, end = var_5910_end_0, end_mask = var_5910_end_mask_0, x = v_29_cast);
            tensor<int32, [4]> var_5914_begin_0 = const()[name = tensor<string, []>("op_5914_begin_0"), val = tensor<int32, [4]>([0, 320, 0, 0])];
            tensor<int32, [4]> var_5914_end_0 = const()[name = tensor<string, []>("op_5914_end_0"), val = tensor<int32, [4]>([2, 384, 1, 256])];
            tensor<bool, [4]> var_5914_end_mask_0 = const()[name = tensor<string, []>("op_5914_end_mask_0"), val = tensor<bool, [4]>([true, false, true, true])];
            tensor<fp16, [2, 64, 1, 256]> var_5914_cast = slice_by_index(begin = var_5914_begin_0, end = var_5914_end_0, end_mask = var_5914_end_mask_0, x = v_29_cast);
            tensor<int32, [4]> var_5918_begin_0 = const()[name = tensor<string, []>("op_5918_begin_0"), val = tensor<int32, [4]>([0, 384, 0, 0])];
            tensor<int32, [4]> var_5918_end_0 = const()[name = tensor<string, []>("op_5918_end_0"), val = tensor<int32, [4]>([2, 448, 1, 256])];
            tensor<bool, [4]> var_5918_end_mask_0 = const()[name = tensor<string, []>("op_5918_end_mask_0"), val = tensor<bool, [4]>([true, false, true, true])];
            tensor<fp16, [2, 64, 1, 256]> var_5918_cast = slice_by_index(begin = var_5918_begin_0, end = var_5918_end_0, end_mask = var_5918_end_mask_0, x = v_29_cast);
            tensor<int32, [4]> var_5922_begin_0 = const()[name = tensor<string, []>("op_5922_begin_0"), val = tensor<int32, [4]>([0, 448, 0, 0])];
            tensor<int32, [4]> var_5922_end_0 = const()[name = tensor<string, []>("op_5922_end_0"), val = tensor<int32, [4]>([2, 512, 1, 256])];
            tensor<bool, [4]> var_5922_end_mask_0 = const()[name = tensor<string, []>("op_5922_end_mask_0"), val = tensor<bool, [4]>([true, false, true, true])];
            tensor<fp16, [2, 64, 1, 256]> var_5922_cast = slice_by_index(begin = var_5922_begin_0, end = var_5922_end_0, end_mask = var_5922_end_mask_0, x = v_29_cast);
            tensor<int32, [4]> var_5926_begin_0 = const()[name = tensor<string, []>("op_5926_begin_0"), val = tensor<int32, [4]>([0, 512, 0, 0])];
            tensor<int32, [4]> var_5926_end_0 = const()[name = tensor<string, []>("op_5926_end_0"), val = tensor<int32, [4]>([2, 576, 1, 256])];
            tensor<bool, [4]> var_5926_end_mask_0 = const()[name = tensor<string, []>("op_5926_end_mask_0"), val = tensor<bool, [4]>([true, false, true, true])];
            tensor<fp16, [2, 64, 1, 256]> var_5926_cast = slice_by_index(begin = var_5926_begin_0, end = var_5926_end_0, end_mask = var_5926_end_mask_0, x = v_29_cast);
            tensor<int32, [4]> var_5930_begin_0 = const()[name = tensor<string, []>("op_5930_begin_0"), val = tensor<int32, [4]>([0, 576, 0, 0])];
            tensor<int32, [4]> var_5930_end_0 = const()[name = tensor<string, []>("op_5930_end_0"), val = tensor<int32, [4]>([2, 640, 1, 256])];
            tensor<bool, [4]> var_5930_end_mask_0 = const()[name = tensor<string, []>("op_5930_end_mask_0"), val = tensor<bool, [4]>([true, false, true, true])];
            tensor<fp16, [2, 64, 1, 256]> var_5930_cast = slice_by_index(begin = var_5930_begin_0, end = var_5930_end_0, end_mask = var_5930_end_mask_0, x = v_29_cast);
            tensor<int32, [4]> var_5934_begin_0 = const()[name = tensor<string, []>("op_5934_begin_0"), val = tensor<int32, [4]>([0, 640, 0, 0])];
            tensor<int32, [4]> var_5934_end_0 = const()[name = tensor<string, []>("op_5934_end_0"), val = tensor<int32, [4]>([2, 704, 1, 256])];
            tensor<bool, [4]> var_5934_end_mask_0 = const()[name = tensor<string, []>("op_5934_end_mask_0"), val = tensor<bool, [4]>([true, false, true, true])];
            tensor<fp16, [2, 64, 1, 256]> var_5934_cast = slice_by_index(begin = var_5934_begin_0, end = var_5934_end_0, end_mask = var_5934_end_mask_0, x = v_29_cast);
            tensor<int32, [4]> var_5938_begin_0 = const()[name = tensor<string, []>("op_5938_begin_0"), val = tensor<int32, [4]>([0, 704, 0, 0])];
            tensor<int32, [4]> var_5938_end_0 = const()[name = tensor<string, []>("op_5938_end_0"), val = tensor<int32, [4]>([2, 768, 1, 256])];
            tensor<bool, [4]> var_5938_end_mask_0 = const()[name = tensor<string, []>("op_5938_end_mask_0"), val = tensor<bool, [4]>([true, false, true, true])];
            tensor<fp16, [2, 64, 1, 256]> var_5938_cast = slice_by_index(begin = var_5938_begin_0, end = var_5938_end_0, end_mask = var_5938_end_mask_0, x = v_29_cast);
            tensor<int32, [4]> var_5942_begin_0 = const()[name = tensor<string, []>("op_5942_begin_0"), val = tensor<int32, [4]>([0, 768, 0, 0])];
            tensor<int32, [4]> var_5942_end_0 = const()[name = tensor<string, []>("op_5942_end_0"), val = tensor<int32, [4]>([2, 832, 1, 256])];
            tensor<bool, [4]> var_5942_end_mask_0 = const()[name = tensor<string, []>("op_5942_end_mask_0"), val = tensor<bool, [4]>([true, false, true, true])];
            tensor<fp16, [2, 64, 1, 256]> var_5942_cast = slice_by_index(begin = var_5942_begin_0, end = var_5942_end_0, end_mask = var_5942_end_mask_0, x = v_29_cast);
            tensor<int32, [4]> var_5946_begin_0 = const()[name = tensor<string, []>("op_5946_begin_0"), val = tensor<int32, [4]>([0, 832, 0, 0])];
            tensor<int32, [4]> var_5946_end_0 = const()[name = tensor<string, []>("op_5946_end_0"), val = tensor<int32, [4]>([2, 896, 1, 256])];
            tensor<bool, [4]> var_5946_end_mask_0 = const()[name = tensor<string, []>("op_5946_end_mask_0"), val = tensor<bool, [4]>([true, false, true, true])];
            tensor<fp16, [2, 64, 1, 256]> var_5946_cast = slice_by_index(begin = var_5946_begin_0, end = var_5946_end_0, end_mask = var_5946_end_mask_0, x = v_29_cast);
            tensor<int32, [4]> var_5950_begin_0 = const()[name = tensor<string, []>("op_5950_begin_0"), val = tensor<int32, [4]>([0, 896, 0, 0])];
            tensor<int32, [4]> var_5950_end_0 = const()[name = tensor<string, []>("op_5950_end_0"), val = tensor<int32, [4]>([2, 960, 1, 256])];
            tensor<bool, [4]> var_5950_end_mask_0 = const()[name = tensor<string, []>("op_5950_end_mask_0"), val = tensor<bool, [4]>([true, false, true, true])];
            tensor<fp16, [2, 64, 1, 256]> var_5950_cast = slice_by_index(begin = var_5950_begin_0, end = var_5950_end_0, end_mask = var_5950_end_mask_0, x = v_29_cast);
            tensor<int32, [4]> var_5954_begin_0 = const()[name = tensor<string, []>("op_5954_begin_0"), val = tensor<int32, [4]>([0, 960, 0, 0])];
            tensor<int32, [4]> var_5954_end_0 = const()[name = tensor<string, []>("op_5954_end_0"), val = tensor<int32, [4]>([2, 1024, 1, 256])];
            tensor<bool, [4]> var_5954_end_mask_0 = const()[name = tensor<string, []>("op_5954_end_mask_0"), val = tensor<bool, [4]>([true, false, true, true])];
            tensor<fp16, [2, 64, 1, 256]> var_5954_cast = slice_by_index(begin = var_5954_begin_0, end = var_5954_end_0, end_mask = var_5954_end_mask_0, x = v_29_cast);
            tensor<int32, [4]> var_5958_begin_0 = const()[name = tensor<string, []>("op_5958_begin_0"), val = tensor<int32, [4]>([0, 1024, 0, 0])];
            tensor<int32, [4]> var_5958_end_0 = const()[name = tensor<string, []>("op_5958_end_0"), val = tensor<int32, [4]>([2, 1088, 1, 256])];
            tensor<bool, [4]> var_5958_end_mask_0 = const()[name = tensor<string, []>("op_5958_end_mask_0"), val = tensor<bool, [4]>([true, false, true, true])];
            tensor<fp16, [2, 64, 1, 256]> var_5958_cast = slice_by_index(begin = var_5958_begin_0, end = var_5958_end_0, end_mask = var_5958_end_mask_0, x = v_29_cast);
            tensor<int32, [4]> var_5962_begin_0 = const()[name = tensor<string, []>("op_5962_begin_0"), val = tensor<int32, [4]>([0, 1088, 0, 0])];
            tensor<int32, [4]> var_5962_end_0 = const()[name = tensor<string, []>("op_5962_end_0"), val = tensor<int32, [4]>([2, 1152, 1, 256])];
            tensor<bool, [4]> var_5962_end_mask_0 = const()[name = tensor<string, []>("op_5962_end_mask_0"), val = tensor<bool, [4]>([true, false, true, true])];
            tensor<fp16, [2, 64, 1, 256]> var_5962_cast = slice_by_index(begin = var_5962_begin_0, end = var_5962_end_0, end_mask = var_5962_end_mask_0, x = v_29_cast);
            tensor<int32, [4]> var_5966_begin_0 = const()[name = tensor<string, []>("op_5966_begin_0"), val = tensor<int32, [4]>([0, 1152, 0, 0])];
            tensor<int32, [4]> var_5966_end_0 = const()[name = tensor<string, []>("op_5966_end_0"), val = tensor<int32, [4]>([2, 1216, 1, 256])];
            tensor<bool, [4]> var_5966_end_mask_0 = const()[name = tensor<string, []>("op_5966_end_mask_0"), val = tensor<bool, [4]>([true, false, true, true])];
            tensor<fp16, [2, 64, 1, 256]> var_5966_cast = slice_by_index(begin = var_5966_begin_0, end = var_5966_end_0, end_mask = var_5966_end_mask_0, x = v_29_cast);
            tensor<int32, [4]> var_5970_begin_0 = const()[name = tensor<string, []>("op_5970_begin_0"), val = tensor<int32, [4]>([0, 1216, 0, 0])];
            tensor<int32, [4]> var_5970_end_0 = const()[name = tensor<string, []>("op_5970_end_0"), val = tensor<int32, [4]>([2, 1280, 1, 256])];
            tensor<bool, [4]> var_5970_end_mask_0 = const()[name = tensor<string, []>("op_5970_end_mask_0"), val = tensor<bool, [4]>([true, false, true, true])];
            tensor<fp16, [2, 64, 1, 256]> var_5970_cast = slice_by_index(begin = var_5970_begin_0, end = var_5970_end_0, end_mask = var_5970_end_mask_0, x = v_29_cast);
            tensor<string, []> var_5974_equation_0 = const()[name = tensor<string, []>("op_5974_equation_0"), val = tensor<string, []>("bkhc,bchq->bkhq")];
            tensor<fp16, [2, 256, 1, 256]> var_5974_cast = einsum(equation = var_5974_equation_0, values = (var_5816_cast, var_5733_cast));
            tensor<fp16, []> var_5975_to_fp16 = const()[name = tensor<string, []>("op_5975_to_fp16"), val = tensor<fp16, []>(0x1p-3)];
            tensor<fp16, [2, 256, 1, 256]> aw_361_cast = mul(x = var_5974_cast, y = var_5975_to_fp16);
            tensor<string, []> var_5978_equation_0 = const()[name = tensor<string, []>("op_5978_equation_0"), val = tensor<string, []>("bkhc,bchq->bkhq")];
            tensor<fp16, [2, 256, 1, 256]> var_5978_cast = einsum(equation = var_5978_equation_0, values = (var_5820_cast, var_5737_cast));
            tensor<fp16, []> var_5979_to_fp16 = const()[name = tensor<string, []>("op_5979_to_fp16"), val = tensor<fp16, []>(0x1p-3)];
            tensor<fp16, [2, 256, 1, 256]> aw_363_cast = mul(x = var_5978_cast, y = var_5979_to_fp16);
            tensor<string, []> var_5982_equation_0 = const()[name = tensor<string, []>("op_5982_equation_0"), val = tensor<string, []>("bkhc,bchq->bkhq")];
            tensor<fp16, [2, 256, 1, 256]> var_5982_cast = einsum(equation = var_5982_equation_0, values = (var_5824_cast, var_5741_cast));
            tensor<fp16, []> var_5983_to_fp16 = const()[name = tensor<string, []>("op_5983_to_fp16"), val = tensor<fp16, []>(0x1p-3)];
            tensor<fp16, [2, 256, 1, 256]> aw_365_cast = mul(x = var_5982_cast, y = var_5983_to_fp16);
            tensor<string, []> var_5986_equation_0 = const()[name = tensor<string, []>("op_5986_equation_0"), val = tensor<string, []>("bkhc,bchq->bkhq")];
            tensor<fp16, [2, 256, 1, 256]> var_5986_cast = einsum(equation = var_5986_equation_0, values = (var_5828_cast, var_5745_cast));
            tensor<fp16, []> var_5987_to_fp16 = const()[name = tensor<string, []>("op_5987_to_fp16"), val = tensor<fp16, []>(0x1p-3)];
            tensor<fp16, [2, 256, 1, 256]> aw_367_cast = mul(x = var_5986_cast, y = var_5987_to_fp16);
            tensor<string, []> var_5990_equation_0 = const()[name = tensor<string, []>("op_5990_equation_0"), val = tensor<string, []>("bkhc,bchq->bkhq")];
            tensor<fp16, [2, 256, 1, 256]> var_5990_cast = einsum(equation = var_5990_equation_0, values = (var_5832_cast, var_5749_cast));
            tensor<fp16, []> var_5991_to_fp16 = const()[name = tensor<string, []>("op_5991_to_fp16"), val = tensor<fp16, []>(0x1p-3)];
            tensor<fp16, [2, 256, 1, 256]> aw_369_cast = mul(x = var_5990_cast, y = var_5991_to_fp16);
            tensor<string, []> var_5994_equation_0 = const()[name = tensor<string, []>("op_5994_equation_0"), val = tensor<string, []>("bkhc,bchq->bkhq")];
            tensor<fp16, [2, 256, 1, 256]> var_5994_cast = einsum(equation = var_5994_equation_0, values = (var_5836_cast, var_5753_cast));
            tensor<fp16, []> var_5995_to_fp16 = const()[name = tensor<string, []>("op_5995_to_fp16"), val = tensor<fp16, []>(0x1p-3)];
            tensor<fp16, [2, 256, 1, 256]> aw_371_cast = mul(x = var_5994_cast, y = var_5995_to_fp16);
            tensor<string, []> var_5998_equation_0 = const()[name = tensor<string, []>("op_5998_equation_0"), val = tensor<string, []>("bkhc,bchq->bkhq")];
            tensor<fp16, [2, 256, 1, 256]> var_5998_cast = einsum(equation = var_5998_equation_0, values = (var_5840_cast, var_5757_cast));
            tensor<fp16, []> var_5999_to_fp16 = const()[name = tensor<string, []>("op_5999_to_fp16"), val = tensor<fp16, []>(0x1p-3)];
            tensor<fp16, [2, 256, 1, 256]> aw_373_cast = mul(x = var_5998_cast, y = var_5999_to_fp16);
            tensor<string, []> var_6002_equation_0 = const()[name = tensor<string, []>("op_6002_equation_0"), val = tensor<string, []>("bkhc,bchq->bkhq")];
            tensor<fp16, [2, 256, 1, 256]> var_6002_cast = einsum(equation = var_6002_equation_0, values = (var_5844_cast, var_5761_cast));
            tensor<fp16, []> var_6003_to_fp16 = const()[name = tensor<string, []>("op_6003_to_fp16"), val = tensor<fp16, []>(0x1p-3)];
            tensor<fp16, [2, 256, 1, 256]> aw_375_cast = mul(x = var_6002_cast, y = var_6003_to_fp16);
            tensor<string, []> var_6006_equation_0 = const()[name = tensor<string, []>("op_6006_equation_0"), val = tensor<string, []>("bkhc,bchq->bkhq")];
            tensor<fp16, [2, 256, 1, 256]> var_6006_cast = einsum(equation = var_6006_equation_0, values = (var_5848_cast, var_5765_cast));
            tensor<fp16, []> var_6007_to_fp16 = const()[name = tensor<string, []>("op_6007_to_fp16"), val = tensor<fp16, []>(0x1p-3)];
            tensor<fp16, [2, 256, 1, 256]> aw_377_cast = mul(x = var_6006_cast, y = var_6007_to_fp16);
            tensor<string, []> var_6010_equation_0 = const()[name = tensor<string, []>("op_6010_equation_0"), val = tensor<string, []>("bkhc,bchq->bkhq")];
            tensor<fp16, [2, 256, 1, 256]> var_6010_cast = einsum(equation = var_6010_equation_0, values = (var_5852_cast, var_5769_cast));
            tensor<fp16, []> var_6011_to_fp16 = const()[name = tensor<string, []>("op_6011_to_fp16"), val = tensor<fp16, []>(0x1p-3)];
            tensor<fp16, [2, 256, 1, 256]> aw_379_cast = mul(x = var_6010_cast, y = var_6011_to_fp16);
            tensor<string, []> var_6014_equation_0 = const()[name = tensor<string, []>("op_6014_equation_0"), val = tensor<string, []>("bkhc,bchq->bkhq")];
            tensor<fp16, [2, 256, 1, 256]> var_6014_cast = einsum(equation = var_6014_equation_0, values = (var_5856_cast, var_5773_cast));
            tensor<fp16, []> var_6015_to_fp16 = const()[name = tensor<string, []>("op_6015_to_fp16"), val = tensor<fp16, []>(0x1p-3)];
            tensor<fp16, [2, 256, 1, 256]> aw_381_cast = mul(x = var_6014_cast, y = var_6015_to_fp16);
            tensor<string, []> var_6018_equation_0 = const()[name = tensor<string, []>("op_6018_equation_0"), val = tensor<string, []>("bkhc,bchq->bkhq")];
            tensor<fp16, [2, 256, 1, 256]> var_6018_cast = einsum(equation = var_6018_equation_0, values = (var_5860_cast, var_5777_cast));
            tensor<fp16, []> var_6019_to_fp16 = const()[name = tensor<string, []>("op_6019_to_fp16"), val = tensor<fp16, []>(0x1p-3)];
            tensor<fp16, [2, 256, 1, 256]> aw_383_cast = mul(x = var_6018_cast, y = var_6019_to_fp16);
            tensor<string, []> var_6022_equation_0 = const()[name = tensor<string, []>("op_6022_equation_0"), val = tensor<string, []>("bkhc,bchq->bkhq")];
            tensor<fp16, [2, 256, 1, 256]> var_6022_cast = einsum(equation = var_6022_equation_0, values = (var_5864_cast, var_5781_cast));
            tensor<fp16, []> var_6023_to_fp16 = const()[name = tensor<string, []>("op_6023_to_fp16"), val = tensor<fp16, []>(0x1p-3)];
            tensor<fp16, [2, 256, 1, 256]> aw_385_cast = mul(x = var_6022_cast, y = var_6023_to_fp16);
            tensor<string, []> var_6026_equation_0 = const()[name = tensor<string, []>("op_6026_equation_0"), val = tensor<string, []>("bkhc,bchq->bkhq")];
            tensor<fp16, [2, 256, 1, 256]> var_6026_cast = einsum(equation = var_6026_equation_0, values = (var_5868_cast, var_5785_cast));
            tensor<fp16, []> var_6027_to_fp16 = const()[name = tensor<string, []>("op_6027_to_fp16"), val = tensor<fp16, []>(0x1p-3)];
            tensor<fp16, [2, 256, 1, 256]> aw_387_cast = mul(x = var_6026_cast, y = var_6027_to_fp16);
            tensor<string, []> var_6030_equation_0 = const()[name = tensor<string, []>("op_6030_equation_0"), val = tensor<string, []>("bkhc,bchq->bkhq")];
            tensor<fp16, [2, 256, 1, 256]> var_6030_cast = einsum(equation = var_6030_equation_0, values = (var_5872_cast, var_5789_cast));
            tensor<fp16, []> var_6031_to_fp16 = const()[name = tensor<string, []>("op_6031_to_fp16"), val = tensor<fp16, []>(0x1p-3)];
            tensor<fp16, [2, 256, 1, 256]> aw_389_cast = mul(x = var_6030_cast, y = var_6031_to_fp16);
            tensor<string, []> var_6034_equation_0 = const()[name = tensor<string, []>("op_6034_equation_0"), val = tensor<string, []>("bkhc,bchq->bkhq")];
            tensor<fp16, [2, 256, 1, 256]> var_6034_cast = einsum(equation = var_6034_equation_0, values = (var_5876_cast, var_5793_cast));
            tensor<fp16, []> var_6035_to_fp16 = const()[name = tensor<string, []>("op_6035_to_fp16"), val = tensor<fp16, []>(0x1p-3)];
            tensor<fp16, [2, 256, 1, 256]> aw_391_cast = mul(x = var_6034_cast, y = var_6035_to_fp16);
            tensor<string, []> var_6038_equation_0 = const()[name = tensor<string, []>("op_6038_equation_0"), val = tensor<string, []>("bkhc,bchq->bkhq")];
            tensor<fp16, [2, 256, 1, 256]> var_6038_cast = einsum(equation = var_6038_equation_0, values = (var_5880_cast, var_5797_cast));
            tensor<fp16, []> var_6039_to_fp16 = const()[name = tensor<string, []>("op_6039_to_fp16"), val = tensor<fp16, []>(0x1p-3)];
            tensor<fp16, [2, 256, 1, 256]> aw_393_cast = mul(x = var_6038_cast, y = var_6039_to_fp16);
            tensor<string, []> var_6042_equation_0 = const()[name = tensor<string, []>("op_6042_equation_0"), val = tensor<string, []>("bkhc,bchq->bkhq")];
            tensor<fp16, [2, 256, 1, 256]> var_6042_cast = einsum(equation = var_6042_equation_0, values = (var_5884_cast, var_5801_cast));
            tensor<fp16, []> var_6043_to_fp16 = const()[name = tensor<string, []>("op_6043_to_fp16"), val = tensor<fp16, []>(0x1p-3)];
            tensor<fp16, [2, 256, 1, 256]> aw_395_cast = mul(x = var_6042_cast, y = var_6043_to_fp16);
            tensor<string, []> var_6046_equation_0 = const()[name = tensor<string, []>("op_6046_equation_0"), val = tensor<string, []>("bkhc,bchq->bkhq")];
            tensor<fp16, [2, 256, 1, 256]> var_6046_cast = einsum(equation = var_6046_equation_0, values = (var_5888_cast, var_5805_cast));
            tensor<fp16, []> var_6047_to_fp16 = const()[name = tensor<string, []>("op_6047_to_fp16"), val = tensor<fp16, []>(0x1p-3)];
            tensor<fp16, [2, 256, 1, 256]> aw_397_cast = mul(x = var_6046_cast, y = var_6047_to_fp16);
            tensor<string, []> var_6050_equation_0 = const()[name = tensor<string, []>("op_6050_equation_0"), val = tensor<string, []>("bkhc,bchq->bkhq")];
            tensor<fp16, [2, 256, 1, 256]> var_6050_cast = einsum(equation = var_6050_equation_0, values = (var_5892_cast, var_5809_cast));
            tensor<fp16, []> var_6051_to_fp16 = const()[name = tensor<string, []>("op_6051_to_fp16"), val = tensor<fp16, []>(0x1p-3)];
            tensor<fp16, [2, 256, 1, 256]> aw_399_cast = mul(x = var_6050_cast, y = var_6051_to_fp16);
            tensor<fp16, [2, 256, 1, 256]> var_6053_cast = softmax(axis = var_5599, x = aw_361_cast);
            tensor<fp16, [2, 256, 1, 256]> var_6054_cast = softmax(axis = var_5599, x = aw_363_cast);
            tensor<fp16, [2, 256, 1, 256]> var_6055_cast = softmax(axis = var_5599, x = aw_365_cast);
            tensor<fp16, [2, 256, 1, 256]> var_6056_cast = softmax(axis = var_5599, x = aw_367_cast);
            tensor<fp16, [2, 256, 1, 256]> var_6057_cast = softmax(axis = var_5599, x = aw_369_cast);
            tensor<fp16, [2, 256, 1, 256]> var_6058_cast = softmax(axis = var_5599, x = aw_371_cast);
            tensor<fp16, [2, 256, 1, 256]> var_6059_cast = softmax(axis = var_5599, x = aw_373_cast);
            tensor<fp16, [2, 256, 1, 256]> var_6060_cast = softmax(axis = var_5599, x = aw_375_cast);
            tensor<fp16, [2, 256, 1, 256]> var_6061_cast = softmax(axis = var_5599, x = aw_377_cast);
            tensor<fp16, [2, 256, 1, 256]> var_6062_cast = softmax(axis = var_5599, x = aw_379_cast);
            tensor<fp16, [2, 256, 1, 256]> var_6063_cast = softmax(axis = var_5599, x = aw_381_cast);
            tensor<fp16, [2, 256, 1, 256]> var_6064_cast = softmax(axis = var_5599, x = aw_383_cast);
            tensor<fp16, [2, 256, 1, 256]> var_6065_cast = softmax(axis = var_5599, x = aw_385_cast);
            tensor<fp16, [2, 256, 1, 256]> var_6066_cast = softmax(axis = var_5599, x = aw_387_cast);
            tensor<fp16, [2, 256, 1, 256]> var_6067_cast = softmax(axis = var_5599, x = aw_389_cast);
            tensor<fp16, [2, 256, 1, 256]> var_6068_cast = softmax(axis = var_5599, x = aw_391_cast);
            tensor<fp16, [2, 256, 1, 256]> var_6069_cast = softmax(axis = var_5599, x = aw_393_cast);
            tensor<fp16, [2, 256, 1, 256]> var_6070_cast = softmax(axis = var_5599, x = aw_395_cast);
            tensor<fp16, [2, 256, 1, 256]> var_6071_cast = softmax(axis = var_5599, x = aw_397_cast);
            tensor<fp16, [2, 256, 1, 256]> var_6072_cast = softmax(axis = var_5599, x = aw_399_cast);
            tensor<string, []> var_6074_equation_0 = const()[name = tensor<string, []>("op_6074_equation_0"), val = tensor<string, []>("bchk,bkhq->bchq")];
            tensor<fp16, [2, 64, 1, 256]> var_6074_cast = einsum(equation = var_6074_equation_0, values = (var_5894_cast, var_6053_cast));
            tensor<string, []> var_6076_equation_0 = const()[name = tensor<string, []>("op_6076_equation_0"), val = tensor<string, []>("bchk,bkhq->bchq")];
            tensor<fp16, [2, 64, 1, 256]> var_6076_cast = einsum(equation = var_6076_equation_0, values = (var_5898_cast, var_6054_cast));
            tensor<string, []> var_6078_equation_0 = const()[name = tensor<string, []>("op_6078_equation_0"), val = tensor<string, []>("bchk,bkhq->bchq")];
            tensor<fp16, [2, 64, 1, 256]> var_6078_cast = einsum(equation = var_6078_equation_0, values = (var_5902_cast, var_6055_cast));
            tensor<string, []> var_6080_equation_0 = const()[name = tensor<string, []>("op_6080_equation_0"), val = tensor<string, []>("bchk,bkhq->bchq")];
            tensor<fp16, [2, 64, 1, 256]> var_6080_cast = einsum(equation = var_6080_equation_0, values = (var_5906_cast, var_6056_cast));
            tensor<string, []> var_6082_equation_0 = const()[name = tensor<string, []>("op_6082_equation_0"), val = tensor<string, []>("bchk,bkhq->bchq")];
            tensor<fp16, [2, 64, 1, 256]> var_6082_cast = einsum(equation = var_6082_equation_0, values = (var_5910_cast, var_6057_cast));
            tensor<string, []> var_6084_equation_0 = const()[name = tensor<string, []>("op_6084_equation_0"), val = tensor<string, []>("bchk,bkhq->bchq")];
            tensor<fp16, [2, 64, 1, 256]> var_6084_cast = einsum(equation = var_6084_equation_0, values = (var_5914_cast, var_6058_cast));
            tensor<string, []> var_6086_equation_0 = const()[name = tensor<string, []>("op_6086_equation_0"), val = tensor<string, []>("bchk,bkhq->bchq")];
            tensor<fp16, [2, 64, 1, 256]> var_6086_cast = einsum(equation = var_6086_equation_0, values = (var_5918_cast, var_6059_cast));
            tensor<string, []> var_6088_equation_0 = const()[name = tensor<string, []>("op_6088_equation_0"), val = tensor<string, []>("bchk,bkhq->bchq")];
            tensor<fp16, [2, 64, 1, 256]> var_6088_cast = einsum(equation = var_6088_equation_0, values = (var_5922_cast, var_6060_cast));
            tensor<string, []> var_6090_equation_0 = const()[name = tensor<string, []>("op_6090_equation_0"), val = tensor<string, []>("bchk,bkhq->bchq")];
            tensor<fp16, [2, 64, 1, 256]> var_6090_cast = einsum(equation = var_6090_equation_0, values = (var_5926_cast, var_6061_cast));
            tensor<string, []> var_6092_equation_0 = const()[name = tensor<string, []>("op_6092_equation_0"), val = tensor<string, []>("bchk,bkhq->bchq")];
            tensor<fp16, [2, 64, 1, 256]> var_6092_cast = einsum(equation = var_6092_equation_0, values = (var_5930_cast, var_6062_cast));
            tensor<string, []> var_6094_equation_0 = const()[name = tensor<string, []>("op_6094_equation_0"), val = tensor<string, []>("bchk,bkhq->bchq")];
            tensor<fp16, [2, 64, 1, 256]> var_6094_cast = einsum(equation = var_6094_equation_0, values = (var_5934_cast, var_6063_cast));
            tensor<string, []> var_6096_equation_0 = const()[name = tensor<string, []>("op_6096_equation_0"), val = tensor<string, []>("bchk,bkhq->bchq")];
            tensor<fp16, [2, 64, 1, 256]> var_6096_cast = einsum(equation = var_6096_equation_0, values = (var_5938_cast, var_6064_cast));
            tensor<string, []> var_6098_equation_0 = const()[name = tensor<string, []>("op_6098_equation_0"), val = tensor<string, []>("bchk,bkhq->bchq")];
            tensor<fp16, [2, 64, 1, 256]> var_6098_cast = einsum(equation = var_6098_equation_0, values = (var_5942_cast, var_6065_cast));
            tensor<string, []> var_6100_equation_0 = const()[name = tensor<string, []>("op_6100_equation_0"), val = tensor<string, []>("bchk,bkhq->bchq")];
            tensor<fp16, [2, 64, 1, 256]> var_6100_cast = einsum(equation = var_6100_equation_0, values = (var_5946_cast, var_6066_cast));
            tensor<string, []> var_6102_equation_0 = const()[name = tensor<string, []>("op_6102_equation_0"), val = tensor<string, []>("bchk,bkhq->bchq")];
            tensor<fp16, [2, 64, 1, 256]> var_6102_cast = einsum(equation = var_6102_equation_0, values = (var_5950_cast, var_6067_cast));
            tensor<string, []> var_6104_equation_0 = const()[name = tensor<string, []>("op_6104_equation_0"), val = tensor<string, []>("bchk,bkhq->bchq")];
            tensor<fp16, [2, 64, 1, 256]> var_6104_cast = einsum(equation = var_6104_equation_0, values = (var_5954_cast, var_6068_cast));
            tensor<string, []> var_6106_equation_0 = const()[name = tensor<string, []>("op_6106_equation_0"), val = tensor<string, []>("bchk,bkhq->bchq")];
            tensor<fp16, [2, 64, 1, 256]> var_6106_cast = einsum(equation = var_6106_equation_0, values = (var_5958_cast, var_6069_cast));
            tensor<string, []> var_6108_equation_0 = const()[name = tensor<string, []>("op_6108_equation_0"), val = tensor<string, []>("bchk,bkhq->bchq")];
            tensor<fp16, [2, 64, 1, 256]> var_6108_cast = einsum(equation = var_6108_equation_0, values = (var_5962_cast, var_6070_cast));
            tensor<string, []> var_6110_equation_0 = const()[name = tensor<string, []>("op_6110_equation_0"), val = tensor<string, []>("bchk,bkhq->bchq")];
            tensor<fp16, [2, 64, 1, 256]> var_6110_cast = einsum(equation = var_6110_equation_0, values = (var_5966_cast, var_6071_cast));
            tensor<string, []> var_6112_equation_0 = const()[name = tensor<string, []>("op_6112_equation_0"), val = tensor<string, []>("bchk,bkhq->bchq")];
            tensor<fp16, [2, 64, 1, 256]> var_6112_cast = einsum(equation = var_6112_equation_0, values = (var_5970_cast, var_6072_cast));
            tensor<bool, []> input_301_interleave_0 = const()[name = tensor<string, []>("input_301_interleave_0"), val = tensor<bool, []>(false)];
            tensor<fp16, [2, 1280, 1, 256]> input_301_cast = concat(axis = var_5599, interleave = input_301_interleave_0, values = (var_6074_cast, var_6076_cast, var_6078_cast, var_6080_cast, var_6082_cast, var_6084_cast, var_6086_cast, var_6088_cast, var_6090_cast, var_6092_cast, var_6094_cast, var_6096_cast, var_6098_cast, var_6100_cast, var_6102_cast, var_6104_cast, var_6106_cast, var_6108_cast, var_6110_cast, var_6112_cast));
            tensor<int32, [2]> var_6118 = const()[name = tensor<string, []>("op_6118"), val = tensor<int32, [2]>([1, 1])];
            tensor<int32, [2]> var_6120 = const()[name = tensor<string, []>("op_6120"), val = tensor<int32, [2]>([1, 1])];
            tensor<string, []> var_6122_pad_type_0 = const()[name = tensor<string, []>("op_6122_pad_type_0"), val = tensor<string, []>("custom")];
            tensor<int32, [4]> var_6122_pad_0 = const()[name = tensor<string, []>("op_6122_pad_0"), val = tensor<int32, [4]>([0, 0, 0, 0])];
            tensor<fp16, [1280, 1280, 1, 1]> up_blocks_1_attentions_0_transformer_blocks_0_attn1_to_out_0_weight_to_fp16 = const()[name = tensor<string, []>("up_blocks_1_attentions_0_transformer_blocks_0_attn1_to_out_0_weight_to_fp16"), val = tensor<fp16, [1280, 1280, 1, 1]>(BLOBFILE(path = tensor<string, []>("@model_path/weights/weight.bin"), offset = tensor<uint64, []>(245868032)))];
            tensor<fp16, [1280]> up_blocks_1_attentions_0_transformer_blocks_0_attn1_to_out_0_bias_to_fp16 = const()[name = tensor<string, []>("up_blocks_1_attentions_0_transformer_blocks_0_attn1_to_out_0_bias_to_fp16"), val = tensor<fp16, [1280]>(BLOBFILE(path = tensor<string, []>("@model_path/weights/weight.bin"), offset = tensor<uint64, []>(249144896)))];
            tensor<fp16, [2, 1280, 1, 256]> var_6122_cast = conv(bias = up_blocks_1_attentions_0_transformer_blocks_0_attn1_to_out_0_bias_to_fp16, dilations = var_6120, groups = var_5599, pad = var_6122_pad_0, pad_type = var_6122_pad_type_0, strides = var_6118, weight = up_blocks_1_attentions_0_transformer_blocks_0_attn1_to_out_0_weight_to_fp16, x = input_301_cast);
            tensor<fp16, [2, 1280, 1, 256]> inputs_45_cast = add(x = var_6122_cast, y = inputs_43_cast);
            tensor<int32, [1]> var_6126 = const()[name = tensor<string, []>("op_6126"), val = tensor<int32, [1]>([1])];
            tensor<fp16, [2, 1, 1, 256]> channels_mean_45_cast = reduce_mean(axes = var_6126, keep_dims = var_5594, x = inputs_45_cast);
            tensor<fp16, [2, 1280, 1, 256]> zero_mean_45_cast = sub(x = inputs_45_cast, y = channels_mean_45_cast);
            tensor<fp16, [2, 1280, 1, 256]> zero_mean_sq_45_cast = mul(x = zero_mean_45_cast, y = zero_mean_45_cast);
            tensor<int32, [1]> var_6130 = const()[name = tensor<string, []>("op_6130"), val = tensor<int32, [1]>([1])];
            tensor<fp16, [2, 1, 1, 256]> var_6131_cast = reduce_mean(axes = var_6130, keep_dims = var_5594, x = zero_mean_sq_45_cast);
            tensor<fp16, []> var_6132_to_fp16 = const()[name = tensor<string, []>("op_6132_to_fp16"), val = tensor<fp16, []>(0x1.5p-17)];
            tensor<fp16, [2, 1, 1, 256]> var_6133_cast = add(x = var_6131_cast, y = var_6132_to_fp16);
            tensor<fp16, []> denom_45_epsilon_0_to_fp16 = const()[name = tensor<string, []>("denom_45_epsilon_0_to_fp16"), val = tensor<fp16, []>(0x1p-24)];
            tensor<fp16, [2, 1, 1, 256]> denom_45_cast = rsqrt(epsilon = denom_45_epsilon_0_to_fp16, x = var_6133_cast);
            tensor<fp16, [2, 1280, 1, 256]> out_45_cast = mul(x = zero_mean_45_cast, y = denom_45_cast);
            tensor<fp16, [1, 1280, 1, 1]> var_6137_to_fp16 = const()[name = tensor<string, []>("op_6137_to_fp16"), val = tensor<fp16, [1, 1280, 1, 1]>(BLOBFILE(path = tensor<string, []>("@model_path/weights/weight.bin"), offset = tensor<uint64, []>(249147520)))];
            tensor<fp16, [2, 1280, 1, 256]> var_6138_cast = add(x = out_45_cast, y = var_6137_to_fp16);
            tensor<fp16, [1, 1280, 1, 1]> var_6140_to_fp16 = const()[name = tensor<string, []>("op_6140_to_fp16"), val = tensor<fp16, [1, 1280, 1, 1]>(BLOBFILE(path = tensor<string, []>("@model_path/weights/weight.bin"), offset = tensor<uint64, []>(249150144)))];
            tensor<fp16, [2, 1280, 1, 256]> hidden_states_169_cast = mul(x = var_6138_cast, y = var_6140_to_fp16);
            tensor<int32, [2]> var_6147 = const()[name = tensor<string, []>("op_6147"), val = tensor<int32, [2]>([1, 1])];
            tensor<int32, [2]> var_6149 = const()[name = tensor<string, []>("op_6149"), val = tensor<int32, [2]>([1, 1])];
            tensor<string, []> q_31_pad_type_0 = const()[name = tensor<string, []>("q_31_pad_type_0"), val = tensor<string, []>("custom")];
            tensor<int32, [4]> q_31_pad_0 = const()[name = tensor<string, []>("q_31_pad_0"), val = tensor<int32, [4]>([0, 0, 0, 0])];
            tensor<fp16, [1280, 1280, 1, 1]> up_blocks_1_attentions_0_transformer_blocks_0_attn2_to_q_weight_to_fp16 = const()[name = tensor<string, []>("up_blocks_1_attentions_0_transformer_blocks_0_attn2_to_q_weight_to_fp16"), val = tensor<fp16, [1280, 1280, 1, 1]>(BLOBFILE(path = tensor<string, []>("@model_path/weights/weight.bin"), offset = tensor<uint64, []>(249152768)))];
            tensor<fp16, [2, 1280, 1, 256]> q_31_cast = conv(dilations = var_6149, groups = var_5599, pad = q_31_pad_0, pad_type = q_31_pad_type_0, strides = var_6147, weight = up_blocks_1_attentions_0_transformer_blocks_0_attn2_to_q_weight_to_fp16, x = hidden_states_169_cast);
            tensor<int32, [2]> var_6153 = const()[name = tensor<string, []>("op_6153"), val = tensor<int32, [2]>([1, 1])];
            tensor<int32, [2]> var_6155 = const()[name = tensor<string, []>("op_6155"), val = tensor<int32, [2]>([1, 1])];
            tensor<string, []> k_61_pad_type_0 = const()[name = tensor<string, []>("k_61_pad_type_0"), val = tensor<string, []>("custom")];
            tensor<int32, [4]> k_61_pad_0 = const()[name = tensor<string, []>("k_61_pad_0"), val = tensor<int32, [4]>([0, 0, 0, 0])];
            tensor<fp16, [1280, 1024, 1, 1]> up_blocks_1_attentions_0_transformer_blocks_0_attn2_to_k_weight_to_fp16 = const()[name = tensor<string, []>("up_blocks_1_attentions_0_transformer_blocks_0_attn2_to_k_weight_to_fp16"), val = tensor<fp16, [1280, 1024, 1, 1]>(BLOBFILE(path = tensor<string, []>("@model_path/weights/weight.bin"), offset = tensor<uint64, []>(252429632)))];
            tensor<fp16, [2, 1280, 1, 77]> k_61_cast = conv(dilations = var_6155, groups = var_5599, pad = k_61_pad_0, pad_type = k_61_pad_type_0, strides = var_6153, weight = up_blocks_1_attentions_0_transformer_blocks_0_attn2_to_k_weight_to_fp16, x = encoder_hidden_states);
            tensor<int32, [2]> var_6159 = const()[name = tensor<string, []>("op_6159"), val = tensor<int32, [2]>([1, 1])];
            tensor<int32, [2]> var_6161 = const()[name = tensor<string, []>("op_6161"), val = tensor<int32, [2]>([1, 1])];
            tensor<string, []> v_31_pad_type_0 = const()[name = tensor<string, []>("v_31_pad_type_0"), val = tensor<string, []>("custom")];
            tensor<int32, [4]> v_31_pad_0 = const()[name = tensor<string, []>("v_31_pad_0"), val = tensor<int32, [4]>([0, 0, 0, 0])];
            tensor<fp16, [1280, 1024, 1, 1]> up_blocks_1_attentions_0_transformer_blocks_0_attn2_to_v_weight_to_fp16 = const()[name = tensor<string, []>("up_blocks_1_attentions_0_transformer_blocks_0_attn2_to_v_weight_to_fp16"), val = tensor<fp16, [1280, 1024, 1, 1]>(BLOBFILE(path = tensor<string, []>("@model_path/weights/weight.bin"), offset = tensor<uint64, []>(255051136)))];
            tensor<fp16, [2, 1280, 1, 77]> v_31_cast = conv(dilations = var_6161, groups = var_5599, pad = v_31_pad_0, pad_type = v_31_pad_type_0, strides = var_6159, weight = up_blocks_1_attentions_0_transformer_blocks_0_attn2_to_v_weight_to_fp16, x = encoder_hidden_states);
            tensor<int32, [4]> var_6165_begin_0 = const()[name = tensor<string, []>("op_6165_begin_0"), val = tensor<int32, [4]>([0, 0, 0, 0])];
            tensor<int32, [4]> var_6165_end_0 = const()[name = tensor<string, []>("op_6165_end_0"), val = tensor<int32, [4]>([2, 64, 1, 256])];
            tensor<bool, [4]> var_6165_end_mask_0 = const()[name = tensor<string, []>("op_6165_end_mask_0"), val = tensor<bool, [4]>([true, false, true, true])];
            tensor<fp16, [2, 64, 1, 256]> var_6165_cast = slice_by_index(begin = var_6165_begin_0, end = var_6165_end_0, end_mask = var_6165_end_mask_0, x = q_31_cast);
            tensor<int32, [4]> var_6169_begin_0 = const()[name = tensor<string, []>("op_6169_begin_0"), val = tensor<int32, [4]>([0, 64, 0, 0])];
            tensor<int32, [4]> var_6169_end_0 = const()[name = tensor<string, []>("op_6169_end_0"), val = tensor<int32, [4]>([2, 128, 1, 256])];
            tensor<bool, [4]> var_6169_end_mask_0 = const()[name = tensor<string, []>("op_6169_end_mask_0"), val = tensor<bool, [4]>([true, false, true, true])];
            tensor<fp16, [2, 64, 1, 256]> var_6169_cast = slice_by_index(begin = var_6169_begin_0, end = var_6169_end_0, end_mask = var_6169_end_mask_0, x = q_31_cast);
            tensor<int32, [4]> var_6173_begin_0 = const()[name = tensor<string, []>("op_6173_begin_0"), val = tensor<int32, [4]>([0, 128, 0, 0])];
            tensor<int32, [4]> var_6173_end_0 = const()[name = tensor<string, []>("op_6173_end_0"), val = tensor<int32, [4]>([2, 192, 1, 256])];
            tensor<bool, [4]> var_6173_end_mask_0 = const()[name = tensor<string, []>("op_6173_end_mask_0"), val = tensor<bool, [4]>([true, false, true, true])];
            tensor<fp16, [2, 64, 1, 256]> var_6173_cast = slice_by_index(begin = var_6173_begin_0, end = var_6173_end_0, end_mask = var_6173_end_mask_0, x = q_31_cast);
            tensor<int32, [4]> var_6177_begin_0 = const()[name = tensor<string, []>("op_6177_begin_0"), val = tensor<int32, [4]>([0, 192, 0, 0])];
            tensor<int32, [4]> var_6177_end_0 = const()[name = tensor<string, []>("op_6177_end_0"), val = tensor<int32, [4]>([2, 256, 1, 256])];
            tensor<bool, [4]> var_6177_end_mask_0 = const()[name = tensor<string, []>("op_6177_end_mask_0"), val = tensor<bool, [4]>([true, false, true, true])];
            tensor<fp16, [2, 64, 1, 256]> var_6177_cast = slice_by_index(begin = var_6177_begin_0, end = var_6177_end_0, end_mask = var_6177_end_mask_0, x = q_31_cast);
            tensor<int32, [4]> var_6181_begin_0 = const()[name = tensor<string, []>("op_6181_begin_0"), val = tensor<int32, [4]>([0, 256, 0, 0])];
            tensor<int32, [4]> var_6181_end_0 = const()[name = tensor<string, []>("op_6181_end_0"), val = tensor<int32, [4]>([2, 320, 1, 256])];
            tensor<bool, [4]> var_6181_end_mask_0 = const()[name = tensor<string, []>("op_6181_end_mask_0"), val = tensor<bool, [4]>([true, false, true, true])];
            tensor<fp16, [2, 64, 1, 256]> var_6181_cast = slice_by_index(begin = var_6181_begin_0, end = var_6181_end_0, end_mask = var_6181_end_mask_0, x = q_31_cast);
            tensor<int32, [4]> var_6185_begin_0 = const()[name = tensor<string, []>("op_6185_begin_0"), val = tensor<int32, [4]>([0, 320, 0, 0])];
            tensor<int32, [4]> var_6185_end_0 = const()[name = tensor<string, []>("op_6185_end_0"), val = tensor<int32, [4]>([2, 384, 1, 256])];
            tensor<bool, [4]> var_6185_end_mask_0 = const()[name = tensor<string, []>("op_6185_end_mask_0"), val = tensor<bool, [4]>([true, false, true, true])];
            tensor<fp16, [2, 64, 1, 256]> var_6185_cast = slice_by_index(begin = var_6185_begin_0, end = var_6185_end_0, end_mask = var_6185_end_mask_0, x = q_31_cast);
            tensor<int32, [4]> var_6189_begin_0 = const()[name = tensor<string, []>("op_6189_begin_0"), val = tensor<int32, [4]>([0, 384, 0, 0])];
            tensor<int32, [4]> var_6189_end_0 = const()[name = tensor<string, []>("op_6189_end_0"), val = tensor<int32, [4]>([2, 448, 1, 256])];
            tensor<bool, [4]> var_6189_end_mask_0 = const()[name = tensor<string, []>("op_6189_end_mask_0"), val = tensor<bool, [4]>([true, false, true, true])];
            tensor<fp16, [2, 64, 1, 256]> var_6189_cast = slice_by_index(begin = var_6189_begin_0, end = var_6189_end_0, end_mask = var_6189_end_mask_0, x = q_31_cast);
            tensor<int32, [4]> var_6193_begin_0 = const()[name = tensor<string, []>("op_6193_begin_0"), val = tensor<int32, [4]>([0, 448, 0, 0])];
            tensor<int32, [4]> var_6193_end_0 = const()[name = tensor<string, []>("op_6193_end_0"), val = tensor<int32, [4]>([2, 512, 1, 256])];
            tensor<bool, [4]> var_6193_end_mask_0 = const()[name = tensor<string, []>("op_6193_end_mask_0"), val = tensor<bool, [4]>([true, false, true, true])];
            tensor<fp16, [2, 64, 1, 256]> var_6193_cast = slice_by_index(begin = var_6193_begin_0, end = var_6193_end_0, end_mask = var_6193_end_mask_0, x = q_31_cast);
            tensor<int32, [4]> var_6197_begin_0 = const()[name = tensor<string, []>("op_6197_begin_0"), val = tensor<int32, [4]>([0, 512, 0, 0])];
            tensor<int32, [4]> var_6197_end_0 = const()[name = tensor<string, []>("op_6197_end_0"), val = tensor<int32, [4]>([2, 576, 1, 256])];
            tensor<bool, [4]> var_6197_end_mask_0 = const()[name = tensor<string, []>("op_6197_end_mask_0"), val = tensor<bool, [4]>([true, false, true, true])];
            tensor<fp16, [2, 64, 1, 256]> var_6197_cast = slice_by_index(begin = var_6197_begin_0, end = var_6197_end_0, end_mask = var_6197_end_mask_0, x = q_31_cast);
            tensor<int32, [4]> var_6201_begin_0 = const()[name = tensor<string, []>("op_6201_begin_0"), val = tensor<int32, [4]>([0, 576, 0, 0])];
            tensor<int32, [4]> var_6201_end_0 = const()[name = tensor<string, []>("op_6201_end_0"), val = tensor<int32, [4]>([2, 640, 1, 256])];
            tensor<bool, [4]> var_6201_end_mask_0 = const()[name = tensor<string, []>("op_6201_end_mask_0"), val = tensor<bool, [4]>([true, false, true, true])];
            tensor<fp16, [2, 64, 1, 256]> var_6201_cast = slice_by_index(begin = var_6201_begin_0, end = var_6201_end_0, end_mask = var_6201_end_mask_0, x = q_31_cast);
            tensor<int32, [4]> var_6205_begin_0 = const()[name = tensor<string, []>("op_6205_begin_0"), val = tensor<int32, [4]>([0, 640, 0, 0])];
            tensor<int32, [4]> var_6205_end_0 = const()[name = tensor<string, []>("op_6205_end_0"), val = tensor<int32, [4]>([2, 704, 1, 256])];
            tensor<bool, [4]> var_6205_end_mask_0 = const()[name = tensor<string, []>("op_6205_end_mask_0"), val = tensor<bool, [4]>([true, false, true, true])];
            tensor<fp16, [2, 64, 1, 256]> var_6205_cast = slice_by_index(begin = var_6205_begin_0, end = var_6205_end_0, end_mask = var_6205_end_mask_0, x = q_31_cast);
            tensor<int32, [4]> var_6209_begin_0 = const()[name = tensor<string, []>("op_6209_begin_0"), val = tensor<int32, [4]>([0, 704, 0, 0])];
            tensor<int32, [4]> var_6209_end_0 = const()[name = tensor<string, []>("op_6209_end_0"), val = tensor<int32, [4]>([2, 768, 1, 256])];
            tensor<bool, [4]> var_6209_end_mask_0 = const()[name = tensor<string, []>("op_6209_end_mask_0"), val = tensor<bool, [4]>([true, false, true, true])];
            tensor<fp16, [2, 64, 1, 256]> var_6209_cast = slice_by_index(begin = var_6209_begin_0, end = var_6209_end_0, end_mask = var_6209_end_mask_0, x = q_31_cast);
            tensor<int32, [4]> var_6213_begin_0 = const()[name = tensor<string, []>("op_6213_begin_0"), val = tensor<int32, [4]>([0, 768, 0, 0])];
            tensor<int32, [4]> var_6213_end_0 = const()[name = tensor<string, []>("op_6213_end_0"), val = tensor<int32, [4]>([2, 832, 1, 256])];
            tensor<bool, [4]> var_6213_end_mask_0 = const()[name = tensor<string, []>("op_6213_end_mask_0"), val = tensor<bool, [4]>([true, false, true, true])];
            tensor<fp16, [2, 64, 1, 256]> var_6213_cast = slice_by_index(begin = var_6213_begin_0, end = var_6213_end_0, end_mask = var_6213_end_mask_0, x = q_31_cast);
            tensor<int32, [4]> var_6217_begin_0 = const()[name = tensor<string, []>("op_6217_begin_0"), val = tensor<int32, [4]>([0, 832, 0, 0])];
            tensor<int32, [4]> var_6217_end_0 = const()[name = tensor<string, []>("op_6217_end_0"), val = tensor<int32, [4]>([2, 896, 1, 256])];
            tensor<bool, [4]> var_6217_end_mask_0 = const()[name = tensor<string, []>("op_6217_end_mask_0"), val = tensor<bool, [4]>([true, false, true, true])];
            tensor<fp16, [2, 64, 1, 256]> var_6217_cast = slice_by_index(begin = var_6217_begin_0, end = var_6217_end_0, end_mask = var_6217_end_mask_0, x = q_31_cast);
            tensor<int32, [4]> var_6221_begin_0 = const()[name = tensor<string, []>("op_6221_begin_0"), val = tensor<int32, [4]>([0, 896, 0, 0])];
            tensor<int32, [4]> var_6221_end_0 = const()[name = tensor<string, []>("op_6221_end_0"), val = tensor<int32, [4]>([2, 960, 1, 256])];
            tensor<bool, [4]> var_6221_end_mask_0 = const()[name = tensor<string, []>("op_6221_end_mask_0"), val = tensor<bool, [4]>([true, false, true, true])];
            tensor<fp16, [2, 64, 1, 256]> var_6221_cast = slice_by_index(begin = var_6221_begin_0, end = var_6221_end_0, end_mask = var_6221_end_mask_0, x = q_31_cast);
            tensor<int32, [4]> var_6225_begin_0 = const()[name = tensor<string, []>("op_6225_begin_0"), val = tensor<int32, [4]>([0, 960, 0, 0])];
            tensor<int32, [4]> var_6225_end_0 = const()[name = tensor<string, []>("op_6225_end_0"), val = tensor<int32, [4]>([2, 1024, 1, 256])];
            tensor<bool, [4]> var_6225_end_mask_0 = const()[name = tensor<string, []>("op_6225_end_mask_0"), val = tensor<bool, [4]>([true, false, true, true])];
            tensor<fp16, [2, 64, 1, 256]> var_6225_cast = slice_by_index(begin = var_6225_begin_0, end = var_6225_end_0, end_mask = var_6225_end_mask_0, x = q_31_cast);
            tensor<int32, [4]> var_6229_begin_0 = const()[name = tensor<string, []>("op_6229_begin_0"), val = tensor<int32, [4]>([0, 1024, 0, 0])];
            tensor<int32, [4]> var_6229_end_0 = const()[name = tensor<string, []>("op_6229_end_0"), val = tensor<int32, [4]>([2, 1088, 1, 256])];
            tensor<bool, [4]> var_6229_end_mask_0 = const()[name = tensor<string, []>("op_6229_end_mask_0"), val = tensor<bool, [4]>([true, false, true, true])];
            tensor<fp16, [2, 64, 1, 256]> var_6229_cast = slice_by_index(begin = var_6229_begin_0, end = var_6229_end_0, end_mask = var_6229_end_mask_0, x = q_31_cast);
            tensor<int32, [4]> var_6233_begin_0 = const()[name = tensor<string, []>("op_6233_begin_0"), val = tensor<int32, [4]>([0, 1088, 0, 0])];
            tensor<int32, [4]> var_6233_end_0 = const()[name = tensor<string, []>("op_6233_end_0"), val = tensor<int32, [4]>([2, 1152, 1, 256])];
            tensor<bool, [4]> var_6233_end_mask_0 = const()[name = tensor<string, []>("op_6233_end_mask_0"), val = tensor<bool, [4]>([true, false, true, true])];
            tensor<fp16, [2, 64, 1, 256]> var_6233_cast = slice_by_index(begin = var_6233_begin_0, end = var_6233_end_0, end_mask = var_6233_end_mask_0, x = q_31_cast);
            tensor<int32, [4]> var_6237_begin_0 = const()[name = tensor<string, []>("op_6237_begin_0"), val = tensor<int32, [4]>([0, 1152, 0, 0])];
            tensor<int32, [4]> var_6237_end_0 = const()[name = tensor<string, []>("op_6237_end_0"), val = tensor<int32, [4]>([2, 1216, 1, 256])];
            tensor<bool, [4]> var_6237_end_mask_0 = const()[name = tensor<string, []>("op_6237_end_mask_0"), val = tensor<bool, [4]>([true, false, true, true])];
            tensor<fp16, [2, 64, 1, 256]> var_6237_cast = slice_by_index(begin = var_6237_begin_0, end = var_6237_end_0, end_mask = var_6237_end_mask_0, x = q_31_cast);
            tensor<int32, [4]> var_6241_begin_0 = const()[name = tensor<string, []>("op_6241_begin_0"), val = tensor<int32, [4]>([0, 1216, 0, 0])];
            tensor<int32, [4]> var_6241_end_0 = const()[name = tensor<string, []>("op_6241_end_0"), val = tensor<int32, [4]>([2, 1280, 1, 256])];
            tensor<bool, [4]> var_6241_end_mask_0 = const()[name = tensor<string, []>("op_6241_end_mask_0"), val = tensor<bool, [4]>([true, false, true, true])];
            tensor<fp16, [2, 64, 1, 256]> var_6241_cast = slice_by_index(begin = var_6241_begin_0, end = var_6241_end_0, end_mask = var_6241_end_mask_0, x = q_31_cast);
            tensor<int32, [4]> k_63_perm_0 = const()[name = tensor<string, []>("k_63_perm_0"), val = tensor<int32, [4]>([0, 3, 2, 1])];
            tensor<int32, [4]> var_6248_begin_0 = const()[name = tensor<string, []>("op_6248_begin_0"), val = tensor<int32, [4]>([0, 0, 0, 0])];
            tensor<int32, [4]> var_6248_end_0 = const()[name = tensor<string, []>("op_6248_end_0"), val = tensor<int32, [4]>([2, 77, 1, 64])];
            tensor<bool, [4]> var_6248_end_mask_0 = const()[name = tensor<string, []>("op_6248_end_mask_0"), val = tensor<bool, [4]>([true, true, true, false])];
            tensor<fp16, [2, 77, 1, 1280]> transpose_16 = transpose(perm = k_63_perm_0, x = k_61_cast);
            tensor<fp16, [2, 77, 1, 64]> var_6248_cast = slice_by_index(begin = var_6248_begin_0, end = var_6248_end_0, end_mask = var_6248_end_mask_0, x = transpose_16);
            tensor<int32, [4]> var_6252_begin_0 = const()[name = tensor<string, []>("op_6252_begin_0"), val = tensor<int32, [4]>([0, 0, 0, 64])];
            tensor<int32, [4]> var_6252_end_0 = const()[name = tensor<string, []>("op_6252_end_0"), val = tensor<int32, [4]>([2, 77, 1, 128])];
            tensor<bool, [4]> var_6252_end_mask_0 = const()[name = tensor<string, []>("op_6252_end_mask_0"), val = tensor<bool, [4]>([true, true, true, false])];
            tensor<fp16, [2, 77, 1, 64]> var_6252_cast = slice_by_index(begin = var_6252_begin_0, end = var_6252_end_0, end_mask = var_6252_end_mask_0, x = transpose_16);
            tensor<int32, [4]> var_6256_begin_0 = const()[name = tensor<string, []>("op_6256_begin_0"), val = tensor<int32, [4]>([0, 0, 0, 128])];
            tensor<int32, [4]> var_6256_end_0 = const()[name = tensor<string, []>("op_6256_end_0"), val = tensor<int32, [4]>([2, 77, 1, 192])];
            tensor<bool, [4]> var_6256_end_mask_0 = const()[name = tensor<string, []>("op_6256_end_mask_0"), val = tensor<bool, [4]>([true, true, true, false])];
            tensor<fp16, [2, 77, 1, 64]> var_6256_cast = slice_by_index(begin = var_6256_begin_0, end = var_6256_end_0, end_mask = var_6256_end_mask_0, x = transpose_16);
            tensor<int32, [4]> var_6260_begin_0 = const()[name = tensor<string, []>("op_6260_begin_0"), val = tensor<int32, [4]>([0, 0, 0, 192])];
            tensor<int32, [4]> var_6260_end_0 = const()[name = tensor<string, []>("op_6260_end_0"), val = tensor<int32, [4]>([2, 77, 1, 256])];
            tensor<bool, [4]> var_6260_end_mask_0 = const()[name = tensor<string, []>("op_6260_end_mask_0"), val = tensor<bool, [4]>([true, true, true, false])];
            tensor<fp16, [2, 77, 1, 64]> var_6260_cast = slice_by_index(begin = var_6260_begin_0, end = var_6260_end_0, end_mask = var_6260_end_mask_0, x = transpose_16);
            tensor<int32, [4]> var_6264_begin_0 = const()[name = tensor<string, []>("op_6264_begin_0"), val = tensor<int32, [4]>([0, 0, 0, 256])];
            tensor<int32, [4]> var_6264_end_0 = const()[name = tensor<string, []>("op_6264_end_0"), val = tensor<int32, [4]>([2, 77, 1, 320])];
            tensor<bool, [4]> var_6264_end_mask_0 = const()[name = tensor<string, []>("op_6264_end_mask_0"), val = tensor<bool, [4]>([true, true, true, false])];
            tensor<fp16, [2, 77, 1, 64]> var_6264_cast = slice_by_index(begin = var_6264_begin_0, end = var_6264_end_0, end_mask = var_6264_end_mask_0, x = transpose_16);
            tensor<int32, [4]> var_6268_begin_0 = const()[name = tensor<string, []>("op_6268_begin_0"), val = tensor<int32, [4]>([0, 0, 0, 320])];
            tensor<int32, [4]> var_6268_end_0 = const()[name = tensor<string, []>("op_6268_end_0"), val = tensor<int32, [4]>([2, 77, 1, 384])];
            tensor<bool, [4]> var_6268_end_mask_0 = const()[name = tensor<string, []>("op_6268_end_mask_0"), val = tensor<bool, [4]>([true, true, true, false])];
            tensor<fp16, [2, 77, 1, 64]> var_6268_cast = slice_by_index(begin = var_6268_begin_0, end = var_6268_end_0, end_mask = var_6268_end_mask_0, x = transpose_16);
            tensor<int32, [4]> var_6272_begin_0 = const()[name = tensor<string, []>("op_6272_begin_0"), val = tensor<int32, [4]>([0, 0, 0, 384])];
            tensor<int32, [4]> var_6272_end_0 = const()[name = tensor<string, []>("op_6272_end_0"), val = tensor<int32, [4]>([2, 77, 1, 448])];
            tensor<bool, [4]> var_6272_end_mask_0 = const()[name = tensor<string, []>("op_6272_end_mask_0"), val = tensor<bool, [4]>([true, true, true, false])];
            tensor<fp16, [2, 77, 1, 64]> var_6272_cast = slice_by_index(begin = var_6272_begin_0, end = var_6272_end_0, end_mask = var_6272_end_mask_0, x = transpose_16);
            tensor<int32, [4]> var_6276_begin_0 = const()[name = tensor<string, []>("op_6276_begin_0"), val = tensor<int32, [4]>([0, 0, 0, 448])];
            tensor<int32, [4]> var_6276_end_0 = const()[name = tensor<string, []>("op_6276_end_0"), val = tensor<int32, [4]>([2, 77, 1, 512])];
            tensor<bool, [4]> var_6276_end_mask_0 = const()[name = tensor<string, []>("op_6276_end_mask_0"), val = tensor<bool, [4]>([true, true, true, false])];
            tensor<fp16, [2, 77, 1, 64]> var_6276_cast = slice_by_index(begin = var_6276_begin_0, end = var_6276_end_0, end_mask = var_6276_end_mask_0, x = transpose_16);
            tensor<int32, [4]> var_6280_begin_0 = const()[name = tensor<string, []>("op_6280_begin_0"), val = tensor<int32, [4]>([0, 0, 0, 512])];
            tensor<int32, [4]> var_6280_end_0 = const()[name = tensor<string, []>("op_6280_end_0"), val = tensor<int32, [4]>([2, 77, 1, 576])];
            tensor<bool, [4]> var_6280_end_mask_0 = const()[name = tensor<string, []>("op_6280_end_mask_0"), val = tensor<bool, [4]>([true, true, true, false])];
            tensor<fp16, [2, 77, 1, 64]> var_6280_cast = slice_by_index(begin = var_6280_begin_0, end = var_6280_end_0, end_mask = var_6280_end_mask_0, x = transpose_16);
            tensor<int32, [4]> var_6284_begin_0 = const()[name = tensor<string, []>("op_6284_begin_0"), val = tensor<int32, [4]>([0, 0, 0, 576])];
            tensor<int32, [4]> var_6284_end_0 = const()[name = tensor<string, []>("op_6284_end_0"), val = tensor<int32, [4]>([2, 77, 1, 640])];
            tensor<bool, [4]> var_6284_end_mask_0 = const()[name = tensor<string, []>("op_6284_end_mask_0"), val = tensor<bool, [4]>([true, true, true, false])];
            tensor<fp16, [2, 77, 1, 64]> var_6284_cast = slice_by_index(begin = var_6284_begin_0, end = var_6284_end_0, end_mask = var_6284_end_mask_0, x = transpose_16);
            tensor<int32, [4]> var_6288_begin_0 = const()[name = tensor<string, []>("op_6288_begin_0"), val = tensor<int32, [4]>([0, 0, 0, 640])];
            tensor<int32, [4]> var_6288_end_0 = const()[name = tensor<string, []>("op_6288_end_0"), val = tensor<int32, [4]>([2, 77, 1, 704])];
            tensor<bool, [4]> var_6288_end_mask_0 = const()[name = tensor<string, []>("op_6288_end_mask_0"), val = tensor<bool, [4]>([true, true, true, false])];
            tensor<fp16, [2, 77, 1, 64]> var_6288_cast = slice_by_index(begin = var_6288_begin_0, end = var_6288_end_0, end_mask = var_6288_end_mask_0, x = transpose_16);
            tensor<int32, [4]> var_6292_begin_0 = const()[name = tensor<string, []>("op_6292_begin_0"), val = tensor<int32, [4]>([0, 0, 0, 704])];
            tensor<int32, [4]> var_6292_end_0 = const()[name = tensor<string, []>("op_6292_end_0"), val = tensor<int32, [4]>([2, 77, 1, 768])];
            tensor<bool, [4]> var_6292_end_mask_0 = const()[name = tensor<string, []>("op_6292_end_mask_0"), val = tensor<bool, [4]>([true, true, true, false])];
            tensor<fp16, [2, 77, 1, 64]> var_6292_cast = slice_by_index(begin = var_6292_begin_0, end = var_6292_end_0, end_mask = var_6292_end_mask_0, x = transpose_16);
            tensor<int32, [4]> var_6296_begin_0 = const()[name = tensor<string, []>("op_6296_begin_0"), val = tensor<int32, [4]>([0, 0, 0, 768])];
            tensor<int32, [4]> var_6296_end_0 = const()[name = tensor<string, []>("op_6296_end_0"), val = tensor<int32, [4]>([2, 77, 1, 832])];
            tensor<bool, [4]> var_6296_end_mask_0 = const()[name = tensor<string, []>("op_6296_end_mask_0"), val = tensor<bool, [4]>([true, true, true, false])];
            tensor<fp16, [2, 77, 1, 64]> var_6296_cast = slice_by_index(begin = var_6296_begin_0, end = var_6296_end_0, end_mask = var_6296_end_mask_0, x = transpose_16);
            tensor<int32, [4]> var_6300_begin_0 = const()[name = tensor<string, []>("op_6300_begin_0"), val = tensor<int32, [4]>([0, 0, 0, 832])];
            tensor<int32, [4]> var_6300_end_0 = const()[name = tensor<string, []>("op_6300_end_0"), val = tensor<int32, [4]>([2, 77, 1, 896])];
            tensor<bool, [4]> var_6300_end_mask_0 = const()[name = tensor<string, []>("op_6300_end_mask_0"), val = tensor<bool, [4]>([true, true, true, false])];
            tensor<fp16, [2, 77, 1, 64]> var_6300_cast = slice_by_index(begin = var_6300_begin_0, end = var_6300_end_0, end_mask = var_6300_end_mask_0, x = transpose_16);
            tensor<int32, [4]> var_6304_begin_0 = const()[name = tensor<string, []>("op_6304_begin_0"), val = tensor<int32, [4]>([0, 0, 0, 896])];
            tensor<int32, [4]> var_6304_end_0 = const()[name = tensor<string, []>("op_6304_end_0"), val = tensor<int32, [4]>([2, 77, 1, 960])];
            tensor<bool, [4]> var_6304_end_mask_0 = const()[name = tensor<string, []>("op_6304_end_mask_0"), val = tensor<bool, [4]>([true, true, true, false])];
            tensor<fp16, [2, 77, 1, 64]> var_6304_cast = slice_by_index(begin = var_6304_begin_0, end = var_6304_end_0, end_mask = var_6304_end_mask_0, x = transpose_16);
            tensor<int32, [4]> var_6308_begin_0 = const()[name = tensor<string, []>("op_6308_begin_0"), val = tensor<int32, [4]>([0, 0, 0, 960])];
            tensor<int32, [4]> var_6308_end_0 = const()[name = tensor<string, []>("op_6308_end_0"), val = tensor<int32, [4]>([2, 77, 1, 1024])];
            tensor<bool, [4]> var_6308_end_mask_0 = const()[name = tensor<string, []>("op_6308_end_mask_0"), val = tensor<bool, [4]>([true, true, true, false])];
            tensor<fp16, [2, 77, 1, 64]> var_6308_cast = slice_by_index(begin = var_6308_begin_0, end = var_6308_end_0, end_mask = var_6308_end_mask_0, x = transpose_16);
            tensor<int32, [4]> var_6312_begin_0 = const()[name = tensor<string, []>("op_6312_begin_0"), val = tensor<int32, [4]>([0, 0, 0, 1024])];
            tensor<int32, [4]> var_6312_end_0 = const()[name = tensor<string, []>("op_6312_end_0"), val = tensor<int32, [4]>([2, 77, 1, 1088])];
            tensor<bool, [4]> var_6312_end_mask_0 = const()[name = tensor<string, []>("op_6312_end_mask_0"), val = tensor<bool, [4]>([true, true, true, false])];
            tensor<fp16, [2, 77, 1, 64]> var_6312_cast = slice_by_index(begin = var_6312_begin_0, end = var_6312_end_0, end_mask = var_6312_end_mask_0, x = transpose_16);
            tensor<int32, [4]> var_6316_begin_0 = const()[name = tensor<string, []>("op_6316_begin_0"), val = tensor<int32, [4]>([0, 0, 0, 1088])];
            tensor<int32, [4]> var_6316_end_0 = const()[name = tensor<string, []>("op_6316_end_0"), val = tensor<int32, [4]>([2, 77, 1, 1152])];
            tensor<bool, [4]> var_6316_end_mask_0 = const()[name = tensor<string, []>("op_6316_end_mask_0"), val = tensor<bool, [4]>([true, true, true, false])];
            tensor<fp16, [2, 77, 1, 64]> var_6316_cast = slice_by_index(begin = var_6316_begin_0, end = var_6316_end_0, end_mask = var_6316_end_mask_0, x = transpose_16);
            tensor<int32, [4]> var_6320_begin_0 = const()[name = tensor<string, []>("op_6320_begin_0"), val = tensor<int32, [4]>([0, 0, 0, 1152])];
            tensor<int32, [4]> var_6320_end_0 = const()[name = tensor<string, []>("op_6320_end_0"), val = tensor<int32, [4]>([2, 77, 1, 1216])];
            tensor<bool, [4]> var_6320_end_mask_0 = const()[name = tensor<string, []>("op_6320_end_mask_0"), val = tensor<bool, [4]>([true, true, true, false])];
            tensor<fp16, [2, 77, 1, 64]> var_6320_cast = slice_by_index(begin = var_6320_begin_0, end = var_6320_end_0, end_mask = var_6320_end_mask_0, x = transpose_16);
            tensor<int32, [4]> var_6324_begin_0 = const()[name = tensor<string, []>("op_6324_begin_0"), val = tensor<int32, [4]>([0, 0, 0, 1216])];
            tensor<int32, [4]> var_6324_end_0 = const()[name = tensor<string, []>("op_6324_end_0"), val = tensor<int32, [4]>([2, 77, 1, 1280])];
            tensor<bool, [4]> var_6324_end_mask_0 = const()[name = tensor<string, []>("op_6324_end_mask_0"), val = tensor<bool, [4]>([true, true, true, false])];
            tensor<fp16, [2, 77, 1, 64]> var_6324_cast = slice_by_index(begin = var_6324_begin_0, end = var_6324_end_0, end_mask = var_6324_end_mask_0, x = transpose_16);
            tensor<int32, [4]> var_6326_begin_0 = const()[name = tensor<string, []>("op_6326_begin_0"), val = tensor<int32, [4]>([0, 0, 0, 0])];
            tensor<int32, [4]> var_6326_end_0 = const()[name = tensor<string, []>("op_6326_end_0"), val = tensor<int32, [4]>([2, 64, 1, 77])];
            tensor<bool, [4]> var_6326_end_mask_0 = const()[name = tensor<string, []>("op_6326_end_mask_0"), val = tensor<bool, [4]>([true, false, true, true])];
            tensor<fp16, [2, 64, 1, 77]> var_6326_cast = slice_by_index(begin = var_6326_begin_0, end = var_6326_end_0, end_mask = var_6326_end_mask_0, x = v_31_cast);
            tensor<int32, [4]> var_6330_begin_0 = const()[name = tensor<string, []>("op_6330_begin_0"), val = tensor<int32, [4]>([0, 64, 0, 0])];
            tensor<int32, [4]> var_6330_end_0 = const()[name = tensor<string, []>("op_6330_end_0"), val = tensor<int32, [4]>([2, 128, 1, 77])];
            tensor<bool, [4]> var_6330_end_mask_0 = const()[name = tensor<string, []>("op_6330_end_mask_0"), val = tensor<bool, [4]>([true, false, true, true])];
            tensor<fp16, [2, 64, 1, 77]> var_6330_cast = slice_by_index(begin = var_6330_begin_0, end = var_6330_end_0, end_mask = var_6330_end_mask_0, x = v_31_cast);
            tensor<int32, [4]> var_6334_begin_0 = const()[name = tensor<string, []>("op_6334_begin_0"), val = tensor<int32, [4]>([0, 128, 0, 0])];
            tensor<int32, [4]> var_6334_end_0 = const()[name = tensor<string, []>("op_6334_end_0"), val = tensor<int32, [4]>([2, 192, 1, 77])];
            tensor<bool, [4]> var_6334_end_mask_0 = const()[name = tensor<string, []>("op_6334_end_mask_0"), val = tensor<bool, [4]>([true, false, true, true])];
            tensor<fp16, [2, 64, 1, 77]> var_6334_cast = slice_by_index(begin = var_6334_begin_0, end = var_6334_end_0, end_mask = var_6334_end_mask_0, x = v_31_cast);
            tensor<int32, [4]> var_6338_begin_0 = const()[name = tensor<string, []>("op_6338_begin_0"), val = tensor<int32, [4]>([0, 192, 0, 0])];
            tensor<int32, [4]> var_6338_end_0 = const()[name = tensor<string, []>("op_6338_end_0"), val = tensor<int32, [4]>([2, 256, 1, 77])];
            tensor<bool, [4]> var_6338_end_mask_0 = const()[name = tensor<string, []>("op_6338_end_mask_0"), val = tensor<bool, [4]>([true, false, true, true])];
            tensor<fp16, [2, 64, 1, 77]> var_6338_cast = slice_by_index(begin = var_6338_begin_0, end = var_6338_end_0, end_mask = var_6338_end_mask_0, x = v_31_cast);
            tensor<int32, [4]> var_6342_begin_0 = const()[name = tensor<string, []>("op_6342_begin_0"), val = tensor<int32, [4]>([0, 256, 0, 0])];
            tensor<int32, [4]> var_6342_end_0 = const()[name = tensor<string, []>("op_6342_end_0"), val = tensor<int32, [4]>([2, 320, 1, 77])];
            tensor<bool, [4]> var_6342_end_mask_0 = const()[name = tensor<string, []>("op_6342_end_mask_0"), val = tensor<bool, [4]>([true, false, true, true])];
            tensor<fp16, [2, 64, 1, 77]> var_6342_cast = slice_by_index(begin = var_6342_begin_0, end = var_6342_end_0, end_mask = var_6342_end_mask_0, x = v_31_cast);
            tensor<int32, [4]> var_6346_begin_0 = const()[name = tensor<string, []>("op_6346_begin_0"), val = tensor<int32, [4]>([0, 320, 0, 0])];
            tensor<int32, [4]> var_6346_end_0 = const()[name = tensor<string, []>("op_6346_end_0"), val = tensor<int32, [4]>([2, 384, 1, 77])];
            tensor<bool, [4]> var_6346_end_mask_0 = const()[name = tensor<string, []>("op_6346_end_mask_0"), val = tensor<bool, [4]>([true, false, true, true])];
            tensor<fp16, [2, 64, 1, 77]> var_6346_cast = slice_by_index(begin = var_6346_begin_0, end = var_6346_end_0, end_mask = var_6346_end_mask_0, x = v_31_cast);
            tensor<int32, [4]> var_6350_begin_0 = const()[name = tensor<string, []>("op_6350_begin_0"), val = tensor<int32, [4]>([0, 384, 0, 0])];
            tensor<int32, [4]> var_6350_end_0 = const()[name = tensor<string, []>("op_6350_end_0"), val = tensor<int32, [4]>([2, 448, 1, 77])];
            tensor<bool, [4]> var_6350_end_mask_0 = const()[name = tensor<string, []>("op_6350_end_mask_0"), val = tensor<bool, [4]>([true, false, true, true])];
            tensor<fp16, [2, 64, 1, 77]> var_6350_cast = slice_by_index(begin = var_6350_begin_0, end = var_6350_end_0, end_mask = var_6350_end_mask_0, x = v_31_cast);
            tensor<int32, [4]> var_6354_begin_0 = const()[name = tensor<string, []>("op_6354_begin_0"), val = tensor<int32, [4]>([0, 448, 0, 0])];
            tensor<int32, [4]> var_6354_end_0 = const()[name = tensor<string, []>("op_6354_end_0"), val = tensor<int32, [4]>([2, 512, 1, 77])];
            tensor<bool, [4]> var_6354_end_mask_0 = const()[name = tensor<string, []>("op_6354_end_mask_0"), val = tensor<bool, [4]>([true, false, true, true])];
            tensor<fp16, [2, 64, 1, 77]> var_6354_cast = slice_by_index(begin = var_6354_begin_0, end = var_6354_end_0, end_mask = var_6354_end_mask_0, x = v_31_cast);
            tensor<int32, [4]> var_6358_begin_0 = const()[name = tensor<string, []>("op_6358_begin_0"), val = tensor<int32, [4]>([0, 512, 0, 0])];
            tensor<int32, [4]> var_6358_end_0 = const()[name = tensor<string, []>("op_6358_end_0"), val = tensor<int32, [4]>([2, 576, 1, 77])];
            tensor<bool, [4]> var_6358_end_mask_0 = const()[name = tensor<string, []>("op_6358_end_mask_0"), val = tensor<bool, [4]>([true, false, true, true])];
            tensor<fp16, [2, 64, 1, 77]> var_6358_cast = slice_by_index(begin = var_6358_begin_0, end = var_6358_end_0, end_mask = var_6358_end_mask_0, x = v_31_cast);
            tensor<int32, [4]> var_6362_begin_0 = const()[name = tensor<string, []>("op_6362_begin_0"), val = tensor<int32, [4]>([0, 576, 0, 0])];
            tensor<int32, [4]> var_6362_end_0 = const()[name = tensor<string, []>("op_6362_end_0"), val = tensor<int32, [4]>([2, 640, 1, 77])];
            tensor<bool, [4]> var_6362_end_mask_0 = const()[name = tensor<string, []>("op_6362_end_mask_0"), val = tensor<bool, [4]>([true, false, true, true])];
            tensor<fp16, [2, 64, 1, 77]> var_6362_cast = slice_by_index(begin = var_6362_begin_0, end = var_6362_end_0, end_mask = var_6362_end_mask_0, x = v_31_cast);
            tensor<int32, [4]> var_6366_begin_0 = const()[name = tensor<string, []>("op_6366_begin_0"), val = tensor<int32, [4]>([0, 640, 0, 0])];
            tensor<int32, [4]> var_6366_end_0 = const()[name = tensor<string, []>("op_6366_end_0"), val = tensor<int32, [4]>([2, 704, 1, 77])];
            tensor<bool, [4]> var_6366_end_mask_0 = const()[name = tensor<string, []>("op_6366_end_mask_0"), val = tensor<bool, [4]>([true, false, true, true])];
            tensor<fp16, [2, 64, 1, 77]> var_6366_cast = slice_by_index(begin = var_6366_begin_0, end = var_6366_end_0, end_mask = var_6366_end_mask_0, x = v_31_cast);
            tensor<int32, [4]> var_6370_begin_0 = const()[name = tensor<string, []>("op_6370_begin_0"), val = tensor<int32, [4]>([0, 704, 0, 0])];
            tensor<int32, [4]> var_6370_end_0 = const()[name = tensor<string, []>("op_6370_end_0"), val = tensor<int32, [4]>([2, 768, 1, 77])];
            tensor<bool, [4]> var_6370_end_mask_0 = const()[name = tensor<string, []>("op_6370_end_mask_0"), val = tensor<bool, [4]>([true, false, true, true])];
            tensor<fp16, [2, 64, 1, 77]> var_6370_cast = slice_by_index(begin = var_6370_begin_0, end = var_6370_end_0, end_mask = var_6370_end_mask_0, x = v_31_cast);
            tensor<int32, [4]> var_6374_begin_0 = const()[name = tensor<string, []>("op_6374_begin_0"), val = tensor<int32, [4]>([0, 768, 0, 0])];
            tensor<int32, [4]> var_6374_end_0 = const()[name = tensor<string, []>("op_6374_end_0"), val = tensor<int32, [4]>([2, 832, 1, 77])];
            tensor<bool, [4]> var_6374_end_mask_0 = const()[name = tensor<string, []>("op_6374_end_mask_0"), val = tensor<bool, [4]>([true, false, true, true])];
            tensor<fp16, [2, 64, 1, 77]> var_6374_cast = slice_by_index(begin = var_6374_begin_0, end = var_6374_end_0, end_mask = var_6374_end_mask_0, x = v_31_cast);
            tensor<int32, [4]> var_6378_begin_0 = const()[name = tensor<string, []>("op_6378_begin_0"), val = tensor<int32, [4]>([0, 832, 0, 0])];
            tensor<int32, [4]> var_6378_end_0 = const()[name = tensor<string, []>("op_6378_end_0"), val = tensor<int32, [4]>([2, 896, 1, 77])];
            tensor<bool, [4]> var_6378_end_mask_0 = const()[name = tensor<string, []>("op_6378_end_mask_0"), val = tensor<bool, [4]>([true, false, true, true])];
            tensor<fp16, [2, 64, 1, 77]> var_6378_cast = slice_by_index(begin = var_6378_begin_0, end = var_6378_end_0, end_mask = var_6378_end_mask_0, x = v_31_cast);
            tensor<int32, [4]> var_6382_begin_0 = const()[name = tensor<string, []>("op_6382_begin_0"), val = tensor<int32, [4]>([0, 896, 0, 0])];
            tensor<int32, [4]> var_6382_end_0 = const()[name = tensor<string, []>("op_6382_end_0"), val = tensor<int32, [4]>([2, 960, 1, 77])];
            tensor<bool, [4]> var_6382_end_mask_0 = const()[name = tensor<string, []>("op_6382_end_mask_0"), val = tensor<bool, [4]>([true, false, true, true])];
            tensor<fp16, [2, 64, 1, 77]> var_6382_cast = slice_by_index(begin = var_6382_begin_0, end = var_6382_end_0, end_mask = var_6382_end_mask_0, x = v_31_cast);
            tensor<int32, [4]> var_6386_begin_0 = const()[name = tensor<string, []>("op_6386_begin_0"), val = tensor<int32, [4]>([0, 960, 0, 0])];
            tensor<int32, [4]> var_6386_end_0 = const()[name = tensor<string, []>("op_6386_end_0"), val = tensor<int32, [4]>([2, 1024, 1, 77])];
            tensor<bool, [4]> var_6386_end_mask_0 = const()[name = tensor<string, []>("op_6386_end_mask_0"), val = tensor<bool, [4]>([true, false, true, true])];
            tensor<fp16, [2, 64, 1, 77]> var_6386_cast = slice_by_index(begin = var_6386_begin_0, end = var_6386_end_0, end_mask = var_6386_end_mask_0, x = v_31_cast);
            tensor<int32, [4]> var_6390_begin_0 = const()[name = tensor<string, []>("op_6390_begin_0"), val = tensor<int32, [4]>([0, 1024, 0, 0])];
            tensor<int32, [4]> var_6390_end_0 = const()[name = tensor<string, []>("op_6390_end_0"), val = tensor<int32, [4]>([2, 1088, 1, 77])];
            tensor<bool, [4]> var_6390_end_mask_0 = const()[name = tensor<string, []>("op_6390_end_mask_0"), val = tensor<bool, [4]>([true, false, true, true])];
            tensor<fp16, [2, 64, 1, 77]> var_6390_cast = slice_by_index(begin = var_6390_begin_0, end = var_6390_end_0, end_mask = var_6390_end_mask_0, x = v_31_cast);
            tensor<int32, [4]> var_6394_begin_0 = const()[name = tensor<string, []>("op_6394_begin_0"), val = tensor<int32, [4]>([0, 1088, 0, 0])];
            tensor<int32, [4]> var_6394_end_0 = const()[name = tensor<string, []>("op_6394_end_0"), val = tensor<int32, [4]>([2, 1152, 1, 77])];
            tensor<bool, [4]> var_6394_end_mask_0 = const()[name = tensor<string, []>("op_6394_end_mask_0"), val = tensor<bool, [4]>([true, false, true, true])];
            tensor<fp16, [2, 64, 1, 77]> var_6394_cast = slice_by_index(begin = var_6394_begin_0, end = var_6394_end_0, end_mask = var_6394_end_mask_0, x = v_31_cast);
            tensor<int32, [4]> var_6398_begin_0 = const()[name = tensor<string, []>("op_6398_begin_0"), val = tensor<int32, [4]>([0, 1152, 0, 0])];
            tensor<int32, [4]> var_6398_end_0 = const()[name = tensor<string, []>("op_6398_end_0"), val = tensor<int32, [4]>([2, 1216, 1, 77])];
            tensor<bool, [4]> var_6398_end_mask_0 = const()[name = tensor<string, []>("op_6398_end_mask_0"), val = tensor<bool, [4]>([true, false, true, true])];
            tensor<fp16, [2, 64, 1, 77]> var_6398_cast = slice_by_index(begin = var_6398_begin_0, end = var_6398_end_0, end_mask = var_6398_end_mask_0, x = v_31_cast);
            tensor<int32, [4]> var_6402_begin_0 = const()[name = tensor<string, []>("op_6402_begin_0"), val = tensor<int32, [4]>([0, 1216, 0, 0])];
            tensor<int32, [4]> var_6402_end_0 = const()[name = tensor<string, []>("op_6402_end_0"), val = tensor<int32, [4]>([2, 1280, 1, 77])];
            tensor<bool, [4]> var_6402_end_mask_0 = const()[name = tensor<string, []>("op_6402_end_mask_0"), val = tensor<bool, [4]>([true, false, true, true])];
            tensor<fp16, [2, 64, 1, 77]> var_6402_cast = slice_by_index(begin = var_6402_begin_0, end = var_6402_end_0, end_mask = var_6402_end_mask_0, x = v_31_cast);
            tensor<string, []> var_6406_equation_0 = const()[name = tensor<string, []>("op_6406_equation_0"), val = tensor<string, []>("bkhc,bchq->bkhq")];
            tensor<fp16, [2, 77, 1, 256]> var_6406_cast = einsum(equation = var_6406_equation_0, values = (var_6248_cast, var_6165_cast));
            tensor<fp16, []> var_6407_to_fp16 = const()[name = tensor<string, []>("op_6407_to_fp16"), val = tensor<fp16, []>(0x1p-3)];
            tensor<fp16, [2, 77, 1, 256]> aw_401_cast = mul(x = var_6406_cast, y = var_6407_to_fp16);
            tensor<string, []> var_6410_equation_0 = const()[name = tensor<string, []>("op_6410_equation_0"), val = tensor<string, []>("bkhc,bchq->bkhq")];
            tensor<fp16, [2, 77, 1, 256]> var_6410_cast = einsum(equation = var_6410_equation_0, values = (var_6252_cast, var_6169_cast));
            tensor<fp16, []> var_6411_to_fp16 = const()[name = tensor<string, []>("op_6411_to_fp16"), val = tensor<fp16, []>(0x1p-3)];
            tensor<fp16, [2, 77, 1, 256]> aw_403_cast = mul(x = var_6410_cast, y = var_6411_to_fp16);
            tensor<string, []> var_6414_equation_0 = const()[name = tensor<string, []>("op_6414_equation_0"), val = tensor<string, []>("bkhc,bchq->bkhq")];
            tensor<fp16, [2, 77, 1, 256]> var_6414_cast = einsum(equation = var_6414_equation_0, values = (var_6256_cast, var_6173_cast));
            tensor<fp16, []> var_6415_to_fp16 = const()[name = tensor<string, []>("op_6415_to_fp16"), val = tensor<fp16, []>(0x1p-3)];
            tensor<fp16, [2, 77, 1, 256]> aw_405_cast = mul(x = var_6414_cast, y = var_6415_to_fp16);
            tensor<string, []> var_6418_equation_0 = const()[name = tensor<string, []>("op_6418_equation_0"), val = tensor<string, []>("bkhc,bchq->bkhq")];
            tensor<fp16, [2, 77, 1, 256]> var_6418_cast = einsum(equation = var_6418_equation_0, values = (var_6260_cast, var_6177_cast));
            tensor<fp16, []> var_6419_to_fp16 = const()[name = tensor<string, []>("op_6419_to_fp16"), val = tensor<fp16, []>(0x1p-3)];
…
            tensor<int32, [4]> var_11503_begin_0 = const()[name = tensor<string, []>("op_11503_begin_0"), val = tensor<int32, [4]>([0, 256, 0, 0])];
            tensor<int32, [4]> var_11503_end_0 = const()[name = tensor<string, []>("op_11503_end_0"), val = tensor<int32, [4]>([2, 320, 1, 4096])];
            tensor<bool, [4]> var_11503_end_mask_0 = const()[name = tensor<string, []>("op_11503_end_mask_0"), val = tensor<bool, [4]>([true, false, true, true])];
            tensor<fp16, [2, 64, 1, 4096]> var_11503_cast = slice_by_index(begin = var_11503_begin_0, end = var_11503_end_0, end_mask = var_11503_end_mask_0, x = q_61_cast);
            tensor<int32, [4]> k_123_perm_0 = const()[name = tensor<string, []>("k_123_perm_0"), val = tensor<int32, [4]>([0, 3, 2, 1])];
            tensor<int32, [4]> var_11510_begin_0 = const()[name = tensor<string, []>("op_11510_begin_0"), val = tensor<int32, [4]>([0, 0, 0, 0])];
            tensor<int32, [4]> var_11510_end_0 = const()[name = tensor<string, []>("op_11510_end_0"), val = tensor<int32, [4]>([2, 4096, 1, 64])];
            tensor<bool, [4]> var_11510_end_mask_0 = const()[name = tensor<string, []>("op_11510_end_mask_0"), val = tensor<bool, [4]>([true, true, true, false])];
            tensor<fp16, [2, 4096, 1, 320]> transpose_1 = transpose(perm = k_123_perm_0, x = k_121_cast);
            tensor<fp16, [2, 4096, 1, 64]> var_11510_cast = slice_by_index(begin = var_11510_begin_0, end = var_11510_end_0, end_mask = var_11510_end_mask_0, x = transpose_1);
            tensor<int32, [4]> var_11514_begin_0 = const()[name = tensor<string, []>("op_11514_begin_0"), val = tensor<int32, [4]>([0, 0, 0, 64])];
            tensor<int32, [4]> var_11514_end_0 = const()[name = tensor<string, []>("op_11514_end_0"), val = tensor<int32, [4]>([2, 4096, 1, 128])];
            tensor<bool, [4]> var_11514_end_mask_0 = const()[name = tensor<string, []>("op_11514_end_mask_0"), val = tensor<bool, [4]>([true, true, true, false])];
            tensor<fp16, [2, 4096, 1, 64]> var_11514_cast = slice_by_index(begin = var_11514_begin_0, end = var_11514_end_0, end_mask = var_11514_end_mask_0, x = transpose_1);
            tensor<int32, [4]> var_11518_begin_0 = const()[name = tensor<string, []>("op_11518_begin_0"), val = tensor<int32, [4]>([0, 0, 0, 128])];
            tensor<int32, [4]> var_11518_end_0 = const()[name = tensor<string, []>("op_11518_end_0"), val = tensor<int32, [4]>([2, 4096, 1, 192])];
            tensor<bool, [4]> var_11518_end_mask_0 = const()[name = tensor<string, []>("op_11518_end_mask_0"), val = tensor<bool, [4]>([true, true, true, false])];
            tensor<fp16, [2, 4096, 1, 64]> var_11518_cast = slice_by_index(begin = var_11518_begin_0, end = var_11518_end_0, end_mask = var_11518_end_mask_0, x = transpose_1);
            tensor<int32, [4]> var_11522_begin_0 = const()[name = tensor<string, []>("op_11522_begin_0"), val = tensor<int32, [4]>([0, 0, 0, 192])];
            tensor<int32, [4]> var_11522_end_0 = const()[name = tensor<string, []>("op_11522_end_0"), val = tensor<int32, [4]>([2, 4096, 1, 256])];
            tensor<bool, [4]> var_11522_end_mask_0 = const()[name = tensor<string, []>("op_11522_end_mask_0"), val = tensor<bool, [4]>([true, true, true, false])];
            tensor<fp16, [2, 4096, 1, 64]> var_11522_cast = slice_by_index(begin = var_11522_begin_0, end = var_11522_end_0, end_mask = var_11522_end_mask_0, x = transpose_1);
            tensor<int32, [4]> var_11526_begin_0 = const()[name = tensor<string, []>("op_11526_begin_0"), val = tensor<int32, [4]>([0, 0, 0, 256])];
            tensor<int32, [4]> var_11526_end_0 = const()[name = tensor<string, []>("op_11526_end_0"), val = tensor<int32, [4]>([2, 4096, 1, 320])];
            tensor<bool, [4]> var_11526_end_mask_0 = const()[name = tensor<string, []>("op_11526_end_mask_0"), val = tensor<bool, [4]>([true, true, true, false])];
            tensor<fp16, [2, 4096, 1, 64]> var_11526_cast = slice_by_index(begin = var_11526_begin_0, end = var_11526_end_0, end_mask = var_11526_end_mask_0, x = transpose_1);
            tensor<int32, [4]> var_11528_begin_0 = const()[name = tensor<string, []>("op_11528_begin_0"), val = tensor<int32, [4]>([0, 0, 0, 0])];
            tensor<int32, [4]> var_11528_end_0 = const()[name = tensor<string, []>("op_11528_end_0"), val = tensor<int32, [4]>([2, 64, 1, 4096])];
            tensor<bool, [4]> var_11528_end_mask_0 = const()[name = tensor<string, []>("op_11528_end_mask_0"), val = tensor<bool, [4]>([true, false, true, true])];
            tensor<fp16, [2, 64, 1, 4096]> var_11528_cast = slice_by_index(begin = var_11528_begin_0, end = var_11528_end_0, end_mask = var_11528_end_mask_0, x = v_61_cast);
            tensor<int32, [4]> var_11532_begin_0 = const()[name = tensor<string, []>("op_11532_begin_0"), val = tensor<int32, [4]>([0, 64, 0, 0])];
            tensor<int32, [4]> var_11532_end_0 = const()[name = tensor<string, []>("op_11532_end_0"), val = tensor<int32, [4]>([2, 128, 1, 4096])];
            tensor<bool, [4]> var_11532_end_mask_0 = const()[name = tensor<string, []>("op_11532_end_mask_0"), val = tensor<bool, [4]>([true, false, true, true])];
            tensor<fp16, [2, 64, 1, 4096]> var_11532_cast = slice_by_index(begin = var_11532_begin_0, end = var_11532_end_0, end_mask = var_11532_end_mask_0, x = v_61_cast);
            tensor<int32, [4]> var_11536_begin_0 = const()[name = tensor<string, []>("op_11536_begin_0"), val = tensor<int32, [4]>([0, 128, 0, 0])];
            tensor<int32, [4]> var_11536_end_0 = const()[name = tensor<string, []>("op_11536_end_0"), val = tensor<int32, [4]>([2, 192, 1, 4096])];
            tensor<bool, [4]> var_11536_end_mask_0 = const()[name = tensor<string, []>("op_11536_end_mask_0"), val = tensor<bool, [4]>([true, false, true, true])];
            tensor<fp16, [2, 64, 1, 4096]> var_11536_cast = slice_by_index(begin = var_11536_begin_0, end = var_11536_end_0, end_mask = var_11536_end_mask_0, x = v_61_cast);
            tensor<int32, [4]> var_11540_begin_0 = const()[name = tensor<string, []>("op_11540_begin_0"), val = tensor<int32, [4]>([0, 192, 0, 0])];
            tensor<int32, [4]> var_11540_end_0 = const()[name = tensor<string, []>("op_11540_end_0"), val = tensor<int32, [4]>([2, 256, 1, 4096])];
            tensor<bool, [4]> var_11540_end_mask_0 = const()[name = tensor<string, []>("op_11540_end_mask_0"), val = tensor<bool, [4]>([true, false, true, true])];
            tensor<fp16, [2, 64, 1, 4096]> var_11540_cast = slice_by_index(begin = var_11540_begin_0, end = var_11540_end_0, end_mask = var_11540_end_mask_0, x = v_61_cast);
            tensor<int32, [4]> var_11544_begin_0 = const()[name = tensor<string, []>("op_11544_begin_0"), val = tensor<int32, [4]>([0, 256, 0, 0])];
            tensor<int32, [4]> var_11544_end_0 = const()[name = tensor<string, []>("op_11544_end_0"), val = tensor<int32, [4]>([2, 320, 1, 4096])];
            tensor<bool, [4]> var_11544_end_mask_0 = const()[name = tensor<string, []>("op_11544_end_mask_0"), val = tensor<bool, [4]>([true, false, true, true])];
            tensor<fp16, [2, 64, 1, 4096]> var_11544_cast = slice_by_index(begin = var_11544_begin_0, end = var_11544_end_0, end_mask = var_11544_end_mask_0, x = v_61_cast);
            tensor<string, []> var_11548_equation_0 = const()[name = tensor<string, []>("op_11548_equation_0"), val = tensor<string, []>("bkhc,bchq->bkhq")];
            tensor<fp16, [2, 4096, 1, 4096]> var_11548_cast = einsum(equation = var_11548_equation_0, values = (var_11510_cast, var_11487_cast));
            tensor<fp16, []> var_11549_to_fp16 = const()[name = tensor<string, []>("op_11549_to_fp16"), val = tensor<fp16, []>(0x1p-3)];
            tensor<fp16, [2, 4096, 1, 4096]> aw_761_cast = mul(x = var_11548_cast, y = var_11549_to_fp16);
            tensor<string, []> var_11552_equation_0 = const()[name = tensor<string, []>("op_11552_equation_0"), val = tensor<string, []>("bkhc,bchq->bkhq")];
            tensor<fp16, [2, 4096, 1, 4096]> var_11552_cast = einsum(equation = var_11552_equation_0, values = (var_11514_cast, var_11491_cast));
            tensor<fp16, []> var_11553_to_fp16 = const()[name = tensor<string, []>("op_11553_to_fp16"), val = tensor<fp16, []>(0x1p-3)];
            tensor<fp16, [2, 4096, 1, 4096]> aw_763_cast = mul(x = var_11552_cast, y = var_11553_to_fp16);
            tensor<string, []> var_11556_equation_0 = const()[name = tensor<string, []>("op_11556_equation_0"), val = tensor<string, []>("bkhc,bchq->bkhq")];
            tensor<fp16, [2, 4096, 1, 4096]> var_11556_cast = einsum(equation = var_11556_equation_0, values = (var_11518_cast, var_11495_cast));
            tensor<fp16, []> var_11557_to_fp16 = const()[name = tensor<string, []>("op_11557_to_fp16"), val = tensor<fp16, []>(0x1p-3)];
            tensor<fp16, [2, 4096, 1, 4096]> aw_765_cast = mul(x = var_11556_cast, y = var_11557_to_fp16);
            tensor<string, []> var_11560_equation_0 = const()[name = tensor<string, []>("op_11560_equation_0"), val = tensor<string, []>("bkhc,bchq->bkhq")];
            tensor<fp16, [2, 4096, 1, 4096]> var_11560_cast = einsum(equation = var_11560_equation_0, values = (var_11522_cast, var_11499_cast));
            tensor<fp16, []> var_11561_to_fp16 = const()[name = tensor<string, []>("op_11561_to_fp16"), val = tensor<fp16, []>(0x1p-3)];
            tensor<fp16, [2, 4096, 1, 4096]> aw_767_cast = mul(x = var_11560_cast, y = var_11561_to_fp16);
            tensor<string, []> var_11564_equation_0 = const()[name = tensor<string, []>("op_11564_equation_0"), val = tensor<string, []>("bkhc,bchq->bkhq")];
            tensor<fp16, [2, 4096, 1, 4096]> var_11564_cast = einsum(equation = var_11564_equation_0, values = (var_11526_cast, var_11503_cast));
            tensor<fp16, []> var_11565_to_fp16 = const()[name = tensor<string, []>("op_11565_to_fp16"), val = tensor<fp16, []>(0x1p-3)];
            tensor<fp16, [2, 4096, 1, 4096]> aw_769_cast = mul(x = var_11564_cast, y = var_11565_to_fp16);
            tensor<fp16, [2, 4096, 1, 4096]> var_11567_cast = softmax(axis = var_10509, x = aw_761_cast);
            tensor<fp16, [2, 4096, 1, 4096]> var_11568_cast = softmax(axis = var_10509, x = aw_763_cast);
            tensor<fp16, [2, 4096, 1, 4096]> var_11569_cast = softmax(axis = var_10509, x = aw_765_cast);
            tensor<fp16, [2, 4096, 1, 4096]> var_11570_cast = softmax(axis = var_10509, x = aw_767_cast);
            tensor<fp16, [2, 4096, 1, 4096]> var_11571_cast = softmax(axis = var_10509, x = aw_769_cast);
            tensor<string, []> var_11573_equation_0 = const()[name = tensor<string, []>("op_11573_equation_0"), val = tensor<string, []>("bchk,bkhq->bchq")];
            tensor<fp16, [2, 64, 1, 4096]> var_11573_cast = einsum(equation = var_11573_equation_0, values = (var_11528_cast, var_11567_cast));
            tensor<string, []> var_11575_equation_0 = const()[name = tensor<string, []>("op_11575_equation_0"), val = tensor<string, []>("bchk,bkhq->bchq")];
            tensor<fp16, [2, 64, 1, 4096]> var_11575_cast = einsum(equation = var_11575_equation_0, values = (var_11532_cast, var_11568_cast));
            tensor<string, []> var_11577_equation_0 = const()[name = tensor<string, []>("op_11577_equation_0"), val = tensor<string, []>("bchk,bkhq->bchq")];
            tensor<fp16, [2, 64, 1, 4096]> var_11577_cast = einsum(equation = var_11577_equation_0, values = (var_11536_cast, var_11569_cast));
            tensor<string, []> var_11579_equation_0 = const()[name = tensor<string, []>("op_11579_equation_0"), val = tensor<string, []>("bchk,bkhq->bchq")];
            tensor<fp16, [2, 64, 1, 4096]> var_11579_cast = einsum(equation = var_11579_equation_0, values = (var_11540_cast, var_11570_cast));
            tensor<string, []> var_11581_equation_0 = const()[name = tensor<string, []>("op_11581_equation_0"), val = tensor<string, []>("bchk,bkhq->bchq")];
            tensor<fp16, [2, 64, 1, 4096]> var_11581_cast = einsum(equation = var_11581_equation_0, values = (var_11544_cast, var_11571_cast));
            tensor<bool, []> input_517_interleave_0 = const()[name = tensor<string, []>("input_517_interleave_0"), val = tensor<bool, []>(false)];
            tensor<fp16, [2, 320, 1, 4096]> input_517_cast = concat(axis = var_10509, interleave = input_517_interleave_0, values = (var_11573_cast, var_11575_cast, var_11577_cast, var_11579_cast, var_11581_cast));
            tensor<int32, [2]> var_11587 = const()[name = tensor<string, []>("op_11587"), val = tensor<int32, [2]>([1, 1])];
            tensor<int32, [2]> var_11589 = const()[name = tensor<string, []>("op_11589"), val = tensor<int32, [2]>([1, 1])];
            tensor<string, []> var_11591_pad_type_0 = const()[name = tensor<string, []>("op_11591_pad_type_0"), val = tensor<string, []>("custom")];
            tensor<int32, [4]> var_11591_pad_0 = const()[name = tensor<string, []>("op_11591_pad_0"), val = tensor<int32, [4]>([0, 0, 0, 0])];
            tensor<fp16, [320, 320, 1, 1]> up_blocks_3_attentions_2_transformer_blocks_0_attn1_to_out_0_weight_to_fp16 = const()[name = tensor<string, []>("up_blocks_3_attentions_2_transformer_blocks_0_attn1_to_out_0_weight_to_fp16"), val = tensor<fp16, [320, 320, 1, 1]>(BLOBFILE(path = tensor<string, []>("@model_path/weights/weight.bin"), offset = tensor<uint64, []>(833920896)))];
            tensor<fp16, [320]> up_blocks_3_attentions_2_transformer_blocks_0_attn1_to_out_0_bias_to_fp16 = const()[name = tensor<string, []>("up_blocks_3_attentions_2_transformer_blocks_0_attn1_to_out_0_bias_to_fp16"), val = tensor<fp16, [320]>(BLOBFILE(path = tensor<string, []>("@model_path/weights/weight.bin"), offset = tensor<uint64, []>(834125760)))];
            tensor<fp16, [2, 320, 1, 4096]> var_11591_cast = conv(bias = up_blocks_3_attentions_2_transformer_blocks_0_attn1_to_out_0_bias_to_fp16, dilations = var_11589, groups = var_10509, pad = var_11591_pad_0, pad_type = var_11591_pad_type_0, strides = var_11587, weight = up_blocks_3_attentions_2_transformer_blocks_0_attn1_to_out_0_weight_to_fp16, x = input_517_cast);
            tensor<fp16, [2, 320, 1, 4096]> inputs_93_cast = add(x = var_11591_cast, y = inputs_91_cast);
            tensor<int32, [1]> var_11595 = const()[name = tensor<string, []>("op_11595"), val = tensor<int32, [1]>([1])];
            tensor<fp16, [2, 1, 1, 4096]> channels_mean_93_cast = reduce_mean(axes = var_11595, keep_dims = var_10504, x = inputs_93_cast);
            tensor<fp16, [2, 320, 1, 4096]> zero_mean_93_cast = sub(x = inputs_93_cast, y = channels_mean_93_cast);
            tensor<fp16, [2, 320, 1, 4096]> zero_mean_sq_93_cast = mul(x = zero_mean_93_cast, y = zero_mean_93_cast);
            tensor<int32, [1]> var_11599 = const()[name = tensor<string, []>("op_11599"), val = tensor<int32, [1]>([1])];
            tensor<fp16, [2, 1, 1, 4096]> var_11600_cast = reduce_mean(axes = var_11599, keep_dims = var_10504, x = zero_mean_sq_93_cast);
            tensor<fp16, []> var_11601_to_fp16 = const()[name = tensor<string, []>("op_11601_to_fp16"), val = tensor<fp16, []>(0x1.5p-17)];
            tensor<fp16, [2, 1, 1, 4096]> var_11602_cast = add(x = var_11600_cast, y = var_11601_to_fp16);
            tensor<fp16, []> denom_93_epsilon_0_to_fp16 = const()[name = tensor<string, []>("denom_93_epsilon_0_to_fp16"), val = tensor<fp16, []>(0x1p-24)];
            tensor<fp16, [2, 1, 1, 4096]> denom_93_cast = rsqrt(epsilon = denom_93_epsilon_0_to_fp16, x = var_11602_cast);
            tensor<fp16, [2, 320, 1, 4096]> out_93_cast = mul(x = zero_mean_93_cast, y = denom_93_cast);
            tensor<fp16, [1, 320, 1, 1]> var_11606_to_fp16 = const()[name = tensor<string, []>("op_11606_to_fp16"), val = tensor<fp16, [1, 320, 1, 1]>(BLOBFILE(path = tensor<string, []>("@model_path/weights/weight.bin"), offset = tensor<uint64, []>(834126464)))];
            tensor<fp16, [2, 320, 1, 4096]> var_11607_cast = add(x = out_93_cast, y = var_11606_to_fp16);
            tensor<fp16, [1, 320, 1, 1]> var_11609_to_fp16 = const()[name = tensor<string, []>("op_11609_to_fp16"), val = tensor<fp16, [1, 320, 1, 1]>(BLOBFILE(path = tensor<string, []>("@model_path/weights/weight.bin"), offset = tensor<uint64, []>(834127168)))];
            tensor<fp16, [2, 320, 1, 4096]> hidden_states_329_cast = mul(x = var_11607_cast, y = var_11609_to_fp16);
            tensor<int32, [2]> var_11616 = const()[name = tensor<string, []>("op_11616"), val = tensor<int32, [2]>([1, 1])];
            tensor<int32, [2]> var_11618 = const()[name = tensor<string, []>("op_11618"), val = tensor<int32, [2]>([1, 1])];
            tensor<string, []> q_pad_type_0 = const()[name = tensor<string, []>("q_pad_type_0"), val = tensor<string, []>("custom")];
            tensor<int32, [4]> q_pad_0 = const()[name = tensor<string, []>("q_pad_0"), val = tensor<int32, [4]>([0, 0, 0, 0])];
            tensor<fp16, [320, 320, 1, 1]> up_blocks_3_attentions_2_transformer_blocks_0_attn2_to_q_weight_to_fp16 = const()[name = tensor<string, []>("up_blocks_3_attentions_2_transformer_blocks_0_attn2_to_q_weight_to_fp16"), val = tensor<fp16, [320, 320, 1, 1]>(BLOBFILE(path = tensor<string, []>("@model_path/weights/weight.bin"), offset = tensor<uint64, []>(834127872)))];
            tensor<fp16, [2, 320, 1, 4096]> q_cast = conv(dilations = var_11618, groups = var_10509, pad = q_pad_0, pad_type = q_pad_type_0, strides = var_11616, weight = up_blocks_3_attentions_2_transformer_blocks_0_attn2_to_q_weight_to_fp16, x = hidden_states_329_cast);
            tensor<int32, [2]> var_11622 = const()[name = tensor<string, []>("op_11622"), val = tensor<int32, [2]>([1, 1])];
            tensor<int32, [2]> var_11624 = const()[name = tensor<string, []>("op_11624"), val = tensor<int32, [2]>([1, 1])];
            tensor<string, []> k_125_pad_type_0 = const()[name = tensor<string, []>("k_125_pad_type_0"), val = tensor<string, []>("custom")];
            tensor<int32, [4]> k_125_pad_0 = const()[name = tensor<string, []>("k_125_pad_0"), val = tensor<int32, [4]>([0, 0, 0, 0])];
            tensor<fp16, [320, 1024, 1, 1]> up_blocks_3_attentions_2_transformer_blocks_0_attn2_to_k_weight_to_fp16 = const()[name = tensor<string, []>("up_blocks_3_attentions_2_transformer_blocks_0_attn2_to_k_weight_to_fp16"), val = tensor<fp16, [320, 1024, 1, 1]>(BLOBFILE(path = tensor<string, []>("@model_path/weights/weight.bin"), offset = tensor<uint64, []>(834332736)))];
            tensor<fp16, [2, 320, 1, 77]> k_125_cast = conv(dilations = var_11624, groups = var_10509, pad = k_125_pad_0, pad_type = k_125_pad_type_0, strides = var_11622, weight = up_blocks_3_attentions_2_transformer_blocks_0_attn2_to_k_weight_to_fp16, x = encoder_hidden_states);
            tensor<int32, [2]> var_11628 = const()[name = tensor<string, []>("op_11628"), val = tensor<int32, [2]>([1, 1])];
            tensor<int32, [2]> var_11630 = const()[name = tensor<string, []>("op_11630"), val = tensor<int32, [2]>([1, 1])];
            tensor<string, []> v_pad_type_0 = const()[name = tensor<string, []>("v_pad_type_0"), val = tensor<string, []>("custom")];
            tensor<int32, [4]> v_pad_0 = const()[name = tensor<string, []>("v_pad_0"), val = tensor<int32, [4]>([0, 0, 0, 0])];
            tensor<fp16, [320, 1024, 1, 1]> up_blocks_3_attentions_2_transformer_blocks_0_attn2_to_v_weight_to_fp16 = const()[name = tensor<string, []>("up_blocks_3_attentions_2_transformer_blocks_0_attn2_to_v_weight_to_fp16"), val = tensor<fp16, [320, 1024, 1, 1]>(BLOBFILE(path = tensor<string, []>("@model_path/weights/weight.bin"), offset = tensor<uint64, []>(834988160)))];
            tensor<fp16, [2, 320, 1, 77]> v_cast = conv(dilations = var_11630, groups = var_10509, pad = v_pad_0, pad_type = v_pad_type_0, strides = var_11628, weight = up_blocks_3_attentions_2_transformer_blocks_0_attn2_to_v_weight_to_fp16, x = encoder_hidden_states);
            tensor<int32, [4]> var_11634_begin_0 = const()[name = tensor<string, []>("op_11634_begin_0"), val = tensor<int32, [4]>([0, 0, 0, 0])];
            tensor<int32, [4]> var_11634_end_0 = const()[name = tensor<string, []>("op_11634_end_0"), val = tensor<int32, [4]>([2, 64, 1, 4096])];
            tensor<bool, [4]> var_11634_end_mask_0 = const()[name = tensor<string, []>("op_11634_end_mask_0"), val = tensor<bool, [4]>([true, false, true, true])];
            tensor<fp16, [2, 64, 1, 4096]> var_11634_cast = slice_by_index(begin = var_11634_begin_0, end = var_11634_end_0, end_mask = var_11634_end_mask_0, x = q_cast);
            tensor<int32, [4]> var_11638_begin_0 = const()[name = tensor<string, []>("op_11638_begin_0"), val = tensor<int32, [4]>([0, 64, 0, 0])];
            tensor<int32, [4]> var_11638_end_0 = const()[name = tensor<string, []>("op_11638_end_0"), val = tensor<int32, [4]>([2, 128, 1, 4096])];
            tensor<bool, [4]> var_11638_end_mask_0 = const()[name = tensor<string, []>("op_11638_end_mask_0"), val = tensor<bool, [4]>([true, false, true, true])];
            tensor<fp16, [2, 64, 1, 4096]> var_11638_cast = slice_by_index(begin = var_11638_begin_0, end = var_11638_end_0, end_mask = var_11638_end_mask_0, x = q_cast);
            tensor<int32, [4]> var_11642_begin_0 = const()[name = tensor<string, []>("op_11642_begin_0"), val = tensor<int32, [4]>([0, 128, 0, 0])];
            tensor<int32, [4]> var_11642_end_0 = const()[name = tensor<string, []>("op_11642_end_0"), val = tensor<int32, [4]>([2, 192, 1, 4096])];
            tensor<bool, [4]> var_11642_end_mask_0 = const()[name = tensor<string, []>("op_11642_end_mask_0"), val = tensor<bool, [4]>([true, false, true, true])];
            tensor<fp16, [2, 64, 1, 4096]> var_11642_cast = slice_by_index(begin = var_11642_begin_0, end = var_11642_end_0, end_mask = var_11642_end_mask_0, x = q_cast);
            tensor<int32, [4]> var_11646_begin_0 = const()[name = tensor<string, []>("op_11646_begin_0"), val = tensor<int32, [4]>([0, 192, 0, 0])];
            tensor<int32, [4]> var_11646_end_0 = const()[name = tensor<string, []>("op_11646_end_0"), val = tensor<int32, [4]>([2, 256, 1, 4096])];
            tensor<bool, [4]> var_11646_end_mask_0 = const()[name = tensor<string, []>("op_11646_end_mask_0"), val = tensor<bool, [4]>([true, false, true, true])];
            tensor<fp16, [2, 64, 1, 4096]> var_11646_cast = slice_by_index(begin = var_11646_begin_0, end = var_11646_end_0, end_mask = var_11646_end_mask_0, x = q_cast);
            tensor<int32, [4]> var_11650_begin_0 = const()[name = tensor<string, []>("op_11650_begin_0"), val = tensor<int32, [4]>([0, 256, 0, 0])];
            tensor<int32, [4]> var_11650_end_0 = const()[name = tensor<string, []>("op_11650_end_0"), val = tensor<int32, [4]>([2, 320, 1, 4096])];
            tensor<bool, [4]> var_11650_end_mask_0 = const()[name = tensor<string, []>("op_11650_end_mask_0"), val = tensor<bool, [4]>([true, false, true, true])];
            tensor<fp16, [2, 64, 1, 4096]> var_11650_cast = slice_by_index(begin = var_11650_begin_0, end = var_11650_end_0, end_mask = var_11650_end_mask_0, x = q_cast);
            tensor<int32, [4]> k_perm_0 = const()[name = tensor<string, []>("k_perm_0"), val = tensor<int32, [4]>([0, 3, 2, 1])];
            tensor<int32, [4]> var_11657_begin_0 = const()[name = tensor<string, []>("op_11657_begin_0"), val = tensor<int32, [4]>([0, 0, 0, 0])];
            tensor<int32, [4]> var_11657_end_0 = const()[name = tensor<string, []>("op_11657_end_0"), val = tensor<int32, [4]>([2, 77, 1, 64])];
            tensor<bool, [4]> var_11657_end_mask_0 = const()[name = tensor<string, []>("op_11657_end_mask_0"), val = tensor<bool, [4]>([true, true, true, false])];
            tensor<fp16, [2, 77, 1, 320]> transpose_0 = transpose(perm = k_perm_0, x = k_125_cast);
            tensor<fp16, [2, 77, 1, 64]> var_11657_cast = slice_by_index(begin = var_11657_begin_0, end = var_11657_end_0, end_mask = var_11657_end_mask_0, x = transpose_0);
            tensor<int32, [4]> var_11661_begin_0 = const()[name = tensor<string, []>("op_11661_begin_0"), val = tensor<int32, [4]>([0, 0, 0, 64])];
            tensor<int32, [4]> var_11661_end_0 = const()[name = tensor<string, []>("op_11661_end_0"), val = tensor<int32, [4]>([2, 77, 1, 128])];
            tensor<bool, [4]> var_11661_end_mask_0 = const()[name = tensor<string, []>("op_11661_end_mask_0"), val = tensor<bool, [4]>([true, true, true, false])];
            tensor<fp16, [2, 77, 1, 64]> var_11661_cast = slice_by_index(begin = var_11661_begin_0, end = var_11661_end_0, end_mask = var_11661_end_mask_0, x = transpose_0);
            tensor<int32, [4]> var_11665_begin_0 = const()[name = tensor<string, []>("op_11665_begin_0"), val = tensor<int32, [4]>([0, 0, 0, 128])];
            tensor<int32, [4]> var_11665_end_0 = const()[name = tensor<string, []>("op_11665_end_0"), val = tensor<int32, [4]>([2, 77, 1, 192])];
            tensor<bool, [4]> var_11665_end_mask_0 = const()[name = tensor<string, []>("op_11665_end_mask_0"), val = tensor<bool, [4]>([true, true, true, false])];
            tensor<fp16, [2, 77, 1, 64]> var_11665_cast = slice_by_index(begin = var_11665_begin_0, end = var_11665_end_0, end_mask = var_11665_end_mask_0, x = transpose_0);
            tensor<int32, [4]> var_11669_begin_0 = const()[name = tensor<string, []>("op_11669_begin_0"), val = tensor<int32, [4]>([0, 0, 0, 192])];
            tensor<int32, [4]> var_11669_end_0 = const()[name = tensor<string, []>("op_11669_end_0"), val = tensor<int32, [4]>([2, 77, 1, 256])];
            tensor<bool, [4]> var_11669_end_mask_0 = const()[name = tensor<string, []>("op_11669_end_mask_0"), val = tensor<bool, [4]>([true, true, true, false])];
            tensor<fp16, [2, 77, 1, 64]> var_11669_cast = slice_by_index(begin = var_11669_begin_0, end = var_11669_end_0, end_mask = var_11669_end_mask_0, x = transpose_0);
            tensor<int32, [4]> var_11673_begin_0 = const()[name = tensor<string, []>("op_11673_begin_0"), val = tensor<int32, [4]>([0, 0, 0, 256])];
            tensor<int32, [4]> var_11673_end_0 = const()[name = tensor<string, []>("op_11673_end_0"), val = tensor<int32, [4]>([2, 77, 1, 320])];
            tensor<bool, [4]> var_11673_end_mask_0 = const()[name = tensor<string, []>("op_11673_end_mask_0"), val = tensor<bool, [4]>([true, true, true, false])];
            tensor<fp16, [2, 77, 1, 64]> var_11673_cast = slice_by_index(begin = var_11673_begin_0, end = var_11673_end_0, end_mask = var_11673_end_mask_0, x = transpose_0);
            tensor<int32, [4]> var_11675_begin_0 = const()[name = tensor<string, []>("op_11675_begin_0"), val = tensor<int32, [4]>([0, 0, 0, 0])];
            tensor<int32, [4]> var_11675_end_0 = const()[name = tensor<string, []>("op_11675_end_0"), val = tensor<int32, [4]>([2, 64, 1, 77])];
            tensor<bool, [4]> var_11675_end_mask_0 = const()[name = tensor<string, []>("op_11675_end_mask_0"), val = tensor<bool, [4]>([true, false, true, true])];
            tensor<fp16, [2, 64, 1, 77]> var_11675_cast = slice_by_index(begin = var_11675_begin_0, end = var_11675_end_0, end_mask = var_11675_end_mask_0, x = v_cast);
            tensor<int32, [4]> var_11679_begin_0 = const()[name = tensor<string, []>("op_11679_begin_0"), val = tensor<int32, [4]>([0, 64, 0, 0])];
            tensor<int32, [4]> var_11679_end_0 = const()[name = tensor<string, []>("op_11679_end_0"), val = tensor<int32, [4]>([2, 128, 1, 77])];
            tensor<bool, [4]> var_11679_end_mask_0 = const()[name = tensor<string, []>("op_11679_end_mask_0"), val = tensor<bool, [4]>([true, false, true, true])];
            tensor<fp16, [2, 64, 1, 77]> var_11679_cast = slice_by_index(begin = var_11679_begin_0, end = var_11679_end_0, end_mask = var_11679_end_mask_0, x = v_cast);
            tensor<int32, [4]> var_11683_begin_0 = const()[name = tensor<string, []>("op_11683_begin_0"), val = tensor<int32, [4]>([0, 128, 0, 0])];
            tensor<int32, [4]> var_11683_end_0 = const()[name = tensor<string, []>("op_11683_end_0"), val = tensor<int32, [4]>([2, 192, 1, 77])];
            tensor<bool, [4]> var_11683_end_mask_0 = const()[name = tensor<string, []>("op_11683_end_mask_0"), val = tensor<bool, [4]>([true, false, true, true])];
            tensor<fp16, [2, 64, 1, 77]> var_11683_cast = slice_by_index(begin = var_11683_begin_0, end = var_11683_end_0, end_mask = var_11683_end_mask_0, x = v_cast);
            tensor<int32, [4]> var_11687_begin_0 = const()[name = tensor<string, []>("op_11687_begin_0"), val = tensor<int32, [4]>([0, 192, 0, 0])];
            tensor<int32, [4]> var_11687_end_0 = const()[name = tensor<string, []>("op_11687_end_0"), val = tensor<int32, [4]>([2, 256, 1, 77])];
            tensor<bool, [4]> var_11687_end_mask_0 = const()[name = tensor<string, []>("op_11687_end_mask_0"), val = tensor<bool, [4]>([true, false, true, true])];
            tensor<fp16, [2, 64, 1, 77]> var_11687_cast = slice_by_index(begin = var_11687_begin_0, end = var_11687_end_0, end_mask = var_11687_end_mask_0, x = v_cast);
            tensor<int32, [4]> var_11691_begin_0 = const()[name = tensor<string, []>("op_11691_begin_0"), val = tensor<int32, [4]>([0, 256, 0, 0])];
            tensor<int32, [4]> var_11691_end_0 = const()[name = tensor<string, []>("op_11691_end_0"), val = tensor<int32, [4]>([2, 320, 1, 77])];
            tensor<bool, [4]> var_11691_end_mask_0 = const()[name = tensor<string, []>("op_11691_end_mask_0"), val = tensor<bool, [4]>([true, false, true, true])];
            tensor<fp16, [2, 64, 1, 77]> var_11691_cast = slice_by_index(begin = var_11691_begin_0, end = var_11691_end_0, end_mask = var_11691_end_mask_0, x = v_cast);
            tensor<string, []> var_11695_equation_0 = const()[name = tensor<string, []>("op_11695_equation_0"), val = tensor<string, []>("bkhc,bchq->bkhq")];
            tensor<fp16, [2, 77, 1, 4096]> var_11695_cast = einsum(equation = var_11695_equation_0, values = (var_11657_cast, var_11634_cast));
            tensor<fp16, []> var_11696_to_fp16 = const()[name = tensor<string, []>("op_11696_to_fp16"), val = tensor<fp16, []>(0x1p-3)];
            tensor<fp16, [2, 77, 1, 4096]> aw_771_cast = mul(x = var_11695_cast, y = var_11696_to_fp16);
            tensor<string, []> var_11699_equation_0 = const()[name = tensor<string, []>("op_11699_equation_0"), val = tensor<string, []>("bkhc,bchq->bkhq")];
            tensor<fp16, [2, 77, 1, 4096]> var_11699_cast = einsum(equation = var_11699_equation_0, values = (var_11661_cast, var_11638_cast));
            tensor<fp16, []> var_11700_to_fp16 = const()[name = tensor<string, []>("op_11700_to_fp16"), val = tensor<fp16, []>(0x1p-3)];
            tensor<fp16, [2, 77, 1, 4096]> aw_773_cast = mul(x = var_11699_cast, y = var_11700_to_fp16);
            tensor<string, []> var_11703_equation_0 = const()[name = tensor<string, []>("op_11703_equation_0"), val = tensor<string, []>("bkhc,bchq->bkhq")];
            tensor<fp16, [2, 77, 1, 4096]> var_11703_cast = einsum(equation = var_11703_equation_0, values = (var_11665_cast, var_11642_cast));
            tensor<fp16, []> var_11704_to_fp16 = const()[name = tensor<string, []>("op_11704_to_fp16"), val = tensor<fp16, []>(0x1p-3)];
            tensor<fp16, [2, 77, 1, 4096]> aw_775_cast = mul(x = var_11703_cast, y = var_11704_to_fp16);
            tensor<string, []> var_11707_equation_0 = const()[name = tensor<string, []>("op_11707_equation_0"), val = tensor<string, []>("bkhc,bchq->bkhq")];
            tensor<fp16, [2, 77, 1, 4096]> var_11707_cast = einsum(equation = var_11707_equation_0, values = (var_11669_cast, var_11646_cast));
            tensor<fp16, []> var_11708_to_fp16 = const()[name = tensor<string, []>("op_11708_to_fp16"), val = tensor<fp16, []>(0x1p-3)];
            tensor<fp16, [2, 77, 1, 4096]> aw_777_cast = mul(x = var_11707_cast, y = var_11708_to_fp16);
            tensor<string, []> var_11711_equation_0 = const()[name = tensor<string, []>("op_11711_equation_0"), val = tensor<string, []>("bkhc,bchq->bkhq")];
            tensor<fp16, [2, 77, 1, 4096]> var_11711_cast = einsum(equation = var_11711_equation_0, values = (var_11673_cast, var_11650_cast));
            tensor<fp16, []> var_11712_to_fp16 = const()[name = tensor<string, []>("op_11712_to_fp16"), val = tensor<fp16, []>(0x1p-3)];
            tensor<fp16, [2, 77, 1, 4096]> aw_cast = mul(x = var_11711_cast, y = var_11712_to_fp16);
            tensor<fp16, [2, 77, 1, 4096]> var_11714_cast = softmax(axis = var_10509, x = aw_771_cast);
            tensor<fp16, [2, 77, 1, 4096]> var_11715_cast = softmax(axis = var_10509, x = aw_773_cast);
            tensor<fp16, [2, 77, 1, 4096]> var_11716_cast = softmax(axis = var_10509, x = aw_775_cast);
            tensor<fp16, [2, 77, 1, 4096]> var_11717_cast = softmax(axis = var_10509, x = aw_777_cast);
            tensor<fp16, [2, 77, 1, 4096]> var_11718_cast = softmax(axis = var_10509, x = aw_cast);
            tensor<string, []> var_11720_equation_0 = const()[name = tensor<string, []>("op_11720_equation_0"), val = tensor<string, []>("bchk,bkhq->bchq")];
            tensor<fp16, [2, 64, 1, 4096]> var_11720_cast = einsum(equation = var_11720_equation_0, values = (var_11675_cast, var_11714_cast));
            tensor<string, []> var_11722_equation_0 = const()[name = tensor<string, []>("op_11722_equation_0"), val = tensor<string, []>("bchk,bkhq->bchq")];
            tensor<fp16, [2, 64, 1, 4096]> var_11722_cast = einsum(equation = var_11722_equation_0, values = (var_11679_cast, var_11715_cast));
            tensor<string, []> var_11724_equation_0 = const()[name = tensor<string, []>("op_11724_equation_0"), val = tensor<string, []>("bchk,bkhq->bchq")];
            tensor<fp16, [2, 64, 1, 4096]> var_11724_cast = einsum(equation = var_11724_equation_0, values = (var_11683_cast, var_11716_cast));
            tensor<string, []> var_11726_equation_0 = const()[name = tensor<string, []>("op_11726_equation_0"), val = tensor<string, []>("bchk,bkhq->bchq")];
            tensor<fp16, [2, 64, 1, 4096]> var_11726_cast = einsum(equation = var_11726_equation_0, values = (var_11687_cast, var_11717_cast));
            tensor<string, []> var_11728_equation_0 = const()[name = tensor<string, []>("op_11728_equation_0"), val = tensor<string, []>("bchk,bkhq->bchq")];
            tensor<fp16, [2, 64, 1, 4096]> var_11728_cast = einsum(equation = var_11728_equation_0, values = (var_11691_cast, var_11718_cast));
            tensor<bool, []> input_519_interleave_0 = const()[name = tensor<string, []>("input_519_interleave_0"), val = tensor<bool, []>(false)];
            tensor<fp16, [2, 320, 1, 4096]> input_519_cast = concat(axis = var_10509, interleave = input_519_interleave_0, values = (var_11720_cast, var_11722_cast, var_11724_cast, var_11726_cast, var_11728_cast));
            tensor<int32, [2]> var_11734 = const()[name = tensor<string, []>("op_11734"), val = tensor<int32, [2]>([1, 1])];
            tensor<int32, [2]> var_11736 = const()[name = tensor<string, []>("op_11736"), val = tensor<int32, [2]>([1, 1])];
            tensor<string, []> var_11738_pad_type_0 = const()[name = tensor<string, []>("op_11738_pad_type_0"), val = tensor<string, []>("custom")];
            tensor<int32, [4]> var_11738_pad_0 = const()[name = tensor<string, []>("op_11738_pad_0"), val = tensor<int32, [4]>([0, 0, 0, 0])];
            tensor<fp16, [320, 320, 1, 1]> up_blocks_3_attentions_2_transformer_blocks_0_attn2_to_out_0_weight_to_fp16 = const()[name = tensor<string, []>("up_blocks_3_attentions_2_transformer_blocks_0_attn2_to_out_0_weight_to_fp16"), val = tensor<fp16, [320, 320, 1, 1]>(BLOBFILE(path = tensor<string, []>("@model_path/weights/weight.bin"), offset = tensor<uint64, []>(835643584)))];
            tensor<fp16, [320]> up_blocks_3_attentions_2_transformer_blocks_0_attn2_to_out_0_bias_to_fp16 = const()[name = tensor<string, []>("up_blocks_3_attentions_2_transformer_blocks_0_attn2_to_out_0_bias_to_fp16"), val = tensor<fp16, [320]>(BLOBFILE(path = tensor<string, []>("@model_path/weights/weight.bin"), offset = tensor<uint64, []>(835848448)))];
            tensor<fp16, [2, 320, 1, 4096]> var_11738_cast = conv(bias = up_blocks_3_attentions_2_transformer_blocks_0_attn2_to_out_0_bias_to_fp16, dilations = var_11736, groups = var_10509, pad = var_11738_pad_0, pad_type = var_11738_pad_type_0, strides = var_11734, weight = up_blocks_3_attentions_2_transformer_blocks_0_attn2_to_out_0_weight_to_fp16, x = input_519_cast);
            tensor<fp16, [2, 320, 1, 4096]> inputs_cast = add(x = var_11738_cast, y = inputs_93_cast);
            tensor<int32, [1]> var_11742 = const()[name = tensor<string, []>("op_11742"), val = tensor<int32, [1]>([1])];
            tensor<fp16, [2, 1, 1, 4096]> channels_mean_cast = reduce_mean(axes = var_11742, keep_dims = var_10504, x = inputs_cast);
            tensor<fp16, [2, 320, 1, 4096]> zero_mean_cast = sub(x = inputs_cast, y = channels_mean_cast);
            tensor<fp16, [2, 320, 1, 4096]> zero_mean_sq_cast = mul(x = zero_mean_cast, y = zero_mean_cast);
            tensor<int32, [1]> var_11746 = const()[name = tensor<string, []>("op_11746"), val = tensor<int32, [1]>([1])];
            tensor<fp16, [2, 1, 1, 4096]> var_11747_cast = reduce_mean(axes = var_11746, keep_dims = var_10504, x = zero_mean_sq_cast);
            tensor<fp16, []> var_11748_to_fp16 = const()[name = tensor<string, []>("op_11748_to_fp16"), val = tensor<fp16, []>(0x1.5p-17)];
            tensor<fp16, [2, 1, 1, 4096]> var_11749_cast = add(x = var_11747_cast, y = var_11748_to_fp16);
            tensor<fp16, []> denom_epsilon_0_to_fp16 = const()[name = tensor<string, []>("denom_epsilon_0_to_fp16"), val = tensor<fp16, []>(0x1p-24)];
            tensor<fp16, [2, 1, 1, 4096]> denom_cast = rsqrt(epsilon = denom_epsilon_0_to_fp16, x = var_11749_cast);
            tensor<fp16, [2, 320, 1, 4096]> out_cast = mul(x = zero_mean_cast, y = denom_cast);
            tensor<fp16, [1, 320, 1, 1]> var_11753_to_fp16 = const()[name = tensor<string, []>("op_11753_to_fp16"), val = tensor<fp16, [1, 320, 1, 1]>(BLOBFILE(path = tensor<string, []>("@model_path/weights/weight.bin"), offset = tensor<uint64, []>(835849152)))];
            tensor<fp16, [2, 320, 1, 4096]> var_11754_cast = add(x = out_cast, y = var_11753_to_fp16);
            tensor<fp16, [1, 320, 1, 1]> var_11756_to_fp16 = const()[name = tensor<string, []>("op_11756_to_fp16"), val = tensor<fp16, [1, 320, 1, 1]>(BLOBFILE(path = tensor<string, []>("@model_path/weights/weight.bin"), offset = tensor<uint64, []>(835849856)))];
            tensor<fp16, [2, 320, 1, 4096]> input_521_cast = mul(x = var_11754_cast, y = var_11756_to_fp16);
            tensor<int32, [2]> var_11764 = const()[name = tensor<string, []>("op_11764"), val = tensor<int32, [2]>([1, 1])];
            tensor<int32, [2]> var_11766 = const()[name = tensor<string, []>("op_11766"), val = tensor<int32, [2]>([1, 1])];
            tensor<string, []> var_11768_pad_type_0 = const()[name = tensor<string, []>("op_11768_pad_type_0"), val = tensor<string, []>("custom")];
            tensor<int32, [4]> var_11768_pad_0 = const()[name = tensor<string, []>("op_11768_pad_0"), val = tensor<int32, [4]>([0, 0, 0, 0])];
            tensor<fp16, [2560, 320, 1, 1]> up_blocks_3_attentions_2_transformer_blocks_0_ff_net_0_proj_weight_to_fp16 = const()[name = tensor<string, []>("up_blocks_3_attentions_2_transformer_blocks_0_ff_net_0_proj_weight_to_fp16"), val = tensor<fp16, [2560, 320, 1, 1]>(BLOBFILE(path = tensor<string, []>("@model_path/weights/weight.bin"), offset = tensor<uint64, []>(835850560)))];
            tensor<fp16, [2560]> up_blocks_3_attentions_2_transformer_blocks_0_ff_net_0_proj_bias_to_fp16 = const()[name = tensor<string, []>("up_blocks_3_attentions_2_transformer_blocks_0_ff_net_0_proj_bias_to_fp16"), val = tensor<fp16, [2560]>(BLOBFILE(path = tensor<string, []>("@model_path/weights/weight.bin"), offset = tensor<uint64, []>(837489024)))];
            tensor<fp16, [2, 2560, 1, 4096]> var_11768_cast = conv(bias = up_blocks_3_attentions_2_transformer_blocks_0_ff_net_0_proj_bias_to_fp16, dilations = var_11766, groups = var_10509, pad = var_11768_pad_0, pad_type = var_11768_pad_type_0, strides = var_11764, weight = up_blocks_3_attentions_2_transformer_blocks_0_ff_net_0_proj_weight_to_fp16, x = input_521_cast);
            tensor<int32, [2]> var_11769_split_sizes_0 = const()[name = tensor<string, []>("op_11769_split_sizes_0"), val = tensor<int32, [2]>([1280, 1280])];
            tensor<int32, []> var_11769_axis_0 = const()[name = tensor<string, []>("op_11769_axis_0"), val = tensor<int32, []>(1)];
            tensor<fp16, [2, 1280, 1, 4096]> var_11769_cast_0, tensor<fp16, [2, 1280, 1, 4096]> var_11769_cast_1 = split(axis = var_11769_axis_0, split_sizes = var_11769_split_sizes_0, x = var_11768_cast);
            tensor<string, []> var_11771_mode_0 = const()[name = tensor<string, []>("op_11771_mode_0"), val = tensor<string, []>("EXACT")];
            tensor<fp16, [2, 1280, 1, 4096]> var_11771_cast = gelu(mode = var_11771_mode_0, x = var_11769_cast_1);
            tensor<fp16, [2, 1280, 1, 4096]> input_523_cast = mul(x = var_11769_cast_0, y = var_11771_cast);
            tensor<int32, [2]> var_11775 = const()[name = tensor<string, []>("op_11775"), val = tensor<int32, [2]>([1, 1])];
            tensor<int32, [2]> var_11777 = const()[name = tensor<string, []>("op_11777"), val = tensor<int32, [2]>([1, 1])];
            tensor<string, []> var_11779_pad_type_0 = const()[name = tensor<string, []>("op_11779_pad_type_0"), val = tensor<string, []>("custom")];
            tensor<int32, [4]> var_11779_pad_0 = const()[name = tensor<string, []>("op_11779_pad_0"), val = tensor<int32, [4]>([0, 0, 0, 0])];
            tensor<fp16, [320, 1280, 1, 1]> up_blocks_3_attentions_2_transformer_blocks_0_ff_net_2_weight_to_fp16 = const()[name = tensor<string, []>("up_blocks_3_attentions_2_transformer_blocks_0_ff_net_2_weight_to_fp16"), val = tensor<fp16, [320, 1280, 1, 1]>(BLOBFILE(path = tensor<string, []>("@model_path/weights/weight.bin"), offset = tensor<uint64, []>(837494208)))];
            tensor<fp16, [320]> up_blocks_3_attentions_2_transformer_blocks_0_ff_net_2_bias_to_fp16 = const()[name = tensor<string, []>("up_blocks_3_attentions_2_transformer_blocks_0_ff_net_2_bias_to_fp16"), val = tensor<fp16, [320]>(BLOBFILE(path = tensor<string, []>("@model_path/weights/weight.bin"), offset = tensor<uint64, []>(838313472)))];
            tensor<fp16, [2, 320, 1, 4096]> var_11779_cast = conv(bias = up_blocks_3_attentions_2_transformer_blocks_0_ff_net_2_bias_to_fp16, dilations = var_11777, groups = var_10509, pad = var_11779_pad_0, pad_type = var_11779_pad_type_0, strides = var_11775, weight = up_blocks_3_attentions_2_transformer_blocks_0_ff_net_2_weight_to_fp16, x = input_523_cast);
            tensor<fp16, [2, 320, 1, 4096]> hidden_states_333_cast = add(x = var_11779_cast, y = inputs_cast);
            tensor<int32, [4]> var_11781 = const()[name = tensor<string, []>("op_11781"), val = tensor<int32, [4]>([2, 320, 64, 64])];
            tensor<fp16, [2, 320, 64, 64]> input_525_cast = reshape(shape = var_11781, x = hidden_states_333_cast);
            tensor<int32, [2]> var_11785 = const()[name = tensor<string, []>("op_11785"), val = tensor<int32, [2]>([1, 1])];
            tensor<int32, [2]> var_11787 = const()[name = tensor<string, []>("op_11787"), val = tensor<int32, [2]>([1, 1])];
            tensor<string, []> hidden_states_pad_type_0 = const()[name = tensor<string, []>("hidden_states_pad_type_0"), val = tensor<string, []>("custom")];
            tensor<int32, [4]> hidden_states_pad_0 = const()[name = tensor<string, []>("hidden_states_pad_0"), val = tensor<int32, [4]>([0, 0, 0, 0])];
            tensor<fp16, [320, 320, 1, 1]> up_blocks_3_attentions_2_proj_out_weight_to_fp16 = const()[name = tensor<string, []>("up_blocks_3_attentions_2_proj_out_weight_to_fp16"), val = tensor<fp16, [320, 320, 1, 1]>(BLOBFILE(path = tensor<string, []>("@model_path/weights/weight.bin"), offset = tensor<uint64, []>(838314176)))];
            tensor<fp16, [320]> up_blocks_3_attentions_2_proj_out_bias_to_fp16 = const()[name = tensor<string, []>("up_blocks_3_attentions_2_proj_out_bias_to_fp16"), val = tensor<fp16, [320]>(BLOBFILE(path = tensor<string, []>("@model_path/weights/weight.bin"), offset = tensor<uint64, []>(838519040)))];
            tensor<fp16, [2, 320, 64, 64]> hidden_states_cast = conv(bias = up_blocks_3_attentions_2_proj_out_bias_to_fp16, dilations = var_11787, groups = var_10509, pad = hidden_states_pad_0, pad_type = hidden_states_pad_type_0, strides = var_11785, weight = up_blocks_3_attentions_2_proj_out_weight_to_fp16, x = input_525_cast);
            tensor<fp16, [2, 320, 64, 64]> input_527_cast = add(x = hidden_states_cast, y = hidden_states_323_cast);
            tensor<int32, [5]> reshape_240_shape_0 = const()[name = tensor<string, []>("reshape_240_shape_0"), val = tensor<int32, [5]>([2, 32, 10, 64, 64])];
            tensor<fp16, [2, 32, 10, 64, 64]> reshape_240_cast = reshape(shape = reshape_240_shape_0, x = input_527_cast);
            tensor<int32, [3]> reduce_mean_180_axes_0 = const()[name = tensor<string, []>("reduce_mean_180_axes_0"), val = tensor<int32, [3]>([2, 3, 4])];
            tensor<bool, []> reduce_mean_180_keep_dims_0 = const()[name = tensor<string, []>("reduce_mean_180_keep_dims_0"), val = tensor<bool, []>(true)];
            tensor<fp16, [2, 32, 1, 1, 1]> reduce_mean_180_cast = reduce_mean(axes = reduce_mean_180_axes_0, keep_dims = reduce_mean_180_keep_dims_0, x = reshape_240_cast);
            tensor<fp16, [2, 32, 10, 64, 64]> sub_120_cast = sub(x = reshape_240_cast, y = reduce_mean_180_cast);
            tensor<fp16, [2, 32, 10, 64, 64]> square_60_cast = square(x = sub_120_cast);
            tensor<int32, [3]> reduce_mean_182_axes_0 = const()[name = tensor<string, []>("reduce_mean_182_axes_0"), val = tensor<int32, [3]>([2, 3, 4])];
            tensor<bool, []> reduce_mean_182_keep_dims_0 = const()[name = tensor<string, []>("reduce_mean_182_keep_dims_0"), val = tensor<bool, []>(true)];
            tensor<fp16, [2, 32, 1, 1, 1]> reduce_mean_182_cast = reduce_mean(axes = reduce_mean_182_axes_0, keep_dims = reduce_mean_182_keep_dims_0, x = square_60_cast);
            tensor<fp16, []> add_120_y_0_to_fp16 = const()[name = tensor<string, []>("add_120_y_0_to_fp16"), val = tensor<fp16, []>(0x1.5p-17)];
            tensor<fp16, [2, 32, 1, 1, 1]> add_120_cast = add(x = reduce_mean_182_cast, y = add_120_y_0_to_fp16);
            tensor<fp16, [2, 32, 1, 1, 1]> sqrt_60_cast = sqrt(x = add_120_cast);
            tensor<fp16, [2, 32, 10, 64, 64]> real_div_60_cast = real_div(x = sub_120_cast, y = sqrt_60_cast);
            tensor<int32, [4]> reshape_241_shape_0 = const()[name = tensor<string, []>("reshape_241_shape_0"), val = tensor<int32, [4]>([2, 320, 64, 64])];
            tensor<fp16, [2, 320, 64, 64]> reshape_241_cast = reshape(shape = reshape_241_shape_0, x = real_div_60_cast);
            tensor<fp16, [320]> add_121_mean_0_to_fp16 = const()[name = tensor<string, []>("add_121_mean_0_to_fp16"), val = tensor<fp16, [320]>(BLOBFILE(path = tensor<string, []>("@model_path/weights/weight.bin"), offset = tensor<uint64, []>(838519744)))];
            tensor<fp16, [320]> add_121_variance_0_to_fp16 = const()[name = tensor<string, []>("add_121_variance_0_to_fp16"), val = tensor<fp16, [320]>(BLOBFILE(path = tensor<string, []>("@model_path/weights/weight.bin"), offset = tensor<uint64, []>(838520448)))];
            tensor<fp16, [320]> add_121_gamma_0_to_fp16 = const()[name = tensor<string, []>("add_121_gamma_0_to_fp16"), val = tensor<fp16, [320]>(BLOBFILE(path = tensor<string, []>("@model_path/weights/weight.bin"), offset = tensor<uint64, []>(838521152)))];
            tensor<fp16, [320]> add_121_beta_0_to_fp16 = const()[name = tensor<string, []>("add_121_beta_0_to_fp16"), val = tensor<fp16, [320]>(BLOBFILE(path = tensor<string, []>("@model_path/weights/weight.bin"), offset = tensor<uint64, []>(838521856)))];
            tensor<fp16, []> add_121_epsilon_0_to_fp16 = const()[name = tensor<string, []>("add_121_epsilon_0_to_fp16"), val = tensor<fp16, []>(0x1.5p-17)];
            tensor<fp16, [2, 320, 64, 64]> add_121_cast = batch_norm(beta = add_121_beta_0_to_fp16, epsilon = add_121_epsilon_0_to_fp16, gamma = add_121_gamma_0_to_fp16, mean = add_121_mean_0_to_fp16, variance = add_121_variance_0_to_fp16, x = reshape_241_cast);
            tensor<fp16, [2, 320, 64, 64]> input_cast = silu(x = add_121_cast);
            tensor<int32, []> var_11801 = const()[name = tensor<string, []>("op_11801"), val = tensor<int32, []>(1)];
            tensor<int32, [2]> var_11804 = const()[name = tensor<string, []>("op_11804"), val = tensor<int32, [2]>([1, 1])];
            tensor<int32, [2]> var_11806 = const()[name = tensor<string, []>("op_11806"), val = tensor<int32, [2]>([1, 1])];
            tensor<string, []> var_11808_pad_type_0 = const()[name = tensor<string, []>("op_11808_pad_type_0"), val = tensor<string, []>("custom")];
            tensor<int32, [4]> var_11808_pad_0 = const()[name = tensor<string, []>("op_11808_pad_0"), val = tensor<int32, [4]>([1, 1, 1, 1])];
            tensor<fp16, [4, 320, 3, 3]> conv_out_weight_to_fp16 = const()[name = tensor<string, []>("conv_out_weight_to_fp16"), val = tensor<fp16, [4, 320, 3, 3]>(BLOBFILE(path = tensor<string, []>("@model_path/weights/weight.bin"), offset = tensor<uint64, []>(838522560)))];
            tensor<fp16, [4]> conv_out_bias_to_fp16 = const()[name = tensor<string, []>("conv_out_bias_to_fp16"), val = tensor<fp16, [4]>([-0x1.498p-9, 0x1.e34p-10, 0x1.694p-12, 0x1.b84p-10])];
            tensor<fp16, [2, 4, 64, 64]> var_11808_cast = conv(bias = conv_out_bias_to_fp16, dilations = var_11806, groups = var_11801, pad = var_11808_pad_0, pad_type = var_11808_pad_type_0, strides = var_11804, weight = conv_out_weight_to_fp16, x = input_cast);
            tensor<string, []> var_11808_cast_to_fp32_dtype_0 = const()[name = tensor<string, []>("op_11808_cast_to_fp32_dtype_0"), val = tensor<string, []>("fp32")];
            tensor<fp32, [2, 4, 64, 64]> noise_pred = cast(dtype = var_11808_cast_to_fp32_dtype_0, x = var_11808_cast);
        } -> (noise_pred);
}