program(1.0)
[buildInfo = dict<tensor<string, []>, tensor<string, []>>({{"coremlc-component-MIL", "4.28.4"}, {"coremlc-version", "1429.0.0"}, {"coremltools-component-torch", "1.13.1"}, {"coremltools-version", "6.1"}})]
{
    func main<ios16>(tensor<fp32, [1, 77]> input_ids) {
            tensor<int32, []> var_5 = const()[name = tensor<string, []>("op_5"), val = tensor<int32, []>(-1)];
            tensor<bool, []> var_6 = const()[name = tensor<string, []>("op_6"), val = tensor<bool, []>(false)];
            tensor<string, []> cast_1_dtype_0 = const()[name = tensor<string, []>("cast_1_dtype_0"), val = tensor<string, []>("int32")];
            tensor<int32, []> inputs_embeds_axis_0 = const()[name = tensor<string, []>("inputs_embeds_axis_0"), val = tensor<int32, []>(0)];
            tensor<int32, []> inputs_embeds_batch_dims_0 = const()[name = tensor<string, []>("inputs_embeds_batch_dims_0"), val = tensor<int32, []>(0)];
            tensor<fp16, [49408, 1024]> text_encoder_text_model_embeddings_token_embedding_weight_to_fp16 = const()[name = tensor<string, []>("text_encoder_text_model_embeddings_token_embedding_weight_to_fp16"), val = tensor<fp16, [49408, 1024]>(BLOBFILE(path = tensor<string, []>("@model_path/weights/weight.bin"), offset = tensor<uint64, []>(64)))];
            tensor<int32, [1, 77]> cast_954 = cast(dtype = cast_1_dtype_0, x = input_ids);
            tensor<fp16, [1, 77, 1024]> inputs_embeds_cast = gather(axis = inputs_embeds_axis_0, batch_dims = inputs_embeds_batch_dims_0, indices = cast_954, x = text_encoder_text_model_embeddings_token_embedding_weight_to_fp16);
            tensor<fp16, [1, 77, 1024]> position_embeddings_to_fp16 = const()[name = tensor<string, []>("position_embeddings_to_fp16"), val = tensor<fp16, [1, 77, 1024]>(BLOBFILE(path = tensor<string, []>("@model_path/weights/weight.bin"), offset = tensor<uint64, []>(101187712)))];
            tensor<fp16, [1, 77, 1024]> input_3_cast = add(x = inputs_embeds_cast, y = position_embeddings_to_fp16);
            tensor<int32, []> band_part_0_lower_0 = const()[name = tensor<string, []>("band_part_0_lower_0"), val = tensor<int32, []>(-1)];
            tensor<int32, []> band_part_0_upper_0 = const()[name = tensor<string, []>("band_part_0_upper_0"), val = tensor<int32, []>(0)];
            tensor<fp16, [1, 77, 77]> mask_1_to_fp16 = const()[name = tensor<string, []>("mask_1_to_fp16"), val = tensor<fp16, [1, 77, 77]>(BLOBFILE(path = tensor<string, []>("@model_path/weights/weight.bin"), offset = tensor<uint64, []>(101345472)))];
            tensor<fp16, [1, 77, 77]> band_part_0_cast = band_part(lower = band_part_0_lower_0, upper = band_part_0_upper_0, x = mask_1_to_fp16);
            tensor<fp16, [1, 77, 77]> mask_cast = sub(x = mask_1_to_fp16, y = band_part_0_cast);
            tensor<int32, [1]> var_44_axes_0 = const()[name = tensor<string, []>("op_44_axes_0"), val = tensor<int32, [1]>([1])];
            tensor<fp16, [1, 1, 77, 77]> var_44_cast = expand_dims(axes = var_44_axes_0, x = mask_cast);
            tensor<int32, [1]> hidden_states_1_axes_0 = const()[name = tensor<string, []>("hidden_states_1_axes_0"), val = tensor<int32, [1]>([-1])];
            tensor<fp16, [1024]> text_encoder_text_model_encoder_layers_0_layer_norm1_weight_to_fp16 = const()[name = tensor<string, []>("text_encoder_text_model_encoder_layers_0_layer_norm1_weight_to_fp16"), val = tensor<fp16, [1024]>(BLOBFILE(path = tensor<string, []>("@model_path/weights/weight.bin"), offset = tensor<uint64, []>(101357440)))];
            tensor<fp16, [1024]> text_encoder_text_model_encoder_layers_0_layer_norm1_bias_to_fp16 = const()[name = tensor<string, []>("text_encoder_text_model_encoder_layers_0_layer_norm1_bias_to_fp16"), val = tensor<fp16, [1024]>(BLOBFILE(path = tensor<string, []>("@model_path/weights/weight.bin"), offset = tensor<uint64, []>(101359552)))];
            tensor<fp16, []> var_12_to_fp16 = const()[name = tensor<string, []>("op_12_to_fp16"), val = tensor<fp16, []>(0x1.5p-17)];
            tensor<fp16, [1, 77, 1024]> hidden_states_1_cast = layer_norm(axes = hidden_states_1_axes_0, beta = text_encoder_text_model_encoder_layers_0_layer_norm1_bias_to_fp16, epsilon = var_12_to_fp16, gamma = text_encoder_text_model_encoder_layers_0_layer_norm1_weight_to_fp16, x = input_3_cast);
            tensor<fp16, [1024, 1024]> text_encoder_text_model_encoder_layers_0_self_attn_q_proj_weight_to_fp16 = const()[name = tensor<string, []>("text_encoder_text_model_encoder_layers_0_self_attn_q_proj_weight_to_fp16"), val = tensor<fp16, [1024, 1024]>(BLOBFILE(path = tensor<string, []>("@model_path/weights/weight.bin"), offset = tensor<uint64, []>(101361664)))];
            tensor<fp16, [1024]> text_encoder_text_model_encoder_layers_0_self_attn_q_proj_bias_to_fp16 = const()[name = tensor<string, []>("text_encoder_text_model_encoder_layers_0_self_attn_q_proj_bias_to_fp16"), val = tensor<fp16, [1024]>(BLOBFILE(path = tensor<string, []>("@model_path/weights/weight.bin"), offset = tensor<uint64, []>(103458880)))];
            tensor<fp16, [1, 77, 1024]> var_110_cast = linear(bias = text_encoder_text_model_encoder_layers_0_self_attn_q_proj_bias_to_fp16, weight = text_encoder_text_model_encoder_layers_0_self_attn_q_proj_weight_to_fp16, x = hidden_states_1_cast);
            tensor<fp16, []> var_111_to_fp16 = const()[name = tensor<string, []>("op_111_to_fp16"), val = tensor<fp16, []>(0x1p-3)];
            tensor<fp16, [1, 77, 1024]> tensor_5_cast = mul(x = var_110_cast, y = var_111_to_fp16);
            tensor<fp16, [1024, 1024]> text_encoder_text_model_encoder_layers_0_self_attn_k_proj_weight_to_fp16 = const()[name = tensor<string, []>("text_encoder_text_model_encoder_layers_0_self_attn_k_proj_weight_to_fp16"), val = tensor<fp16, [1024, 1024]>(BLOBFILE(path = tensor<string, []>("@model_path/weights/weight.bin"), offset = tensor<uint64, []>(103460992)))];
            tensor<fp16, [1024]> text_encoder_text_model_encoder_layers_0_self_attn_k_proj_bias_to_fp16 = const()[name = tensor<string, []>("text_encoder_text_model_encoder_layers_0_self_attn_k_proj_bias_to_fp16"), val = tensor<fp16, [1024]>(BLOBFILE(path = tensor<string, []>("@model_path/weights/weight.bin"), offset = tensor<uint64, []>(105558208)))];
            tensor<fp16, [1, 77, 1024]> tensor_1_cast = linear(bias = text_encoder_text_model_encoder_layers_0_self_attn_k_proj_bias_to_fp16, weight = text_encoder_text_model_encoder_layers_0_self_attn_k_proj_weight_to_fp16, x = hidden_states_1_cast);
            tensor<int32, [4]> var_116 = const()[name = tensor<string, []>("op_116"), val = tensor<int32, [4]>([1, -1, 16, 64])];
            tensor<fp16, [1, 77, 16, 64]> var_117_cast = reshape(shape = var_116, x = tensor_1_cast);
            tensor<int32, [4]> var_118_perm_0 = const()[name = tensor<string, []>("op_118_perm_0"), val = tensor<int32, [4]>([0, 2, 1, 3])];
            tensor<fp16, [1024, 1024]> text_encoder_text_model_encoder_layers_0_self_attn_v_proj_weight_to_fp16 = const()[name = tensor<string, []>("text_encoder_text_model_encoder_layers_0_self_attn_v_proj_weight_to_fp16"), val = tensor<fp16, [1024, 1024]>(BLOBFILE(path = tensor<string, []>("@model_path/weights/weight.bin"), offset = tensor<uint64, []>(105560320)))];
            tensor<fp16, [1024]> text_encoder_text_model_encoder_layers_0_self_attn_v_proj_bias_to_fp16 = const()[name = tensor<string, []>("text_encoder_text_model_encoder_layers_0_self_attn_v_proj_bias_to_fp16"), val = tensor<fp16, [1024]>(BLOBFILE(path = tensor<string, []>("@model_path/weights/weight.bin"), offset = tensor<uint64, []>(107657536)))];
            tensor<fp16, [1, 77, 1024]> tensor_3_cast = linear(bias = text_encoder_text_model_encoder_layers_0_self_attn_v_proj_bias_to_fp16, weight = text_encoder_text_model_encoder_layers_0_self_attn_v_proj_weight_to_fp16, x = hidden_states_1_cast);
            tensor<int32, [4]> var_123 = const()[name = tensor<string, []>("op_123"), val = tensor<int32, [4]>([1, -1, 16, 64])];
            tensor<fp16, [1, 77, 16, 64]> var_124_cast = reshape(shape = var_123, x = tensor_3_cast);
            tensor<int32, [4]> var_125_perm_0 = const()[name = tensor<string, []>("op_125_perm_0"), val = tensor<int32, [4]>([0, 2, 1, 3])];
            tensor<int32, [4]> var_132 = const()[name = tensor<string, []>("op_132"), val = tensor<int32, [4]>([1, 77, 16, 64])];
            tensor<fp16, [1, 77, 16, 64]> var_133_cast = reshape(shape = var_132, x = tensor_5_cast);
            tensor<int32, [4]> var_134_perm_0 = const()[name = tensor<string, []>("op_134_perm_0"), val = tensor<int32, [4]>([0, 2, 1, 3])];
            tensor<int32, [3]> var_136 = const()[name = tensor<string, []>("op_136"), val = tensor<int32, [3]>([16, -1, 64])];
            tensor<fp16, [1, 16, 77, 64]> transpose_113 = transpose(perm = var_134_perm_0, x = var_133_cast);
            tensor<fp16, [16, 77, 64]> query_states_1_cast = reshape(shape = var_136, x = transpose_113);
            tensor<int32, [3]> var_138 = const()[name = tensor<string, []>("op_138"), val = tensor<int32, [3]>([16, -1, 64])];
            tensor<fp16, [1, 16, 77, 64]> transpose_115 = transpose(perm = var_118_perm_0, x = var_117_cast);
            tensor<fp16, [16, 77, 64]> key_states_3_cast = reshape(shape = var_138, x = transpose_115);
            tensor<int32, [3]> var_140 = const()[name = tensor<string, []>("op_140"), val = tensor<int32, [3]>([16, -1, 64])];
            tensor<fp16, [1, 16, 77, 64]> transpose_114 = transpose(perm = var_125_perm_0, x = var_124_cast);
            tensor<fp16, [16, 77, 64]> value_states_3_cast = reshape(shape = var_140, x = transpose_114);
            tensor<int32, [3]> var_143_perm_0 = const()[name = tensor<string, []>("op_143_perm_0"), val = tensor<int32, [3]>([0, 2, 1])];
            tensor<bool, []> attn_weights_1_transpose_x_0 = const()[name = tensor<string, []>("attn_weights_1_transpose_x_0"), val = tensor<bool, []>(false)];
            tensor<bool, []> attn_weights_1_transpose_y_0 = const()[name = tensor<string, []>("attn_weights_1_transpose_y_0"), val = tensor<bool, []>(false)];
            tensor<fp16, [16, 64, 77]> transpose_112 = transpose(perm = var_143_perm_0, x = key_states_3_cast);
            tensor<fp16, [16, 77, 77]> attn_weights_1_cast = matmul(transpose_x = attn_weights_1_transpose_x_0, transpose_y = attn_weights_1_transpose_y_0, x = query_states_1_cast, y = transpose_112);
            tensor<int32, [4]> var_145 = const()[name = tensor<string, []>("op_145"), val = tensor<int32, [4]>([1, 16, 77, 77])];
            tensor<fp16, [1, 16, 77, 77]> var_146_cast = reshape(shape = var_145, x = attn_weights_1_cast);
            tensor<fp16, [1, 16, 77, 77]> attn_weights_3_cast = add(x = var_146_cast, y = var_44_cast);
            tensor<int32, [3]> var_151 = const()[name = tensor<string, []>("op_151"), val = tensor<int32, [3]>([16, 77, 77])];
            tensor<fp16, [16, 77, 77]> input_5_cast = reshape(shape = var_151, x = attn_weights_3_cast);
            tensor<fp16, [16, 77, 77]> input_7_cast = softmax(axis = var_5, x = input_5_cast);
            tensor<bool, []> attn_output_1_transpose_x_0 = const()[name = tensor<string, []>("attn_output_1_transpose_x_0"), val = tensor<bool, []>(false)];
            tensor<bool, []> attn_output_1_transpose_y_0 = const()[name = tensor<string, []>("attn_output_1_transpose_y_0"), val = tensor<bool, []>(false)];
            tensor<fp16, [16, 77, 64]> attn_output_1_cast = matmul(transpose_x = attn_output_1_transpose_x_0, transpose_y = attn_output_1_transpose_y_0, x = input_7_cast, y = value_states_3_cast);
            tensor<int32, [4]> var_156 = const()[name = tensor<string, []>("op_156"), val = tensor<int32, [4]>([1, 16, 77, 64])];
            tensor<fp16, [1, 16, 77, 64]> attn_output_3_cast = reshape(shape = var_156, x = attn_output_1_cast);
            tensor<int32, [4]> attn_output_5_perm_0 = const()[name = tensor<string, []>("attn_output_5_perm_0"), val = tensor<int32, [4]>([0, 2, 1, 3])];
            tensor<int32, [3]> var_159 = const()[name = tensor<string, []>("op_159"), val = tensor<int32, [3]>([1, 77, 1024])];
            tensor<fp16, [1, 77, 16, 64]> transpose_111 = transpose(perm = attn_output_5_perm_0, x = attn_output_3_cast);
            tensor<fp16, [1, 77, 1024]> input_9_cast = reshape(shape = var_159, x = transpose_111);
            tensor<fp16, [1024, 1024]> text_encoder_text_model_encoder_layers_0_self_attn_out_proj_weight_to_fp16 = const()[name = tensor<string, []>("text_encoder_text_model_encoder_layers_0_self_attn_out_proj_weight_to_fp16"), val = tensor<fp16, [1024, 1024]>(BLOBFILE(path = tensor<string, []>("@model_path/weights/weight.bin"), offset = tensor<uint64, []>(107659648)))];
            tensor<fp16, [1024]> text_encoder_text_model_encoder_layers_0_self_attn_out_proj_bias_to_fp16 = const()[name = tensor<string, []>("text_encoder_text_model_encoder_layers_0_self_attn_out_proj_bias_to_fp16"), val = tensor<fp16, [1024]>(BLOBFILE(path = tensor<string, []>("@model_path/weights/weight.bin"), offset = tensor<uint64, []>(109756864)))];
            tensor<fp16, [1, 77, 1024]> hidden_states_3_cast = linear(bias = text_encoder_text_model_encoder_layers_0_self_attn_out_proj_bias_to_fp16, weight = text_encoder_text_model_encoder_layers_0_self_attn_out_proj_weight_to_fp16, x = input_9_cast);
            tensor<fp16, [1, 77, 1024]> input_11_cast = add(x = input_3_cast, y = hidden_states_3_cast);
            tensor<int32, [1]> input_13_axes_0 = const()[name = tensor<string, []>("input_13_axes_0"), val = tensor<int32, [1]>([-1])];
            tensor<fp16, [1024]> text_encoder_text_model_encoder_layers_0_layer_norm2_weight_to_fp16 = const()[name = tensor<string, []>("text_encoder_text_model_encoder_layers_0_layer_norm2_weight_to_fp16"), val = tensor<fp16, [1024]>(BLOBFILE(path = tensor<string, []>("@model_path/weights/weight.bin"), offset = tensor<uint64, []>(109758976)))];
            tensor<fp16, [1024]> text_encoder_text_model_encoder_layers_0_layer_norm2_bias_to_fp16 = const()[name = tensor<string, []>("text_encoder_text_model_encoder_layers_0_layer_norm2_bias_to_fp16"), val = tensor<fp16, [1024]>(BLOBFILE(path = tensor<string, []>("@model_path/weights/weight.bin"), offset = tensor<uint64, []>(109761088)))];
            tensor<fp16, [1, 77, 1024]> input_13_cast = layer_norm(axes = input_13_axes_0, beta = text_encoder_text_model_encoder_layers_0_layer_norm2_bias_to_fp16, epsilon = var_12_to_fp16, gamma = text_encoder_text_model_encoder_layers_0_layer_norm2_weight_to_fp16, x = input_11_cast);
            tensor<fp16, [4096, 1024]> text_encoder_text_model_encoder_layers_0_mlp_fc1_weight_to_fp16 = const()[name = tensor<string, []>("text_encoder_text_model_encoder_layers_0_mlp_fc1_weight_to_fp16"), val = tensor<fp16, [4096, 1024]>(BLOBFILE(path = tensor<string, []>("@model_path/weights/weight.bin"), offset = tensor<uint64, []>(109763200)))];
            tensor<fp16, [4096]> text_encoder_text_model_encoder_layers_0_mlp_fc1_bias_to_fp16 = const()[name = tensor<string, []>("text_encoder_text_model_encoder_layers_0_mlp_fc1_bias_to_fp16"), val = tensor<fp16, [4096]>(BLOBFILE(path = tensor<string, []>("@model_path/weights/weight.bin"), offset = tensor<uint64, []>(118151872)))];
            tensor<fp16, [1, 77, 4096]> input_15_cast = linear(bias = text_encoder_text_model_encoder_layers_0_mlp_fc1_bias_to_fp16, weight = text_encoder_text_model_encoder_layers_0_mlp_fc1_weight_to_fp16, x = input_13_cast);
            tensor<string, []> input_17_mode_0 = const()[name = tensor<string, []>("input_17_mode_0"), val = tensor<string, []>("EXACT")];
            tensor<fp16, [1, 77, 4096]> input_17_cast = gelu(mode = input_17_mode_0, x = input_15_cast);
            tensor<fp16, [1024, 4096]> text_encoder_text_model_encoder_layers_0_mlp_fc2_weight_to_fp16 = const()[name = tensor<string, []>("text_encoder_text_model_encoder_layers_0_mlp_fc2_weight_to_fp16"), val = tensor<fp16, [1024, 4096]>(BLOBFILE(path = tensor<string, []>("@model_path/weights/weight.bin"), offset = tensor<uint64, []>(118160128)))];
            tensor<fp16, [1024]> text_encoder_text_model_encoder_layers_0_mlp_fc2_bias_to_fp16 = const()[name = tensor<string, []>("text_encoder_text_model_encoder_layers_0_mlp_fc2_bias_to_fp16"), val = tensor<fp16, [1024]>(BLOBFILE(path = tensor<string, []>("@model_path/weights/weight.bin"), offset = tensor<uint64, []>(126548800)))];
            tensor<fp16, [1, 77, 1024]> hidden_states_5_cast = linear(bias = text_encoder_text_model_encoder_layers_0_mlp_fc2_bias_to_fp16, weight = text_encoder_text_model_encoder_layers_0_mlp_fc2_weight_to_fp16, x = input_17_cast);
            tensor<fp16, [1, 77, 1024]> input_19_cast = add(x = input_11_cast, y = hidden_states_5_cast);
            tensor<int32, [1]> hidden_states_7_axes_0 = const()[name = tensor<string, []>("hidden_states_7_axes_0"), val = tensor<int32, [1]>([-1])];
            tensor<fp16, [1024]> text_encoder_text_model_encoder_layers_1_layer_norm1_weight_to_fp16 = const()[name = tensor<string, []>("text_encoder_text_model_encoder_layers_1_layer_norm1_weight_to_fp16"), val = tensor<fp16, [1024]>(BLOBFILE(path = tensor<string, []>("@model_path/weights/weight.bin"), offset = tensor<uint64, []>(126550912)))];
            tensor<fp16, [1024]> text_encoder_text_model_encoder_layers_1_layer_norm1_bias_to_fp16 = const()[name = tensor<string, []>("text_encoder_text_model_encoder_layers_1_layer_norm1_bias_to_fp16"), val = tensor<fp16, [1024]>(BLOBFILE(path = tensor<string, []>("@model_path/weights/weight.bin"), offset = tensor<uint64, []>(126553024)))];
            tensor<fp16, [1, 77, 1024]> hidden_states_7_cast = layer_norm(axes = hidden_states_7_axes_0, beta = text_encoder_text_model_encoder_layers_1_layer_norm1_bias_to_fp16, epsilon = var_12_to_fp16, gamma = text_encoder_text_model_encoder_layers_1_layer_norm1_weight_to_fp16, x = input_19_cast);
            tensor<fp16, [1024, 1024]> text_encoder_text_model_encoder_layers_1_self_attn_q_proj_weight_to_fp16 = const()[name = tensor<string, []>("text_encoder_text_model_encoder_layers_1_self_attn_q_proj_weight_to_fp16"), val = tensor<fp16, [1024, 1024]>(BLOBFILE(path = tensor<string, []>("@model_path/weights/weight.bin"), offset = tensor<uint64, []>(126555136)))];
            tensor<fp16, [1024]> text_encoder_text_model_encoder_layers_1_self_attn_q_proj_bias_to_fp16 = const()[name = tensor<string, []>("text_encoder_text_model_encoder_layers_1_self_attn_q_proj_bias_to_fp16"), val = tensor<fp16, [1024]>(BLOBFILE(path = tensor<string, []>("@model_path/weights/weight.bin"), offset = tensor<uint64, []>(128652352)))];
            tensor<fp16, [1, 77, 1024]> var_197_cast = linear(bias = text_encoder_text_model_encoder_layers_1_self_attn_q_proj_bias_to_fp16, weight = text_encoder_text_model_encoder_layers_1_self_attn_q_proj_weight_to_fp16, x = hidden_states_7_cast);
            tensor<fp16, []> var_198_to_fp16 = const()[name = tensor<string, []>("op_198_to_fp16"), val = tensor<fp16, []>(0x1p-3)];
            tensor<fp16, [1, 77, 1024]> tensor_11_cast = mul(x = var_197_cast, y = var_198_to_fp16);
            tensor<fp16, [1024, 1024]> text_encoder_text_model_encoder_layers_1_self_attn_k_proj_weight_to_fp16 = const()[name = tensor<string, []>("text_encoder_text_model_encoder_layers_1_self_attn_k_proj_weight_to_fp16"), val = tensor<fp16, [1024, 1024]>(BLOBFILE(path = tensor<string, []>("@model_path/weights/weight.bin"), offset = tensor<uint64, []>(128654464)))];
            tensor<fp16, [1024]> text_encoder_text_model_encoder_layers_1_self_attn_k_proj_bias_to_fp16 = const()[name = tensor<string, []>("text_encoder_text_model_encoder_layers_1_self_attn_k_proj_bias_to_fp16"), val = tensor<fp16, [1024]>(BLOBFILE(path = tensor<string, []>("@model_path/weights/weight.bin"), offset = tensor<uint64, []>(130751680)))];
            tensor<fp16, [1, 77, 1024]> tensor_7_cast = linear(bias = text_encoder_text_model_encoder_layers_1_self_attn_k_proj_bias_to_fp16, weight = text_encoder_text_model_encoder_layers_1_self_attn_k_proj_weight_to_fp16, x = hidden_states_7_cast);
            tensor<int32, [4]> var_203 = const()[name = tensor<string, []>("op_203"), val = tensor<int32, [4]>([1, -1, 16, 64])];
            tensor<fp16, [1, 77, 16, 64]> var_204_cast = reshape(shape = var_203, x = tensor_7_cast);
            tensor<int32, [4]> var_205_perm_0 = const()[name = tensor<string, []>("op_205_perm_0"), val = tensor<int32, [4]>([0, 2, 1, 3])];
            tensor<fp16, [1024, 1024]> text_encoder_text_model_encoder_layers_1_self_attn_v_proj_weight_to_fp16 = const()[name = tensor<string, []>("text_encoder_text_model_encoder_layers_1_self_attn_v_proj_weight_to_fp16"), val = tensor<fp16, [1024, 1024]>(BLOBFILE(path = tensor<string, []>("@model_path/weights/weight.bin"), offset = tensor<uint64, []>(130753792)))];
            tensor<fp16, [1024]> text_encoder_text_model_encoder_layers_1_self_attn_v_proj_bias_to_fp16 = const()[name = tensor<string, []>("text_encoder_text_model_encoder_layers_1_self_attn_v_proj_bias_to_fp16"), val = tensor<fp16, [1024]>(BLOBFILE(path = tensor<string, []>("@model_path/weights/weight.bin"), offset = tensor<uint64, []>(132851008)))];
            tensor<fp16, [1, 77, 1024]> tensor_9_cast = linear(bias = text_encoder_text_model_encoder_layers_1_self_attn_v_proj_bias_to_fp16, weight = text_encoder_text_model_encoder_layers_1_self_attn_v_proj_weight_to_fp16, x = hidden_states_7_cast);
            tensor<int32, [4]> var_210 = const()[name = tensor<string, []>("op_210"), val = tensor<int32, [4]>([1, -1, 16, 64])];
            tensor<fp16, [1, 77, 16, 64]> var_211_cast = reshape(shape = var_210, x = tensor_9_cast);
            tensor<int32, [4]> var_212_perm_0 = const()[name = tensor<string, []>("op_212_perm_0"), val = tensor<int32, [4]>([0, 2, 1, 3])];
            tensor<int32, [4]> var_219 = const()[name = tensor<string, []>("op_219"), val = tensor<int32, [4]>([1, 77, 16, 64])];
            tensor<fp16, [1, 77, 16, 64]> var_220_cast = reshape(shape = var_219, x = tensor_11_cast);
            tensor<int32, [4]> var_221_perm_0 = const()[name = tensor<string, []>("op_221_perm_0"), val = tensor<int32, [4]>([0, 2, 1, 3])];
            tensor<int32, [3]> var_223 = const()[name = tensor<string, []>("op_223"), val = tensor<int32, [3]>([16, -1, 64])];
            tensor<fp16, [1, 16, 77, 64]> transpose_108 = transpose(perm = var_221_perm_0, x = var_220_cast);
            tensor<fp16, [16, 77, 64]> query_states_3_cast = reshape(shape = var_223, x = transpose_108);
            tensor<int32, [3]> var_225 = const()[name = tensor<string, []>("op_225"), val = tensor<int32, [3]>([16, -1, 64])];
            tensor<fp16, [1, 16, 77, 64]> transpose_110 = transpose(perm = var_205_perm_0, x = var_204_cast);
            tensor<fp16, [16, 77, 64]> key_states_7_cast = reshape(shape = var_225, x = transpose_110);
            tensor<int32, [3]> var_227 = const()[name = tensor<string, []>("op_227"), val = tensor<int32, [3]>([16, -1, 64])];
            tensor<fp16, [1, 16, 77, 64]> transpose_109 = transpose(perm = var_212_perm_0, x = var_211_cast);
            tensor<fp16, [16, 77, 64]> value_states_7_cast = reshape(shape = var_227, x = transpose_109);
            tensor<int32, [3]> var_230_perm_0 = const()[name = tensor<string, []>("op_230_perm_0"), val = tensor<int32, [3]>([0, 2, 1])];
            tensor<bool, []> attn_weights_7_transpose_x_0 = const()[name = tensor<string, []>("attn_weights_7_transpose_x_0"), val = tensor<bool, []>(false)];
            tensor<bool, []> attn_weights_7_transpose_y_0 = const()[name = tensor<string, []>("attn_weights_7_transpose_y_0"), val = tensor<bool, []>(false)];
            tensor<fp16, [16, 64, 77]> transpose_107 = transpose(perm = var_230_perm_0, x = key_states_7_cast);
            tensor<fp16, [16, 77, 77]> attn_weights_7_cast = matmul(transpose_x = attn_weights_7_transpose_x_0, transpose_y = attn_weights_7_transpose_y_0, x = query_states_3_cast, y = transpose_107);
            tensor<int32, [4]> var_232 = const()[name = tensor<string, []>("op_232"), val = tensor<int32, [4]>([1, 16, 77, 77])];
            tensor<fp16, [1, 16, 77, 77]> var_233_cast = reshape(shape = var_232, x = attn_weights_7_cast);
            tensor<fp16, [1, 16, 77, 77]> attn_weights_9_cast = add(x = var_233_cast, y = var_44_cast);
            tensor<int32, [3]> var_238 = const()[name = tensor<string, []>("op_238"), val = tensor<int32, [3]>([16, 77, 77])];
            tensor<fp16, [16, 77, 77]> input_21_cast = reshape(shape = var_238, x = attn_weights_9_cast);
            tensor<fp16, [16, 77, 77]> input_23_cast = softmax(axis = var_5, x = input_21_cast);
            tensor<bool, []> attn_output_7_transpose_x_0 = const()[name = tensor<string, []>("attn_output_7_transpose_x_0"), val = tensor<bool, []>(false)];
            tensor<bool, []> attn_output_7_transpose_y_0 = const()[name = tensor<string, []>("attn_output_7_transpose_y_0"), val = tensor<bool, []>(false)];
            tensor<fp16, [16, 77, 64]> attn_output_7_cast = matmul(transpose_x = attn_output_7_transpose_x_0, transpose_y = attn_output_7_transpose_y_0, x = input_23_cast, y = value_states_7_cast);
            tensor<int32, [4]> var_243 = const()[name = tensor<string, []>("op_243"), val = tensor<int32, [4]>([1, 16, 77, 64])];
            tensor<fp16, [1, 16, 77, 64]> attn_output_9_cast = reshape(shape = var_243, x = attn_output_7_cast);
            tensor<int32, [4]> attn_output_11_perm_0 = const()[name = tensor<string, []>("attn_output_11_perm_0"), val = tensor<int32, [4]>([0, 2, 1, 3])];
            tensor<int32, [3]> var_246 = const()[name = tensor<string, []>("op_246"), val = tensor<int32, [3]>([1, 77, 1024])];
            tensor<fp16, [1, 77, 16, 64]> transpose_106 = transpose(perm = attn_output_11_perm_0, x = attn_output_9_cast);
            tensor<fp16, [1, 77, 1024]> input_25_cast = reshape(shape = var_246, x = transpose_106);
            tensor<fp16, [1024, 1024]> text_encoder_text_model_encoder_layers_1_self_attn_out_proj_weight_to_fp16 = const()[name = tensor<string, []>("text_encoder_text_model_encoder_layers_1_self_attn_out_proj_weight_to_fp16"), val = tensor<fp16, [1024, 1024]>(BLOBFILE(path = tensor<string, []>("@model_path/weights/weight.bin"), offset = tensor<uint64, []>(132853120)))];
            tensor<fp16, [1024]> text_encoder_text_model_encoder_layers_1_self_attn_out_proj_bias_to_fp16 = const()[name = tensor<string, []>("text_encoder_text_model_encoder_layers_1_self_attn_out_proj_bias_to_fp16"), val = tensor<fp16, [1024]>(BLOBFILE(path = tensor<string, []>("@model_path/weights/weight.bin"), offset = tensor<uint64, []>(134950336)))];
            tensor<fp16, [1, 77, 1024]> hidden_states_9_cast = linear(bias = text_encoder_text_model_encoder_layers_1_self_attn_out_proj_bias_to_fp16, weight = text_encoder_text_model_encoder_layers_1_self_attn_out_proj_weight_to_fp16, x = input_25_cast);
            tensor<fp16, [1, 77, 1024]> input_27_cast = add(x = input_19_cast, y = hidden_states_9_cast);
            tensor<int32, [1]> input_29_axes_0 = const()[name = tensor<string, []>("input_29_axes_0"), val = tensor<int32, [1]>([-1])];
            tensor<fp16, [1024]> text_encoder_text_model_encoder_layers_1_layer_norm2_weight_to_fp16 = const()[name = tensor<string, []>("text_encoder_text_model_encoder_layers_1_layer_norm2_weight_to_fp16"), val = tensor<fp16, [1024]>(BLOBFILE(path = tensor<string, []>("@model_path/weights/weight.bin"), offset = tensor<uint64, []>(134952448)))];
            tensor<fp16, [1024]> text_encoder_text_model_encoder_layers_1_layer_norm2_bias_to_fp16 = const()[name = tensor<string, []>("text_encoder_text_model_encoder_layers_1_layer_norm2_bias_to_fp16"), val = tensor<fp16, [1024]>(BLOBFILE(path = tensor<string, []>("@model_path/weights/weight.bin"), offset = tensor<uint64, []>(134954560)))];
            tensor<fp16, [1, 77, 1024]> input_29_cast = layer_norm(axes = input_29_axes_0, beta = text_encoder_text_model_encoder_layers_1_layer_norm2_bias_to_fp16, epsilon = var_12_to_fp16, gamma = text_encoder_text_model_encoder_layers_1_layer_norm2_weight_to_fp16, x = input_27_cast);
            tensor<fp16, [4096, 1024]> text_encoder_text_model_encoder_layers_1_mlp_fc1_weight_to_fp16 = const()[name = tensor<string, []>("text_encoder_text_model_encoder_layers_1_mlp_fc1_weight_to_fp16"), val = tensor<fp16, [4096, 1024]>(BLOBFILE(path = tensor<string, []>("@model_path/weights/weight.bin"), offset = tensor<uint64, []>(134956672)))];
            tensor<fp16, [4096]> text_encoder_text_model_encoder_layers_1_mlp_fc1_bias_to_fp16 = const()[name = tensor<string, []>("text_encoder_text_model_encoder_layers_1_mlp_fc1_bias_to_fp16"), val = tensor<fp16, [4096]>(BLOBFILE(path = tensor<string, []>("@model_path/weights/weight.bin"), offset = tensor<uint64, []>(143345344)))];
            tensor<fp16, [1, 77, 4096]> input_31_cast = linear(bias = text_encoder_text_model_encoder_layers_1_mlp_fc1_bias_to_fp16, weight = text_encoder_text_model_encoder_layers_1_mlp_fc1_weight_to_fp16, x = input_29_cast);
            tensor<string, []> input_33_mode_0 = const()[name = tensor<string, []>("input_33_mode_0"), val = tensor<string, []>("EXACT")];
            tensor<fp16, [1, 77, 4096]> input_33_cast = gelu(mode = input_33_mode_0, x = input_31_cast);
            tensor<fp16, [1024, 4096]> text_encoder_text_model_encoder_layers_1_mlp_fc2_weight_to_fp16 = const()[name = tensor<string, []>("text_encoder_text_model_encoder_layers_1_mlp_fc2_weight_to_fp16"), val = tensor<fp16, [1024, 4096]>(BLOBFILE(path = tensor<string, []>("@model_path/weights/weight.bin"), offset = tensor<uint64, []>(143353600)))];
            tensor<fp16, [1024]> text_encoder_text_model_encoder_layers_1_mlp_fc2_bias_to_fp16 = const()[name = tensor<string, []>("text_encoder_text_model_encoder_layers_1_mlp_fc2_bias_to_fp16"), val = tensor<fp16, [1024]>(BLOBFILE(path = tensor<string, []>("@model_path/weights/weight.bin"), offset = tensor<uint64, []>(151742272)))];
            tensor<fp16, [1, 77, 1024]> hidden_states_11_cast = linear(bias = text_encoder_text_model_encoder_layers_1_mlp_fc2_bias_to_fp16, weight = text_encoder_text_model_encoder_layers_1_mlp_fc2_weight_to_fp16, x = input_33_cast);
            tensor<fp16, [1, 77, 1024]> input_35_cast = add(x = input_27_cast, y = hidden_states_11_cast);
            tensor<int32, [1]> hidden_states_13_axes_0 = const()[name = tensor<string, []>("hidden_states_13_axes_0"), val = tensor<int32, [1]>([-1])];
            tensor<fp16, [1024]> text_encoder_text_model_encoder_layers_2_layer_norm1_weight_to_fp16 = const()[name = tensor<string, []>("text_encoder_text_model_encoder_layers_2_layer_norm1_weight_to_fp16"), val = tensor<fp16, [1024]>(BLOBFILE(path = tensor<string, []>("@model_path/weights/weight.bin"), offset = tensor<uint64, []>(151744384)))];
            tensor<fp16, [1024]> text_encoder_text_model_encoder_layers_2_layer_norm1_bias_to_fp16 = const()[name = tensor<string, []>("text_encoder_text_model_encoder_layers_2_layer_norm1_bias_to_fp16"), val = tensor<fp16, [1024]>(BLOBFILE(path = tensor<string, []>("@model_path/weights/weight.bin"), offset = tensor<uint64, []>(151746496)))];
            tensor<fp16, [1, 77, 1024]> hidden_states_13_cast = layer_norm(axes = hidden_states_13_axes_0, beta = text_encoder_text_model_encoder_layers_2_layer_norm1_bias_to_fp16, epsilon = var_12_to_fp16, gamma = text_encoder_text_model_encoder_layers_2_layer_norm1_weight_to_fp16, x = input_35_cast);
            tensor<fp16, [1024, 1024]> text_encoder_text_model_encoder_layers_2_self_attn_q_proj_weight_to_fp16 = const()[name = tensor<string, []>("text_encoder_text_model_encoder_layers_2_self_attn_q_proj_weight_to_fp16"), val = tensor<fp16, [1024, 1024]>(BLOBFILE(path = tensor<string, []>("@model_path/weights/weight.bin"), offset = tensor<uint64, []>(151748608)))];
            tensor<fp16, [1024]> text_encoder_text_model_encoder_layers_2_self_attn_q_proj_bias_to_fp16 = const()[name = tensor<string, []>("text_encoder_text_model_encoder_layers_2_self_attn_q_proj_bias_to_fp16"), val = tensor<fp16, [1024]>(BLOBFILE(path = tensor<string, []>("@model_path/weights/weight.bin"), offset = tensor<uint64, []>(153845824)))];
            tensor<fp16, [1, 77, 1024]> var_284_cast = linear(bias = text_encoder_text_model_encoder_layers_2_self_attn_q_proj_bias_to_fp16, weight = text_encoder_text_model_encoder_layers_2_self_attn_q_proj_weight_to_fp16, x = hidden_states_13_cast);
            tensor<fp16, []> var_285_to_fp16 = const()[name = tensor<string, []>("op_285_to_fp16"), val = tensor<fp16, []>(0x1p-3)];
            tensor<fp16, [1, 77, 1024]> tensor_17_cast = mul(x = var_284_cast, y = var_285_to_fp16);
            tensor<fp16, [1024, 1024]> text_encoder_text_model_encoder_layers_2_self_attn_k_proj_weight_to_fp16 = const()[name = tensor<string, []>("text_encoder_text_model_encoder_layers_2_self_attn_k_proj_weight_to_fp16"), val = tensor<fp16, [1024, 1024]>(BLOBFILE(path = tensor<string, []>("@model_path/weights/weight.bin"), offset = tensor<uint64, []>(153847936)))];
            tensor<fp16, [1024]> text_encoder_text_model_encoder_layers_2_self_attn_k_proj_bias_to_fp16 = const()[name = tensor<string, []>("text_encoder_text_model_encoder_layers_2_self_attn_k_proj_bias_to_fp16"), val = tensor<fp16, [1024]>(BLOBFILE(path = tensor<string, []>("@model_path/weights/weight.bin"), offset = tensor<uint64, []>(155945152)))];
            tensor<fp16, [1, 77, 1024]> tensor_13_cast = linear(bias = text_encoder_text_model_encoder_layers_2_self_attn_k_proj_bias_to_fp16, weight = text_encoder_text_model_encoder_layers_2_self_attn_k_proj_weight_to_fp16, x = hidden_states_13_cast);
            tensor<int32, [4]> var_290 = const()[name = tensor<string, []>("op_290"), val = tensor<int32, [4]>([1, -1, 16, 64])];
            tensor<fp16, [1, 77, 16, 64]> var_291_cast = reshape(shape = var_290, x = tensor_13_cast);
            tensor<int32, [4]> var_292_perm_0 = const()[name = tensor<string, []>("op_292_perm_0"), val = tensor<int32, [4]>([0, 2, 1, 3])];
            tensor<fp16, [1024, 1024]> text_encoder_text_model_encoder_layers_2_self_attn_v_proj_weight_to_fp16 = const()[name = tensor<string, []>("text_encoder_text_model_encoder_layers_2_self_attn_v_proj_weight_to_fp16"), val = tensor<fp16, [1024, 1024]>(BLOBFILE(path = tensor<string, []>("@model_path/weights/weight.bin"), offset = tensor<uint64, []>(155947264)))];
            tensor<fp16, [1024]> text_encoder_text_model_encoder_layers_2_self_attn_v_proj_bias_to_fp16 = const()[name = tensor<string, []>("text_encoder_text_model_encoder_layers_2_self_attn_v_proj_bias_to_fp16"), val = tensor<fp16, [1024]>(BLOBFILE(path = tensor<string, []>("@model_path/weights/weight.bin"), offset = tensor<uint64, []>(158044480)))];
            tensor<fp16, [1, 77, 1024]> tensor_15_cast = linear(bias = text_encoder_text_model_encoder_layers_2_self_attn_v_proj_bias_to_fp16, weight = text_encoder_text_model_encoder_layers_2_self_attn_v_proj_weight_to_fp16, x = hidden_states_13_cast);
            tensor<int32, [4]> var_297 = const()[name = tensor<string, []>("op_297"), val = tensor<int32, [4]>([1, -1, 16, 64])];
            tensor<fp16, [1, 77, 16, 64]> var_298_cast = reshape(shape = var_297, x = tensor_15_cast);
            tensor<int32, [4]> var_299_perm_0 = const()[name = tensor<string, []>("op_299_perm_0"), val = tensor<int32, [4]>([0, 2, 1, 3])];
            tensor<int32, [4]> var_306 = const()[name = tensor<string, []>("op_306"), val = tensor<int32, [4]>([1, 77, 16, 64])];
            tensor<fp16, [1, 77, 16, 64]> var_307_cast = reshape(shape = var_306, x = tensor_17_cast);
            tensor<int32, [4]> var_308_perm_0 = const()[name = tensor<string, []>("op_308_perm_0"), val = tensor<int32, [4]>([0, 2, 1, 3])];
            tensor<int32, [3]> var_310 = const()[name = tensor<string, []>("op_310"), val = tensor<int32, [3]>([16, -1, 64])];
            tensor<fp16, [1, 16, 77, 64]> transpose_103 = transpose(perm = var_308_perm_0, x = var_307_cast);
            tensor<fp16, [16, 77, 64]> query_states_5_cast = reshape(shape = var_310, x = transpose_103);
            tensor<int32, [3]> var_312 = const()[name = tensor<string, []>("op_312"), val = tensor<int32, [3]>([16, -1, 64])];
            tensor<fp16, [1, 16, 77, 64]> transpose_105 = transpose(perm = var_292_perm_0, x = var_291_cast);
            tensor<fp16, [16, 77, 64]> key_states_11_cast = reshape(shape = var_312, x = transpose_105);
            tensor<int32, [3]> var_314 = const()[name = tensor<string, []>("op_314"), val = tensor<int32, [3]>([16, -1, 64])];
            tensor<fp16, [1, 16, 77, 64]> transpose_104 = transpose(perm = var_299_perm_0, x = var_298_cast);
            tensor<fp16, [16, 77, 64]> value_states_11_cast = reshape(shape = var_314, x = transpose_104);
            tensor<int32, [3]> var_317_perm_0 = const()[name = tensor<string, []>("op_317_perm_0"), val = tensor<int32, [3]>([0, 2, 1])];
            tensor<bool, []> attn_weights_13_transpose_x_0 = const()[name = tensor<string, []>("attn_weights_13_transpose_x_0"), val = tensor<bool, []>(false)];
            tensor<bool, []> attn_weights_13_transpose_y_0 = const()[name = tensor<string, []>("attn_weights_13_transpose_y_0"), val = tensor<bool, []>(false)];
            tensor<fp16, [16, 64, 77]> transpose_102 = transpose(perm = var_317_perm_0, x = key_states_11_cast);
            tensor<fp16, [16, 77, 77]> attn_weights_13_cast = matmul(transpose_x = attn_weights_13_transpose_x_0, transpose_y = attn_weights_13_transpose_y_0, x = query_states_5_cast, y = transpose_102);
            tensor<int32, [4]> var_319 = const()[name = tensor<string, []>("op_319"), val = tensor<int32, [4]>([1, 16, 77, 77])];
            tensor<fp16, [1, 16, 77, 77]> var_320_cast = reshape(shape = var_319, x = attn_weights_13_cast);
            tensor<fp16, [1, 16, 77, 77]> attn_weights_15_cast = add(x = var_320_cast, y = var_44_cast);
            tensor<int32, [3]> var_325 = const()[name = tensor<string, []>("op_325"), val = tensor<int32, [3]>([16, 77, 77])];
            tensor<fp16, [16, 77, 77]> input_37_cast = reshape(shape = var_325, x = attn_weights_15_cast);
            tensor<fp16, [16, 77, 77]> input_39_cast = softmax(axis = var_5, x = input_37_cast);
            tensor<bool, []> attn_output_13_transpose_x_0 = const()[name = tensor<string, []>("attn_output_13_transpose_x_0"), val = tensor<bool, []>(false)];
            tensor<bool, []> attn_output_13_transpose_y_0 = const()[name = tensor<string, []>("attn_output_13_transpose_y_0"), val = tensor<bool, []>(false)];
            tensor<fp16, [16, 77, 64]> attn_output_13_cast = matmul(transpose_x = attn_output_13_transpose_x_0, transpose_y = attn_output_13_transpose_y_0, x = input_39_cast, y = value_states_11_cast);
            tensor<int32, [4]> var_330 = const()[name = tensor<string, []>("op_330"), val = tensor<int32, [4]>([1, 16, 77, 64])];
            tensor<fp16, [1, 16, 77, 64]> attn_output_15_cast = reshape(shape = var_330, x = attn_output_13_cast);
            tensor<int32, [4]> attn_output_17_perm_0 = const()[name = tensor<string, []>("attn_output_17_perm_0"), val = tensor<int32, [4]>([0, 2, 1, 3])];
            tensor<int32, [3]> var_333 = const()[name = tensor<string, []>("op_333"), val = tensor<int32, [3]>([1, 77, 1024])];
            tensor<fp16, [1, 77, 16, 64]> transpose_101 = transpose(perm = attn_output_17_perm_0, x = attn_output_15_cast);
            tensor<fp16, [1, 77, 1024]> input_41_cast = reshape(shape = var_333, x = transpose_101);
            tensor<fp16, [1024, 1024]> text_encoder_text_model_encoder_layers_2_self_attn_out_proj_weight_to_fp16 = const()[name = tensor<string, []>("text_encoder_text_model_encoder_layers_2_self_attn_out_proj_weight_to_fp16"), val = tensor<fp16, [1024, 1024]>(BLOBFILE(path = tensor<string, []>("@model_path/weights/weight.bin"), offset = tensor<uint64, []>(158046592)))];
            tensor<fp16, [1024]> text_encoder_text_model_encoder_layers_2_self_attn_out_proj_bias_to_fp16 = const()[name = tensor<string, []>("text_encoder_text_model_encoder_layers_2_self_attn_out_proj_bias_to_fp16"), val = tensor<fp16, [1024]>(BLOBFILE(path = tensor<string, []>("@model_path/weights/weight.bin"), offset = tensor<uint64, []>(160143808)))];
            tensor<fp16, [1, 77, 1024]> hidden_states_15_cast = linear(bias = text_encoder_text_model_encoder_layers_2_self_attn_out_proj_bias_to_fp16, weight = text_encoder_text_model_encoder_layers_2_self_attn_out_proj_weight_to_fp16, x = input_41_cast);
            tensor<fp16, [1, 77, 1024]> input_43_cast = add(x = input_35_cast, y = hidden_states_15_cast);
            tensor<int32, [1]> input_45_axes_0 = const()[name = tensor<string, []>("input_45_axes_0"), val = tensor<int32, [1]>([-1])];
            tensor<fp16, [1024]> text_encoder_text_model_encoder_layers_2_layer_norm2_weight_to_fp16 = const()[name = tensor<string, []>("text_encoder_text_model_encoder_layers_2_layer_norm2_weight_to_fp16"), val = tensor<fp16, [1024]>(BLOBFILE(path = tensor<string, []>("@model_path/weights/weight.bin"), offset = tensor<uint64, []>(160145920)))];
            tensor<fp16, [1024]> text_encoder_text_model_encoder_layers_2_layer_norm2_bias_to_fp16 = const()[name = tensor<string, []>("text_encoder_text_model_encoder_layers_2_layer_norm2_bias_to_fp16"), val = tensor<fp16, [1024]>(BLOBFILE(path = tensor<string, []>("@model_path/weights/weight.bin"), offset = tensor<uint64, []>(160148032)))];
            tensor<fp16, [1, 77, 1024]> input_45_cast = layer_norm(axes = input_45_axes_0, beta = text_encoder_text_model_encoder_layers_2_layer_norm2_bias_to_fp16, epsilon = var_12_to_fp16, gamma = text_encoder_text_model_encoder_layers_2_layer_norm2_weight_to_fp16, x = input_43_cast);
            tensor<fp16, [4096, 1024]> text_encoder_text_model_encoder_layers_2_mlp_fc1_weight_to_fp16 = const()[name = tensor<string, []>("text_encoder_text_model_encoder_layers_2_mlp_fc1_weight_to_fp16"), val = tensor<fp16, [4096, 1024]>(BLOBFILE(path = tensor<string, []>("@model_path/weights/weight.bin"), offset = tensor<uint64, []>(160150144)))];
            tensor<fp16, [4096]> text_encoder_text_model_encoder_layers_2_mlp_fc1_bias_to_fp16 = const()[name = tensor<string, []>("text_encoder_text_model_encoder_layers_2_mlp_fc1_bias_to_fp16"), val = tensor<fp16, [4096]>(BLOBFILE(path = tensor<string, []>("@model_path/weights/weight.bin"), offset = tensor<uint64, []>(168538816)))];
            tensor<fp16, [1, 77, 4096]> input_47_cast = linear(bias = text_encoder_text_model_encoder_layers_2_mlp_fc1_bias_to_fp16, weight = text_encoder_text_model_encoder_layers_2_mlp_fc1_weight_to_fp16, x = input_45_cast);
            tensor<string, []> input_49_mode_0 = const()[name = tensor<string, []>("input_49_mode_0"), val = tensor<string, []>("EXACT")];
            tensor<fp16, [1, 77, 4096]> input_49_cast = gelu(mode = input_49_mode_0, x = input_47_cast);
            tensor<fp16, [1024, 4096]> text_encoder_text_model_encoder_layers_2_mlp_fc2_weight_to_fp16 = const()[name = tensor<string, []>("text_encoder_text_model_encoder_layers_2_mlp_fc2_weight_to_fp16"), val = tensor<fp16, [1024, 4096]>(BLOBFILE(path = tensor<string, []>("@model_path/weights/weight.bin"), offset = tensor<uint64, []>(168547072)))];
            tensor<fp16, [1024]> text_encoder_text_model_encoder_layers_2_mlp_fc2_bias_to_fp16 = const()[name = tensor<string, []>("text_encoder_text_model_encoder_layers_2_mlp_fc2_bias_to_fp16"), val = tensor<fp16, [1024]>(BLOBFILE(path = tensor<string, []>("@model_path/weights/weight.bin"), offset = tensor<uint64, []>(176935744)))];
            tensor<fp16, [1, 77, 1024]> hidden_states_17_cast = linear(bias = text_encoder_text_model_encoder_layers_2_mlp_fc2_bias_to_fp16, weight = text_encoder_text_model_encoder_layers_2_mlp_fc2_weight_to_fp16, x = input_49_cast);
            tensor<fp16, [1, 77, 1024]> input_51_cast = add(x = input_43_cast, y = hidden_states_17_cast);
            tensor<int32, [1]> hidden_states_19_axes_0 = const()[name = tensor<string, []>("hidden_states_19_axes_0"), val = tensor<int32, [1]>([-1])];
            tensor<fp16, [1024]> text_encoder_text_model_encoder_layers_3_layer_norm1_weight_to_fp16 = const()[name = tensor<string, []>("text_encoder_text_model_encoder_layers_3_layer_norm1_weight_to_fp16"), val = tensor<fp16, [1024]>(BLOBFILE(path = tensor<string, []>("@model_path/weights/weight.bin"), offset = tensor<uint64, []>(176937856)))];
            tensor<fp16, [1024]> text_encoder_text_model_encoder_layers_3_layer_norm1_bias_to_fp16 = const()[name = tensor<string, []>("text_encoder_text_model_encoder_layers_3_layer_norm1_bias_to_fp16"), val = tensor<fp16, [1024]>(BLOBFILE(path = tensor<string, []>("@model_path/weights/weight.bin"), offset = tensor<uint64, []>(176939968)))];
            tensor<fp16, [1, 77, 1024]> hidden_states_19_cast = layer_norm(axes = hidden_states_19_axes_0, beta = text_encoder_text_model_encoder_layers_3_layer_norm1_bias_to_fp16, epsilon = var_12_to_fp16, gamma = text_encoder_text_model_encoder_layers_3_layer_norm1_weight_to_fp16, x = input_51_cast);
            tensor<fp16, [1024, 1024]> text_encoder_text_model_encoder_layers_3_self_attn_q_proj_weight_to_fp16 = const()[name = tensor<string, []>("text_encoder_text_model_encoder_layers_3_self_attn_q_proj_weight_to_fp16"), val = tensor<fp16, [1024, 1024]>(BLOBFILE(path = tensor<string, []>("@model_path/weights/weight.bin"), offset = tensor<uint64, []>(176942080)))];
            tensor<fp16, [1024]> text_encoder_text_model_encoder_layers_3_self_attn_q_proj_bias_to_fp16 = const()[name = tensor<string, []>("text_encoder_text_model_encoder_layers_3_self_attn_q_proj_bias_to_fp16"), val = tensor<fp16, [1024]>(BLOBFILE(path = tensor<string, []>("@model_path/weights/weight.bin"), offset = tensor<uint64, []>(179039296)))];
            tensor<fp16, [1, 77, 1024]> var_371_cast = linear(bias = text_encoder_text_model_encoder_layers_3_self_attn_q_proj_bias_to_fp16, weight = text_encoder_text_model_encoder_layers_3_self_attn_q_proj_weight_to_fp16, x = hidden_states_19_cast);
            tensor<fp16, []> var_372_to_fp16 = const()[name = tensor<string, []>("op_372_to_fp16"), val = tensor<fp16, []>(0x1p-3)];
            tensor<fp16, [1, 77, 1024]> tensor_23_cast = mul(x = var_371_cast, y = var_372_to_fp16);
            tensor<fp16, [1024, 1024]> text_encoder_text_model_encoder_layers_3_self_attn_k_proj_weight_to_fp16 = const()[name = tensor<string, []>("text_encoder_text_model_encoder_layers_3_self_attn_k_proj_weight_to_fp16"), val = tensor<fp16, [1024, 1024]>(BLOBFILE(path = tensor<string, []>("@model_path/weights/weight.bin"), offset = tensor<uint64, []>(179041408)))];
            tensor<fp16, [1024]> text_encoder_text_model_encoder_layers_3_self_attn_k_proj_bias_to_fp16 = const()[name = tensor<string, []>("text_encoder_text_model_encoder_layers_3_self_attn_k_proj_bias_to_fp16"), val = tensor<fp16, [1024]>(BLOBFILE(path = tensor<string, []>("@model_path/weights/weight.bin"), offset = tensor<uint64, []>(181138624)))];
            tensor<fp16, [1, 77, 1024]> tensor_19_cast = linear(bias = text_encoder_text_model_encoder_layers_3_self_attn_k_proj_bias_to_fp16, weight = text_encoder_text_model_encoder_layers_3_self_attn_k_proj_weight_to_fp16, x = hidden_states_19_cast);
            tensor<int32, [4]> var_377 = const()[name = tensor<string, []>("op_377"), val = tensor<int32, [4]>([1, -1, 16, 64])];
            tensor<fp16, [1, 77, 16, 64]> var_378_cast = reshape(shape = var_377, x = tensor_19_cast);
            tensor<int32, [4]> var_379_perm_0 = const()[name = tensor<string, []>("op_379_perm_0"), val = tensor<int32, [4]>([0, 2, 1, 3])];
            tensor<fp16, [1024, 1024]> text_encoder_text_model_encoder_layers_3_self_attn_v_proj_weight_to_fp16 = const()[name = tensor<string, []>("text_encoder_text_model_encoder_layers_3_self_attn_v_proj_weight_to_fp16"), val = tensor<fp16, [1024, 1024]>(BLOBFILE(path = tensor<string, []>("@model_path/weights/weight.bin"), offset = tensor<uint64, []>(181140736)))];
            tensor<fp16, [1024]> text_encoder_text_model_encoder_layers_3_self_attn_v_proj_bias_to_fp16 = const()[name = tensor<string, []>("text_encoder_text_model_encoder_layers_3_self_attn_v_proj_bias_to_fp16"), val = tensor<fp16, [1024]>(BLOBFILE(path = tensor<string, []>("@model_path/weights/weight.bin"), offset = tensor<uint64, []>(183237952)))];
            tensor<fp16, [1, 77, 1024]> tensor_21_cast = linear(bias = text_encoder_text_model_encoder_layers_3_self_attn_v_proj_bias_to_fp16, weight = text_encoder_text_model_encoder_layers_3_self_attn_v_proj_weight_to_fp16, x = hidden_states_19_cast);
            tensor<int32, [4]> var_384 = const()[name = tensor<string, []>("op_384"), val = tensor<int32, [4]>([1, -1, 16, 64])];
            tensor<fp16, [1, 77, 16, 64]> var_385_cast = reshape(shape = var_384, x = tensor_21_cast);
            tensor<int32, [4]> var_386_perm_0 = const()[name = tensor<string, []>("op_386_perm_0"), val = tensor<int32, [4]>([0, 2, 1, 3])];
            tensor<int32, [4]> var_393 = const()[name = tensor<string, []>("op_393"), val = tensor<int32, [4]>([1, 77, 16, 64])];
            tensor<fp16, [1, 77, 16, 64]> var_394_cast = reshape(shape = var_393, x = tensor_23_cast);
            tensor<int32, [4]> var_395_perm_0 = const()[name = tensor<string, []>("op_395_perm_0"), val = tensor<int32, [4]>([0, 2, 1, 3])];
            tensor<int32, [3]> var_397 = const()[name = tensor<string, []>("op_397"), val = tensor<int32, [3]>([16, -1, 64])];
            tensor<fp16, [1, 16, 77, 64]> transpose_98 = transpose(perm = var_395_perm_0, x = var_394_cast);
            tensor<fp16, [16, 77, 64]> query_states_7_cast = reshape(shape = var_397, x = transpose_98);
            tensor<int32, [3]> var_399 = const()[name = tensor<string, []>("op_399"), val = tensor<int32, [3]>([16, -1, 64])];
            tensor<fp16, [1, 16, 77, 64]> transpose_100 = transpose(perm = var_379_perm_0, x = var_378_cast);
            tensor<fp16, [16, 77, 64]> key_states_15_cast = reshape(shape = var_399, x = transpose_100);
            tensor<int32, [3]> var_401 = const()[name = tensor<string, []>("op_401"), val = tensor<int32, [3]>([16, -1, 64])];
            tensor<fp16, [1, 16, 77, 64]> transpose_99 = transpose(perm = var_386_perm_0, x = var_385_cast);
            tensor<fp16, [16, 77, 64]> value_states_15_cast = reshape(shape = var_401, x = transpose_99);
            tensor<int32, [3]> var_404_perm_0 = const()[name = tensor<string, []>("op_404_perm_0"), val = tensor<int32, [3]>([0, 2, 1])];
            tensor<bool, []> attn_weights_19_transpose_x_0 = const()[name = tensor<string, []>("attn_weights_19_transpose_x_0"), val = tensor<bool, []>(false)];
            tensor<bool, []> attn_weights_19_transpose_y_0 = const()[name = tensor<string, []>("attn_weights_19_transpose_y_0"), val = tensor<bool, []>(false)];
            tensor<fp16, [16, 64, 77]> transpose_97 = transpose(perm = var_404_perm_0, x = key_states_15_cast);
            tensor<fp16, [16, 77, 77]> attn_weights_19_cast = matmul(transpose_x = attn_weights_19_transpose_x_0, transpose_y = attn_weights_19_transpose_y_0, x = query_states_7_cast, y = transpose_97);
            tensor<int32, [4]> var_406 = const()[name = tensor<string, []>("op_406"), val = tensor<int32, [4]>([1, 16, 77, 77])];
            tensor<fp16, [1, 16, 77, 77]> var_407_cast = reshape(shape = var_406, x = attn_weights_19_cast);
            tensor<fp16, [1, 16, 77, 77]> attn_weights_21_cast = add(x = var_407_cast, y = var_44_cast);
            tensor<int32, [3]> var_412 = const()[name = tensor<string, []>("op_412"), val = tensor<int32, [3]>([16, 77, 77])];
            tensor<fp16, [16, 77, 77]> input_53_cast = reshape(shape = var_412, x = attn_weights_21_cast);
            tensor<fp16, [16, 77, 77]> input_55_cast = softmax(axis = var_5, x = input_53_cast);
            tensor<bool, []> attn_output_19_transpose_x_0 = const()[name = tensor<string, []>("attn_output_19_transpose_x_0"), val = tensor<bool, []>(false)];
            tensor<bool, []> attn_output_19_transpose_y_0 = const()[name = tensor<string, []>("attn_output_19_transpose_y_0"), val = tensor<bool, []>(false)];
            tensor<fp16, [16, 77, 64]> attn_output_19_cast = matmul(transpose_x = attn_output_19_transpose_x_0, transpose_y = attn_output_19_transpose_y_0, x = input_55_cast, y = value_states_15_cast);
            tensor<int32, [4]> var_417 = const()[name = tensor<string, []>("op_417"), val = tensor<int32, [4]>([1, 16, 77, 64])];
            tensor<fp16, [1, 16, 77, 64]> attn_output_21_cast = reshape(shape = var_417, x = attn_output_19_cast);
            tensor<int32, [4]> attn_output_23_perm_0 = const()[name = tensor<string, []>("attn_output_23_perm_0"), val = tensor<int32, [4]>([0, 2, 1, 3])];
            tensor<int32, [3]> var_420 = const()[name = tensor<string, []>("op_420"), val = tensor<int32, [3]>([1, 77, 1024])];
            tensor<fp16, [1, 77, 16, 64]> transpose_96 = transpose(perm = attn_output_23_perm_0, x = attn_output_21_cast);
            tensor<fp16, [1, 77, 1024]> input_57_cast = reshape(shape = var_420, x = transpose_96);
            tensor<fp16, [1024, 1024]> text_encoder_text_model_encoder_layers_3_self_attn_out_proj_weight_to_fp16 = const()[name = tensor<string, []>("text_encoder_text_model_encoder_layers_3_self_attn_out_proj_weight_to_fp16"), val = tensor<fp16, [1024, 1024]>(BLOBFILE(path = tensor<string, []>("@model_path/weights/weight.bin"), offset = tensor<uint64, []>(183240064)))];
            tensor<fp16, [1024]> text_encoder_text_model_encoder_layers_3_self_attn_out_proj_bias_to_fp16 = const()[name = tensor<string, []>("text_encoder_text_model_encoder_layers_3_self_attn_out_proj_bias_to_fp16"), val = tensor<fp16, [1024]>(BLOBFILE(path = tensor<string, []>("@model_path/weights/weight.bin"), offset = tensor<uint64, []>(185337280)))];
            tensor<fp16, [1, 77, 1024]> hidden_states_21_cast = linear(bias = text_encoder_text_model_encoder_layers_3_self_attn_out_proj_bias_to_fp16, weight = text_encoder_text_model_encoder_layers_3_self_attn_out_proj_weight_to_fp16, x = input_57_cast);
            tensor<fp16, [1, 77, 1024]> input_59_cast = add(x = input_51_cast, y = hidden_states_21_cast);
            tensor<int32, [1]> input_61_axes_0 = const()[name = tensor<string, []>("input_61_axes_0"), val = tensor<int32, [1]>([-1])];
            tensor<fp16, [1024]> text_encoder_text_model_encoder_layers_3_layer_norm2_weight_to_fp16 = const()[name = tensor<string, []>("text_encoder_text_model_encoder_layers_3_layer_norm2_weight_to_fp16"), val = tensor<fp16, [1024]>(BLOBFILE(path = tensor<string, []>("@model_path/weights/weight.bin"), offset = tensor<uint64, []>(185339392)))];
            tensor<fp16, [1024]> text_encoder_text_model_encoder_layers_3_layer_norm2_bias_to_fp16 = const()[name = tensor<string, []>("text_encoder_text_model_encoder_layers_3_layer_norm2_bias_to_fp16"), val = tensor<fp16, [1024]>(BLOBFILE(path = tensor<string, []>("@model_path/weights/weight.bin"), offset = tensor<uint64, []>(185341504)))];
            tensor<fp16, [1, 77, 1024]> input_61_cast = layer_norm(axes = input_61_axes_0, beta = text_encoder_text_model_encoder_layers_3_layer_norm2_bias_to_fp16, epsilon = var_12_to_fp16, gamma = text_encoder_text_model_encoder_layers_3_layer_norm2_weight_to_fp16, x = input_59_cast);
            tensor<fp16, [4096, 1024]> text_encoder_text_model_encoder_layers_3_mlp_fc1_weight_to_fp16 = const()[name = tensor<string, []>("text_encoder_text_model_encoder_layers_3_mlp_fc1_weight_to_fp16"), val = tensor<fp16, [4096, 1024]>(BLOBFILE(path = tensor<string, []>("@model_path/weights/weight.bin"), offset = tensor<uint64, []>(185343616)))];
            tensor<fp16, [4096]> text_encoder_text_model_encoder_layers_3_mlp_fc1_bias_to_fp16 = const()[name = tensor<string, []>("text_encoder_text_model_encoder_layers_3_mlp_fc1_bias_to_fp16"), val = tensor<fp16, [4096]>(BLOBFILE(path = tensor<string, []>("@model_path/weights/weight.bin"), offset = tensor<uint64, []>(193732288)))];
            tensor<fp16, [1, 77, 4096]> input_63_cast = linear(bias = text_encoder_text_model_encoder_layers_3_mlp_fc1_bias_to_fp16, weight = text_encoder_text_model_encoder_layers_3_mlp_fc1_weight_to_fp16, x = input_61_cast);
            tensor<string, []> input_65_mode_0 = const()[name = tensor<string, []>("input_65_mode_0"), val = tensor<string, []>("EXACT")];
            tensor<fp16, [1, 77, 4096]> input_65_cast = gelu(mode = input_65_mode_0, x = input_63_cast);
            tensor<fp16, [1024, 4096]> text_encoder_text_model_encoder_layers_3_mlp_fc2_weight_to_fp16 = const()[name = tensor<string, []>("text_encoder_text_model_encoder_layers_3_mlp_fc2_weight_to_fp16"), val = tensor<fp16, [1024, 4096]>(BLOBFILE(path = tensor<string, []>("@model_path/weights/weight.bin"), offset = tensor<uint64, []>(193740544)))];
            tensor<fp16, [1024]> text_encoder_text_model_encoder_layers_3_mlp_fc2_bias_to_fp16 = const()[name = tensor<string, []>("text_encoder_text_model_encoder_layers_3_mlp_fc2_bias_to_fp16"), val = tensor<fp16, [1024]>(BLOBFILE(path = tensor<string, []>("@model_path/weights/weight.bin"), offset = tensor<uint64, []>(202129216)))];
            tensor<fp16, [1, 77, 1024]> hidden_states_23_cast = linear(bias = text_encoder_text_model_encoder_layers_3_mlp_fc2_bias_to_fp16, weight = text_encoder_text_model_encoder_layers_3_mlp_fc2_weight_to_fp16, x = input_65_cast);
            tensor<fp16, [1, 77, 1024]> input_67_cast = add(x = input_59_cast, y = hidden_states_23_cast);
            tensor<int32, [1]> hidden_states_25_axes_0 = const()[name = tensor<string, []>("hidden_states_25_axes_0"), val = tensor<int32, [1]>([-1])];
            tensor<fp16, [1024]> text_encoder_text_model_encoder_layers_4_layer_norm1_weight_to_fp16 = const()[name = tensor<string, []>("text_encoder_text_model_encoder_layers_4_layer_norm1_weight_to_fp16"), val = tensor<fp16, [1024]>(BLOBFILE(path = tensor<string, []>("@model_path/weights/weight.bin"), offset = tensor<uint64, []>(202131328)))];
            tensor<fp16, [1024]> text_encoder_text_model_encoder_layers_4_layer_norm1_bias_to_fp16 = const()[name = tensor<string, []>("text_encoder_text_model_encoder_layers_4_layer_norm1_bias_to_fp16"), val = tensor<fp16, [1024]>(BLOBFILE(path = tensor<string, []>("@model_path/weights/weight.bin"), offset = tensor<uint64, []>(202133440)))];
            tensor<fp16, [1, 77, 1024]> hidden_states_25_cast = layer_norm(axes = hidden_states_25_axes_0, beta = text_encoder_text_model_encoder_layers_4_layer_norm1_bias_to_fp16, epsilon = var_12_to_fp16, gamma = text_encoder_text_model_encoder_layers_4_layer_norm1_weight_to_fp16, x = input_67_cast);
            tensor<fp16, [1024, 1024]> text_encoder_text_model_encoder_layers_4_self_attn_q_proj_weight_to_fp16 = const()[name = tensor<string, []>("text_encoder_text_model_encoder_layers_4_self_attn_q_proj_weight_to_fp16"), val = tensor<fp16, [1024, 1024]>(BLOBFILE(path = tensor<string, []>("@model_path/weights/weight.bin"), offset = tensor<uint64, []>(202135552)))];
            tensor<fp16, [1024]> text_encoder_text_model_encoder_layers_4_self_attn_q_proj_bias_to_fp16 = const()[name = tensor<string, []>("text_encoder_text_model_encoder_layers_4_self_attn_q_proj_bias_to_fp16"), val = tensor<fp16, [1024]>(BLOBFILE(path = tensor<string, []>("@model_path/weights/weight.bin"), offset = tensor<uint64, []>(204232768)))];
            tensor<fp16, [1, 77, 1024]> var_458_cast = linear(bias = text_encoder_text_model_encoder_layers_4_self_attn_q_proj_bias_to_fp16, weight = text_encoder_text_model_encoder_layers_4_self_attn_q_proj_weight_to_fp16, x = hidden_states_25_cast);
            tensor<fp16, []> var_459_to_fp16 = const()[name = tensor<string, []>("op_459_to_fp16"), val = tensor<fp16, []>(0x1p-3)];
            tensor<fp16, [1, 77, 1024]> tensor_29_cast = mul(x = var_458_cast, y = var_459_to_fp16);
            tensor<fp16, [1024, 1024]> text_encoder_text_model_encoder_layers_4_self_attn_k_proj_weight_to_fp16 = const()[name = tensor<string, []>("text_encoder_text_model_encoder_layers_4_self_attn_k_proj_weight_to_fp16"), val = tensor<fp16, [1024, 1024]>(BLOBFILE(path = tensor<string, []>("@model_path/weights/weight.bin"), offset = tensor<uint64, []>(204234880)))];
            tensor<fp16, [1024]> text_encoder_text_model_encoder_layers_4_self_attn_k_proj_bias_to_fp16 = const()[name = tensor<string, []>("text_encoder_text_model_encoder_layers_4_self_attn_k_proj_bias_to_fp16"), val = tensor<fp16, [1024]>(BLOBFILE(path = tensor<string, []>("@model_path/weights/weight.bin"), offset = tensor<uint64, []>(206332096)))];
            tensor<fp16, [1, 77, 1024]> tensor_25_cast = linear(bias = text_encoder_text_model_encoder_layers_4_self_attn_k_proj_bias_to_fp16, weight = text_encoder_text_model_encoder_layers_4_self_attn_k_proj_weight_to_fp16, x = hidden_states_25_cast);
            tensor<int32, [4]> var_464 = const()[name = tensor<string, []>("op_464"), val = tensor<int32, [4]>([1, -1, 16, 64])];
            tensor<fp16, [1, 77, 16, 64]> var_465_cast = reshape(shape = var_464, x = tensor_25_cast);
            tensor<int32, [4]> var_466_perm_0 = const()[name = tensor<string, []>("op_466_perm_0"), val = tensor<int32, [4]>([0, 2, 1, 3])];
            tensor<fp16, [1024, 1024]> text_encoder_text_model_encoder_layers_4_self_attn_v_proj_weight_to_fp16 = const()[name = tensor<string, []>("text_encoder_text_model_encoder_layers_4_self_attn_v_proj_weight_to_fp16"), val = tensor<fp16, [1024, 1024]>(BLOBFILE(path = tensor<string, []>("@model_path/weights/weight.bin"), offset = tensor<uint64, []>(206334208)))];
            tensor<fp16, [1024]> text_encoder_text_model_encoder_layers_4_self_attn_v_proj_bias_to_fp16 = const()[name = tensor<string, []>("text_encoder_text_model_encoder_layers_4_self_attn_v_proj_bias_to_fp16"), val = tensor<fp16, [1024]>(BLOBFILE(path = tensor<string, []>("@model_path/weights/weight.bin"), offset = tensor<uint64, []>(208431424)))];
            tensor<fp16, [1, 77, 1024]> tensor_27_cast = linear(bias = text_encoder_text_model_encoder_layers_4_self_attn_v_proj_bias_to_fp16, weight = text_encoder_text_model_encoder_layers_4_self_attn_v_proj_weight_to_fp16, x = hidden_states_25_cast);
            tensor<int32, [4]> var_471 = const()[name = tensor<string, []>("op_471"), val = tensor<int32, [4]>([1, -1, 16, 64])];
            tensor<fp16, [1, 77, 16, 64]> var_472_cast = reshape(shape = var_471, x = tensor_27_cast);
            tensor<int32, [4]> var_473_perm_0 = const()[name = tensor<string, []>("op_473_perm_0"), val = tensor<int32, [4]>([0, 2, 1, 3])];
            tensor<int32, [4]> var_480 = const()[name = tensor<string, []>("op_480"), val = tensor<int32, [4]>([1, 77, 16, 64])];
            tensor<fp16, [1, 77, 16, 64]> var_481_cast = reshape(shape = var_480, x = tensor_29_cast);
            tensor<int32, [4]> var_482_perm_0 = const()[name = tensor<string, []>("op_482_perm_0"), val = tensor<int32, [4]>([0, 2, 1, 3])];
            tensor<int32, [3]> var_484 = const()[name = tensor<string, []>("op_484"), val = tensor<int32, [3]>([16, -1, 64])];
            tensor<fp16, [1, 16, 77, 64]> transpose_93 = transpose(perm = var_482_perm_0, x = var_481_cast);
            tensor<fp16, [16, 77, 64]> query_states_9_cast = reshape(shape = var_484, x = transpose_93);
            tensor<int32, [3]> var_486 = const()[name = tensor<string, []>("op_486"), val = tensor<int32, [3]>([16, -1, 64])];
            tensor<fp16, [1, 16, 77, 64]> transpose_95 = transpose(perm = var_466_perm_0, x = var_465_cast);
            tensor<fp16, [16, 77, 64]> key_states_19_cast = reshape(shape = var_486, x = transpose_95);
            tensor<int32, [3]> var_488 = const()[name = tensor<string, []>("op_488"), val = tensor<int32, [3]>([16, -1, 64])];
            tensor<fp16, [1, 16, 77, 64]> transpose_94 = transpose(perm = var_473_perm_0, x = var_472_cast);
            tensor<fp16, [16, 77, 64]> value_states_19_cast = reshape(shape = var_488, x = transpose_94);
            tensor<int32, [3]> var_491_perm_0 = const()[name = tensor<string, []>("op_491_perm_0"), val = tensor<int32, [3]>([0, 2, 1])];
            tensor<bool, []> attn_weights_25_transpose_x_0 = const()[name = tensor<string, []>("attn_weights_25_transpose_x_0"), val = tensor<bool, []>(false)];
            tensor<bool, []> attn_weights_25_transpose_y_0 = const()[name = tensor<string, []>("attn_weights_25_transpose_y_0"), val = tensor<bool, []>(false)];
            tensor<fp16, [16, 64, 77]> transpose_92 = transpose(perm = var_491_perm_0, x = key_states_19_cast);
            tensor<fp16, [16, 77, 77]> attn_weights_25_cast = matmul(transpose_x = attn_weights_25_transpose_x_0, transpose_y = attn_weights_25_transpose_y_0, x = query_states_9_cast, y = transpose_92);
            tensor<int32, [4]> var_493 = const()[name = tensor<string, []>("op_493"), val = tensor<int32, [4]>([1, 16, 77, 77])];
            tensor<fp16, [1, 16, 77, 77]> var_494_cast = reshape(shape = var_493, x = attn_weights_25_cast);
            tensor<fp16, [1, 16, 77, 77]> attn_weights_27_cast = add(x = var_494_cast, y = var_44_cast);
            tensor<int32, [3]> var_499 = const()[name = tensor<string, []>("op_499"), val = tensor<int32, [3]>([16, 77, 77])];
            tensor<fp16, [16, 77, 77]> input_69_cast = reshape(shape = var_499, x = attn_weights_27_cast);
            tensor<fp16, [16, 77, 77]> input_71_cast = softmax(axis = var_5, x = input_69_cast);
            tensor<bool, []> attn_output_25_transpose_x_0 = const()[name = tensor<string, []>("attn_output_25_transpose_x_0"), val = tensor<bool, []>(false)];
            tensor<bool, []> attn_output_25_transpose_y_0 = const()[name = tensor<string, []>("attn_output_25_transpose_y_0"), val = tensor<bool, []>(false)];
            tensor<fp16, [16, 77, 64]> attn_output_25_cast = matmul(transpose_x = attn_output_25_transpose_x_0, transpose_y = attn_output_25_transpose_y_0, x = input_71_cast, y = value_states_19_cast);
            tensor<int32, [4]> var_504 = const()[name = tensor<string, []>("op_504"), val = tensor<int32, [4]>([1, 16, 77, 64])];
            tensor<fp16, [1, 16, 77, 64]> attn_output_27_cast = reshape(shape = var_504, x = attn_output_25_cast);
            tensor<int32, [4]> attn_output_29_perm_0 = const()[name = tensor<string, []>("attn_output_29_perm_0"), val = tensor<int32, [4]>([0, 2, 1, 3])];
            tensor<int32, [3]> var_507 = const()[name = tensor<string, []>("op_507"), val = tensor<int32, [3]>([1, 77, 1024])];
            tensor<fp16, [1, 77, 16, 64]> transpose_91 = transpose(perm = attn_output_29_perm_0, x = attn_output_27_cast);
            tensor<fp16, [1, 77, 1024]> input_73_cast = reshape(shape = var_507, x = transpose_91);
            tensor<fp16, [1024, 1024]> text_encoder_text_model_encoder_layers_4_self_attn_out_proj_weight_to_fp16 = const()[name = tensor<string, []>("text_encoder_text_model_encoder_layers_4_self_attn_out_proj_weight_to_fp16"), val = tensor<fp16, [1024, 1024]>(BLOBFILE(path = tensor<string, []>("@model_path/weights/weight.bin"), offset = tensor<uint64, []>(208433536)))];
            tensor<fp16, [1024]> text_encoder_text_model_encoder_layers_4_self_attn_out_proj_bias_to_fp16 = const()[name = tensor<string, []>("text_encoder_text_model_encoder_layers_4_self_attn_out_proj_bias_to_fp16"), val = tensor<fp16, [1024]>(BLOBFILE(path = tensor<string, []>("@model_path/weights/weight.bin"), offset = tensor<uint64, []>(210530752)))];
            tensor<fp16, [1, 77, 1024]> hidden_states_27_cast = linear(bias = text_encoder_text_model_encoder_layers_4_self_attn_out_proj_bias_to_fp16, weight = text_encoder_text_model_encoder_layers_4_self_attn_out_proj_weight_to_fp16, x = input_73_cast);
            tensor<fp16, [1, 77, 1024]> input_75_cast = add(x = input_67_cast, y = hidden_states_27_cast);
            tensor<int32, [1]> input_77_axes_0 = const()[name = tensor<string, []>("input_77_axes_0"), val = tensor<int32, [1]>([-1])];
            tensor<fp16, [1024]> text_encoder_text_model_encoder_layers_4_layer_norm2_weight_to_fp16 = const()[name = tensor<string, []>("text_encoder_text_model_encoder_layers_4_layer_norm2_weight_to_fp16"), val = tensor<fp16, [1024]>(BLOBFILE(path = tensor<string, []>("@model_path/weights/weight.bin"), offset = tensor<uint64, []>(210532864)))];
            tensor<fp16, [1024]> text_encoder_text_model_encoder_layers_4_layer_norm2_bias_to_fp16 = const()[name = tensor<string, []>("text_encoder_text_model_encoder_layers_4_layer_norm2_bias_to_fp16"), val = tensor<fp16, [1024]>(BLOBFILE(path = tensor<string, []>("@model_path/weights/weight.bin"), offset = tensor<uint64, []>(210534976)))];
            tensor<fp16, [1, 77, 1024]> input_77_cast = layer_norm(axes = input_77_axes_0, beta = text_encoder_text_model_encoder_layers_4_layer_norm2_bias_to_fp16, epsilon = var_12_to_fp16, gamma = text_encoder_text_model_encoder_layers_4_layer_norm2_weight_to_fp16, x = input_75_cast);
            tensor<fp16, [4096, 1024]> text_encoder_text_model_encoder_layers_4_mlp_fc1_weight_to_fp16 = const()[name = tensor<string, []>("text_encoder_text_model_encoder_layers_4_mlp_fc1_weight_to_fp16"), val = tensor<fp16, [4096, 1024]>(BLOBFILE(path = tensor<string, []>("@model_path/weights/weight.bin"), offset = tensor<uint64, []>(210537088)))];
            tensor<fp16, [4096]> text_encoder_text_model_encoder_layers_4_mlp_fc1_bias_to_fp16 = const()[name = tensor<string, []>("text_encoder_text_model_encoder_layers_4_mlp_fc1_bias_to_fp16"), val = tensor<fp16, [4096]>(BLOBFILE(path = tensor<string, []>("@model_path/weights/weight.bin"), offset = tensor<uint64, []>(218925760)))];
            tensor<fp16, [1, 77, 4096]> input_79_cast = linear(bias = text_encoder_text_model_encoder_layers_4_mlp_fc1_bias_to_fp16, weight = text_encoder_text_model_encoder_layers_4_mlp_fc1_weight_to_fp16, x = input_77_cast);
            tensor<string, []> input_81_mode_0 = const()[name = tensor<string, []>("input_81_mode_0"), val = tensor<string, []>("EXACT")];
            tensor<fp16, [1, 77, 4096]> input_81_cast = gelu(mode = input_81_mode_0, x = input_79_cast);
            tensor<fp16, [1024, 4096]> text_encoder_text_model_encoder_layers_4_mlp_fc2_weight_to_fp16 = const()[name = tensor<string, []>("text_encoder_text_model_encoder_layers_4_mlp_fc2_weight_to_fp16"), val = tensor<fp16, [1024, 4096]>(BLOBFILE(path = tensor<string, []>("@model_path/weights/weight.bin"), offset = tensor<uint64, []>(218934016)))];
            tensor<fp16, [1024]> text_encoder_text_model_encoder_layers_4_mlp_fc2_bias_to_fp16 = const()[name = tensor<string, []>("text_encoder_text_model_encoder_layers_4_mlp_fc2_bias_to_fp16"), val = tensor<fp16, [1024]>(BLOBFILE(path = tensor<string, []>("@model_path/weights/weight.bin"), offset = tensor<uint64, []>(227322688)))];
            tensor<fp16, [1, 77, 1024]> hidden_states_29_cast = linear(bias = text_encoder_text_model_encoder_layers_4_mlp_fc2_bias_to_fp16, weight = text_encoder_text_model_encoder_layers_4_mlp_fc2_weight_to_fp16, x = input_81_cast);
            tensor<fp16, [1, 77, 1024]> input_83_cast = add(x = input_75_cast, y = hidden_states_29_cast);
            tensor<int32, [1]> hidden_states_31_axes_0 = const()[name = tensor<string, []>("hidden_states_31_axes_0"), val = tensor<int32, [1]>([-1])];
            tensor<fp16, [1024]> text_encoder_text_model_encoder_layers_5_layer_norm1_weight_to_fp16 = const()[name = tensor<string, []>("text_encoder_text_model_encoder_layers_5_layer_norm1_weight_to_fp16"), val = tensor<fp16, [1024]>(BLOBFILE(path = tensor<string, []>("@model_path/weights/weight.bin"), offset = tensor<uint64, []>(227324800)))];
            tensor<fp16, [1024]> text_encoder_text_model_encoder_layers_5_layer_norm1_bias_to_fp16 = const()[name = tensor<string, []>("text_encoder_text_model_encoder_layers_5_layer_norm1_bias_to_fp16"), val = tensor<fp16, [1024]>(BLOBFILE(path = tensor<string, []>("@model_path/weights/weight.bin"), offset = tensor<uint64, []>(227326912)))];
            tensor<fp16, [1, 77, 1024]> hidden_states_31_cast = layer_norm(axes = hidden_states_31_axes_0, beta = text_encoder_text_model_encoder_layers_5_layer_norm1_bias_to_fp16, epsilon = var_12_to_fp16, gamma = text_encoder_text_model_encoder_layers_5_layer_norm1_weight_to_fp16, x = input_83_cast);
            tensor<fp16, [1024, 1024]> text_encoder_text_model_encoder_layers_5_self_attn_q_proj_weight_to_fp16 = const()[name = tensor<string, []>("text_encoder_text_model_encoder_layers_5_self_attn_q_proj_weight_to_fp16"), val = tensor<fp16, [1024, 1024]>(BLOBFILE(path = tensor<string, []>("@model_path/weights/weight.bin"), offset = tensor<uint64, []>(227329024)))];
            tensor<fp16, [1024]> text_encoder_text_model_encoder_layers_5_self_attn_q_proj_bias_to_fp16 = const()[name = tensor<string, []>("text_encoder_text_model_encoder_layers_5_self_attn_q_proj_bias_to_fp16"), val = tensor<fp16, [1024]>(BLOBFILE(path = tensor<string, []>("@model_path/weights/weight.bin"), offset = tensor<uint64, []>(229426240)))];
            tensor<fp16, [1, 77, 1024]> var_545_cast = linear(bias = text_encoder_text_model_encoder_layers_5_self_attn_q_proj_bias_to_fp16, weight = text_encoder_text_model_encoder_layers_5_self_attn_q_proj_weight_to_fp16, x = hidden_states_31_cast);
            tensor<fp16, []> var_546_to_fp16 = const()[name = tensor<string, []>("op_546_to_fp16"), val = tensor<fp16, []>(0x1p-3)];
            tensor<fp16, [1, 77, 1024]> tensor_35_cast = mul(x = var_545_cast, y = var_546_to_fp16);
            tensor<fp16, [1024, 1024]> text_encoder_text_model_encoder_layers_5_self_attn_k_proj_weight_to_fp16 = const()[name = tensor<string, []>("text_encoder_text_model_encoder_layers_5_self_attn_k_proj_weight_to_fp16"), val = tensor<fp16, [1024, 1024]>(BLOBFILE(path = tensor<string, []>("@model_path/weights/weight.bin"), offset = tensor<uint64, []>(229428352)))];
            tensor<fp16, [1024]> text_encoder_text_model_encoder_layers_5_self_attn_k_proj_bias_to_fp16 = const()[name = tensor<string, []>("text_encoder_text_model_encoder_layers_5_self_attn_k_proj_bias_to_fp16"), val = tensor<fp16, [1024]>(BLOBFILE(path = tensor<string, []>("@model_path/weights/weight.bin"), offset = tensor<uint64, []>(231525568)))];
            tensor<fp16, [1, 77, 1024]> tensor_31_cast = linear(bias = text_encoder_text_model_encoder_layers_5_self_attn_k_proj_bias_to_fp16, weight = text_encoder_text_model_encoder_layers_5_self_attn_k_proj_weight_to_fp16, x = hidden_states_31_cast);
            tensor<int32, [4]> var_551 = const()[name = tensor<string, []>("op_551"), val = tensor<int32, [4]>([1, -1, 16, 64])];
            tensor<fp16, [1, 77, 16, 64]> var_552_cast = reshape(shape = var_551, x = tensor_31_cast);
            tensor<int32, [4]> var_553_perm_0 = const()[name = tensor<string, []>("op_553_perm_0"), val = tensor<int32, [4]>([0, 2, 1, 3])];
            tensor<fp16, [1024, 1024]> text_encoder_text_model_encoder_layers_5_self_attn_v_proj_weight_to_fp16 = const()[name = tensor<string, []>("text_encoder_text_model_encoder_layers_5_self_attn_v_proj_weight_to_fp16"), val = tensor<fp16, [1024, 1024]>(BLOBFILE(path = tensor<string, []>("@model_path/weights/weight.bin"), offset = tensor<uint64, []>(231527680)))];
            tensor<fp16, [1024]> text_encoder_text_model_encoder_layers_5_self_attn_v_proj_bias_to_fp16 = const()[name = tensor<string, []>("text_encoder_text_model_encoder_layers_5_self_attn_v_proj_bias_to_fp16"), val = tensor<fp16, [1024]>(BLOBFILE(path = tensor<string, []>("@model_path/weights/weight.bin"), offset = tensor<uint64, []>(233624896)))];
            tensor<fp16, [1, 77, 1024]> tensor_33_cast = linear(bias = text_encoder_text_model_encoder_layers_5_self_attn_v_proj_bias_to_fp16, weight = text_encoder_text_model_encoder_layers_5_self_attn_v_proj_weight_to_fp16, x = hidden_states_31_cast);
            tensor<int32, [4]> var_558 = const()[name = tensor<string, []>("op_558"), val = tensor<int32, [4]>([1, -1, 16, 64])];
            tensor<fp16, [1, 77, 16, 64]> var_559_cast = reshape(shape = var_558, x = tensor_33_cast);
            tensor<int32, [4]> var_560_perm_0 = const()[name = tensor<string, []>("op_560_perm_0"), val = tensor<int32, [4]>([0, 2, 1, 3])];
            tensor<int32, [4]> var_567 = const()[name = tensor<string, []>("op_567"), val = tensor<int32, [4]>([1, 77, 16, 64])];
            tensor<fp16, [1, 77, 16, 64]> var_568_cast = reshape(shape = var_567, x = tensor_35_cast);
            tensor<int32, [4]> var_569_perm_0 = const()[name = tensor<string, []>("op_569_perm_0"), val = tensor<int32, [4]>([0, 2, 1, 3])];
            tensor<int32, [3]> var_571 = const()[name = tensor<string, []>("op_571"), val = tensor<int32, [3]>([16, -1, 64])];
            tensor<fp16, [1, 16, 77, 64]> transpose_88 = transpose(perm = var_569_perm_0, x = var_568_cast);
            tensor<fp16, [16, 77, 64]> query_states_11_cast = reshape(shape = var_571, x = transpose_88);
            tensor<int32, [3]> var_573 = const()[name = tensor<string, []>("op_573"), val = tensor<int32, [3]>([16, -1, 64])];
            tensor<fp16, [1, 16, 77, 64]> transpose_90 = transpose(perm = var_553_perm_0, x = var_552_cast);
            tensor<fp16, [16, 77, 64]> key_states_23_cast = reshape(shape = var_573, x = transpose_90);
            tensor<int32, [3]> var_575 = const()[name = tensor<string, []>("op_575"), val = tensor<int32, [3]>([16, -1, 64])];
            tensor<fp16, [1, 16, 77, 64]> transpose_89 = transpose(perm = var_560_perm_0, x = var_559_cast);
            tensor<fp16, [16, 77, 64]> value_states_23_cast = reshape(shape = var_575, x = transpose_89);
            tensor<int32, [3]> var_578_perm_0 = const()[name = tensor<string, []>("op_578_perm_0"), val = tensor<int32, [3]>([0, 2, 1])];
            tensor<bool, []> attn_weights_31_transpose_x_0 = const()[name = tensor<string, []>("attn_weights_31_transpose_x_0"), val = tensor<bool, []>(false)];
            tensor<bool, []> attn_weights_31_transpose_y_0 = const()[name = tensor<string, []>("attn_weights_31_transpose_y_0"), val = tensor<bool, []>(false)];
            tensor<fp16, [16, 64, 77]> transpose_87 = transpose(perm = var_578_perm_0, x = key_states_23_cast);
            tensor<fp16, [16, 77, 77]> attn_weights_31_cast = matmul(transpose_x = attn_weights_31_transpose_x_0, transpose_y = attn_weights_31_transpose_y_0, x = query_states_11_cast, y = transpose_87);
            tensor<int32, [4]> var_580 = const()[name = tensor<string, []>("op_580"), val = tensor<int32, [4]>([1, 16, 77, 77])];
            tensor<fp16, [1, 16, 77, 77]> var_581_cast = reshape(shape = var_580, x = attn_weights_31_cast);
            tensor<fp16, [1, 16, 77, 77]> attn_weights_33_cast = add(x = var_581_cast, y = var_44_cast);
            tensor<int32, [3]> var_586 = const()[name = tensor<string, []>("op_586"), val = tensor<int32, [3]>([16, 77, 77])];
            tensor<fp16, [16, 77, 77]> input_85_cast = reshape(shape = var_586, x = attn_weights_33_cast);
            tensor<fp16, [16, 77, 77]> input_87_cast = softmax(axis = var_5, x = input_85_cast);
            tensor<bool, []> attn_output_31_transpose_x_0 = const()[name = tensor<string, []>("attn_output_31_transpose_x_0"), val = tensor<bool, []>(false)];
            tensor<bool, []> attn_output_31_transpose_y_0 = const()[name = tensor<string, []>("attn_output_31_transpose_y_0"), val = tensor<bool, []>(false)];
            tensor<fp16, [16, 77, 64]> attn_output_31_cast = matmul(transpose_x = attn_output_31_transpose_x_0, transpose_y = attn_output_31_transpose_y_0, x = input_87_cast, y = value_states_23_cast);
            tensor<int32, [4]> var_591 = const()[name = tensor<string, []>("op_591"), val = tensor<int32, [4]>([1, 16, 77, 64])];
            tensor<fp16, [1, 16, 77, 64]> attn_output_33_cast = reshape(shape = var_591, x = attn_output_31_cast);
            tensor<int32, [4]> attn_output_35_perm_0 = const()[name = tensor<string, []>("attn_output_35_perm_0"), val = tensor<int32, [4]>([0, 2, 1, 3])];
            tensor<int32, [3]> var_594 = const()[name = tensor<string, []>("op_594"), val = tensor<int32, [3]>([1, 77, 1024])];
            tensor<fp16, [1, 77, 16, 64]> transpose_86 = transpose(perm = attn_output_35_perm_0, x = attn_output_33_cast);
            tensor<fp16, [1, 77, 1024]> input_89_cast = reshape(shape = var_594, x = transpose_86);
            tensor<fp16, [1024, 1024]> text_encoder_text_model_encoder_layers_5_self_attn_out_proj_weight_to_fp16 = const()[name = tensor<string, []>("text_encoder_text_model_encoder_layers_5_self_attn_out_proj_weight_to_fp16"), val = tensor<fp16, [1024, 1024]>(BLOBFILE(path = tensor<string, []>("@model_path/weights/weight.bin"), offset = tensor<uint64, []>(233627008)))];
            tensor<fp16, [1024]> text_encoder_text_model_encoder_layers_5_self_attn_out_proj_bias_to_fp16 = const()[name = tensor<string, []>("text_encoder_text_model_encoder_layers_5_self_attn_out_proj_bias_to_fp16"), val = tensor<fp16, [1024]>(BLOBFILE(path = tensor<string, []>("@model_path/weights/weight.bin"), offset = tensor<uint64, []>(235724224)))];
            tensor<fp16, [1, 77, 1024]> hidden_states_33_cast = linear(bias = text_encoder_text_model_encoder_layers_5_self_attn_out_proj_bias_to_fp16, weight = text_encoder_text_model_encoder_layers_5_self_attn_out_proj_weight_to_fp16, x = input_89_cast);
            tensor<fp16, [1, 77, 1024]> input_91_cast = add(x = input_83_cast, y = hidden_states_33_cast);
            tensor<int32, [1]> input_93_axes_0 = const()[name = tensor<string, []>("input_93_axes_0"), val = tensor<int32, [1]>([-1])];
            tensor<fp16, [1024]> text_encoder_text_model_encoder_layers_5_layer_norm2_weight_to_fp16 = const()[name = tensor<string, []>("text_encoder_text_model_encoder_layers_5_layer_norm2_weight_to_fp16"), val = tensor<fp16, [1024]>(BLOBFILE(path = tensor<string, []>("@model_path/weights/weight.bin"), offset = tensor<uint64, []>(235726336)))];
            tensor<fp16, [1024]> text_encoder_text_model_encoder_layers_5_layer_norm2_bias_to_fp16 = const()[name = tensor<string, []>("text_encoder_text_model_encoder_layers_5_layer_norm2_bias_to_fp16"), val = tensor<fp16, [1024]>(BLOBFILE(path = tensor<string, []>("@model_path/weights/weight.bin"), offset = tensor<uint64, []>(235728448)))];
            tensor<fp16, [1, 77, 1024]> input_93_cast = layer_norm(axes = input_93_axes_0, beta = text_encoder_text_model_encoder_layers_5_layer_norm2_bias_to_fp16, epsilon = var_12_to_fp16, gamma = text_encoder_text_model_encoder_layers_5_layer_norm2_weight_to_fp16, x = input_91_cast);
            tensor<fp16, [4096, 1024]> text_encoder_text_model_encoder_layers_5_mlp_fc1_weight_to_fp16 = const()[name = tensor<string, []>("text_encoder_text_model_encoder_layers_5_mlp_fc1_weight_to_fp16"), val = tensor<fp16, [4096, 1024]>(BLOBFILE(path = tensor<string, []>("@model_path/weights/weight.bin"), offset = tensor<uint64, []>(235730560)))];
            tensor<fp16, [4096]> text_encoder_text_model_encoder_layers_5_mlp_fc1_bias_to_fp16 = const()[name = tensor<string, []>("text_encoder_text_model_encoder_layers_5_mlp_fc1_bias_to_fp16"), val = tensor<fp16, [4096]>(BLOBFILE(path = tensor<string, []>("@model_path/weights/weight.bin"), offset = tensor<uint64, []>(244119232)))];
            tensor<fp16, [1, 77, 4096]> input_95_cast = linear(bias = text_encoder_text_model_encoder_layers_5_mlp_fc1_bias_to_fp16, weight = text_encoder_text_model_encoder_layers_5_mlp_fc1_weight_to_fp16, x = input_93_cast);
            tensor<string, []> input_97_mode_0 = const()[name = tensor<string, []>("input_97_mode_0"), val = tensor<string, []>("EXACT")];
            tensor<fp16, [1, 77, 4096]> input_97_cast = gelu(mode = input_97_mode_0, x = input_95_cast);
            tensor<fp16, [1024, 4096]> text_encoder_text_model_encoder_layers_5_mlp_fc2_weight_to_fp16 = const()[name = tensor<string, []>("text_encoder_text_model_encoder_layers_5_mlp_fc2_weight_to_fp16"), val = tensor<fp16, [1024, 4096]>(BLOBFILE(path = tensor<string, []>("@model_path/weights/weight.bin"), offset = tensor<uint64, []>(244127488)))];
            tensor<fp16, [1024]> text_encoder_text_model_encoder_layers_5_mlp_fc2_bias_to_fp16 = const()[name = tensor<string, []>("text_encoder_text_model_encoder_layers_5_mlp_fc2_bias_to_fp16"), val = tensor<fp16, [1024]>(BLOBFILE(path = tensor<string, []>("@model_path/weights/weight.bin"), offset = tensor<uint64, []>(252516160)))];
            tensor<fp16, [1, 77, 1024]> hidden_states_35_cast = linear(bias = text_encoder_text_model_encoder_layers_5_mlp_fc2_bias_to_fp16, weight = text_encoder_text_model_encoder_layers_5_mlp_fc2_weight_to_fp16, x = input_97_cast);
            tensor<fp16, [1, 77, 1024]> input_99_cast = add(x = input_91_cast, y = hidden_states_35_cast);
            tensor<int32, [1]> hidden_states_37_axes_0 = const()[name = tensor<string, []>("hidden_states_37_axes_0"), val = tensor<int32, [1]>([-1])];
            tensor<fp16, [1024]> text_encoder_text_model_encoder_layers_6_layer_norm1_weight_to_fp16 = const()[name = tensor<string, []>("text_encoder_text_model_encoder_layers_6_layer_norm1_weight_to_fp16"), val = tensor<fp16, [1024]>(BLOBFILE(path = tensor<string, []>("@model_path/weights/weight.bin"), offset = tensor<uint64, []>(252518272)))];
            tensor<fp16, [1024]> text_encoder_text_model_encoder_layers_6_layer_norm1_bias_to_fp16 = const()[name = tensor<string, []>("text_encoder_text_model_encoder_layers_6_layer_norm1_bias_to_fp16"), val = tensor<fp16, [1024]>(BLOBFILE(path = tensor<string, []>("@model_path/weights/weight.bin"), offset = tensor<uint64, []>(252520384)))];
            tensor<fp16, [1, 77, 1024]> hidden_states_37_cast = layer_norm(axes = hidden_states_37_axes_0, beta = text_encoder_text_model_encoder_layers_6_layer_norm1_bias_to_fp16, epsilon = var_12_to_fp16, gamma = text_encoder_text_model_encoder_layers_6_layer_norm1_weight_to_fp16, x = input_99_cast);
            tensor<fp16, [1024, 1024]> text_encoder_text_model_encoder_layers_6_self_attn_q_proj_weight_to_fp16 = const()[name = tensor<string, []>("text_encoder_text_model_encoder_layers_6_self_attn_q_proj_weight_to_fp16"), val = tensor<fp16, [1024, 1024]>(BLOBFILE(path = tensor<string, []>("@model_path/weights/weight.bin"), offset = tensor<uint64, []>(252522496)))];
            tensor<fp16, [1024]> text_encoder_text_model_encoder_layers_6_self_attn_q_proj_bias_to_fp16 = const()[name = tensor<string, []>("text_encoder_text_model_encoder_layers_6_self_attn_q_proj_bias_to_fp16"), val = tensor<fp16, [1024]>(BLOBFILE(path = tensor<string, []>("@model_path/weights/weight.bin"), offset = tensor<uint64, []>(254619712)))];
            tensor<fp16, [1, 77, 1024]> var_632_cast = linear(bias = text_encoder_text_model_encoder_layers_6_self_attn_q_proj_bias_to_fp16, weight = text_encoder_text_model_encoder_layers_6_self_attn_q_proj_weight_to_fp16, x = hidden_states_37_cast);
            tensor<fp16, []> var_633_to_fp16 = const()[name = tensor<string, []>("op_633_to_fp16"), val = tensor<fp16, []>(0x1p-3)];
            tensor<fp16, [1, 77, 1024]> tensor_41_cast = mul(x = var_632_cast, y = var_633_to_fp16);
            tensor<fp16, [1024, 1024]> text_encoder_text_model_encoder_layers_6_self_attn_k_proj_weight_to_fp16 = const()[name = tensor<string, []>("text_encoder_text_model_encoder_layers_6_self_attn_k_proj_weight_to_fp16"), val = tensor<fp16, [1024, 1024]>(BLOBFILE(path = tensor<string, []>("@model_path/weights/weight.bin"), offset = tensor<uint64, []>(254621824)))];
            tensor<fp16, [1024]> text_encoder_text_model_encoder_layers_6_self_attn_k_proj_bias_to_fp16 = const()[name = tensor<string, []>("text_encoder_text_model_encoder_layers_6_self_attn_k_proj_bias_to_fp16"), val = tensor<fp16, [1024]>(BLOBFILE(path = tensor<string, []>("@model_path/weights/weight.bin"), offset = tensor<uint64, []>(256719040)))];
            tensor<fp16, [1, 77, 1024]> tensor_37_cast = linear(bias = text_encoder_text_model_encoder_layers_6_self_attn_k_proj_bias_to_fp16, weight = text_encoder_text_model_encoder_layers_6_self_attn_k_proj_weight_to_fp16, x = hidden_states_37_cast);
            tensor<int32, [4]> var_638 = const()[name = tensor<string, []>("op_638"), val = tensor<int32, [4]>([1, -1, 16, 64])];
            tensor<fp16, [1, 77, 16, 64]> var_639_cast = reshape(shape = var_638, x = tensor_37_cast);
            tensor<int32, [4]> var_640_perm_0 = const()[name = tensor<string, []>("op_640_perm_0"), val = tensor<int32, [4]>([0, 2, 1, 3])];
            tensor<fp16, [1024, 1024]> text_encoder_text_model_encoder_layers_6_self_attn_v_proj_weight_to_fp16 = const()[name = tensor<string, []>("text_encoder_text_model_encoder_layers_6_self_attn_v_proj_weight_to_fp16"), val = tensor<fp16, [1024, 1024]>(BLOBFILE(path = tensor<string, []>("@model_path/weights/weight.bin"), offset = tensor<uint64, []>(256721152)))];
            tensor<fp16, [1024]> text_encoder_text_model_encoder_layers_6_self_attn_v_proj_bias_to_fp16 = const()[name = tensor<string, []>("text_encoder_text_model_encoder_layers_6_self_attn_v_proj_bias_to_fp16"), val = tensor<fp16, [1024]>(BLOBFILE(path = tensor<string, []>("@model_path/weights/weight.bin"), offset = tensor<uint64, []>(258818368)))];
            tensor<fp16, [1, 77, 1024]> tensor_39_cast = linear(bias = text_encoder_text_model_encoder_layers_6_self_attn_v_proj_bias_to_fp16, weight = text_encoder_text_model_encoder_layers_6_self_attn_v_proj_weight_to_fp16, x = hidden_states_37_cast);
            tensor<int32, [4]> var_645 = const()[name = tensor<string, []>("op_645"), val = tensor<int32, [4]>([1, -1, 16, 64])];
            tensor<fp16, [1, 77, 16, 64]> var_646_cast = reshape(shape = var_645, x = tensor_39_cast);
            tensor<int32, [4]> var_647_perm_0 = const()[name = tensor<string, []>("op_647_perm_0"), val = tensor<int32, [4]>([0, 2, 1, 3])];
            tensor<int32, [4]> var_654 = const()[name = tensor<string, []>("op_654"), val = tensor<int32, [4]>([1, 77, 16, 64])];
            tensor<fp16, [1, 77, 16, 64]> var_655_cast = reshape(shape = var_654, x = tensor_41_cast);
            tensor<int32, [4]> var_656_perm_0 = const()[name = tensor<string, []>("op_656_perm_0"), val = tensor<int32, [4]>([0, 2, 1, 3])];
            tensor<int32, [3]> var_658 = const()[name = tensor<string, []>("op_658"), val = tensor<int32, [3]>([16, -1, 64])];
            tensor<fp16, [1, 16, 77, 64]> transpose_83 = transpose(perm = var_656_perm_0, x = var_655_cast);
            tensor<fp16, [16, 77, 64]> query_states_13_cast = reshape(shape = var_658, x = transpose_83);
            tensor<int32, [3]> var_660 = const()[name = tensor<string, []>("op_660"), val = tensor<int32, [3]>([16, -1, 64])];
            tensor<fp16, [1, 16, 77, 64]> transpose_85 = transpose(perm = var_640_perm_0, x = var_639_cast);
            tensor<fp16, [16, 77, 64]> key_states_27_cast = reshape(shape = var_660, x = transpose_85);
            tensor<int32, [3]> var_662 = const()[name = tensor<string, []>("op_662"), val = tensor<int32, [3]>([16, -1, 64])];
            tensor<fp16, [1, 16, 77, 64]> transpose_84 = transpose(perm = var_647_perm_0, x = var_646_cast);
            tensor<fp16, [16, 77, 64]> value_states_27_cast = reshape(shape = var_662, x = transpose_84);
            tensor<int32, [3]> var_665_perm_0 = const()[name = tensor<string, []>("op_665_perm_0"), val = tensor<int32, [3]>([0, 2, 1])];
            tensor<bool, []> attn_weights_37_transpose_x_0 = const()[name = tensor<string, []>("attn_weights_37_transpose_x_0"), val = tensor<bool, []>(false)];
            tensor<bool, []> attn_weights_37_transpose_y_0 = const()[name = tensor<string, []>("attn_weights_37_transpose_y_0"), val = tensor<bool, []>(false)];
            tensor<fp16, [16, 64, 77]> transpose_82 = transpose(perm = var_665_perm_0, x = key_states_27_cast);
            tensor<fp16, [16, 77, 77]> attn_weights_37_cast = matmul(transpose_x = attn_weights_37_transpose_x_0, transpose_y = attn_weights_37_transpose_y_0, x = query_states_13_cast, y = transpose_82);
            tensor<int32, [4]> var_667 = const()[name = tensor<string, []>("op_667"), val = tensor<int32, [4]>([1, 16, 77, 77])];
            tensor<fp16, [1, 16, 77, 77]> var_668_cast = reshape(shape = var_667, x = attn_weights_37_cast);
            tensor<fp16, [1, 16, 77, 77]> attn_weights_39_cast = add(x = var_668_cast, y = var_44_cast);
            tensor<int32, [3]> var_673 = const()[name = tensor<string, []>("op_673"), val = tensor<int32, [3]>([16, 77, 77])];
            tensor<fp16, [16, 77, 77]> input_101_cast = reshape(shape = var_673, x = attn_weights_39_cast);
            tensor<fp16, [16, 77, 77]> input_103_cast = softmax(axis = var_5, x = input_101_cast);
            tensor<bool, []> attn_output_37_transpose_x_0 = const()[name = tensor<string, []>("attn_output_37_transpose_x_0"), val = tensor<bool, []>(false)];
            tensor<bool, []> attn_output_37_transpose_y_0 = const()[name = tensor<string, []>("attn_output_37_transpose_y_0"), val = tensor<bool, []>(false)];
            tensor<fp16, [16, 77, 64]> attn_output_37_cast = matmul(transpose_x = attn_output_37_transpose_x_0, transpose_y = attn_output_37_transpose_y_0, x = input_103_cast, y = value_states_27_cast);
            tensor<int32, [4]> var_678 = const()[name = tensor<string, []>("op_678"), val = tensor<int32, [4]>([1, 16, 77, 64])];
            tensor<fp16, [1, 16, 77, 64]> attn_output_39_cast = reshape(shape = var_678, x = attn_output_37_cast);
            tensor<int32, [4]> attn_output_41_perm_0 = const()[name = tensor<string, []>("attn_output_41_perm_0"), val = tensor<int32, [4]>([0, 2, 1, 3])];
            tensor<int32, [3]> var_681 = const()[name = tensor<string, []>("op_681"), val = tensor<int32, [3]>([1, 77, 1024])];
            tensor<fp16, [1, 77, 16, 64]> transpose_81 = transpose(perm = attn_output_41_perm_0, x = attn_output_39_cast);
            tensor<fp16, [1, 77, 1024]> input_105_cast = reshape(shape = var_681, x = transpose_81);
            tensor<fp16, [1024, 1024]> text_encoder_text_model_encoder_layers_6_self_attn_out_proj_weight_to_fp16 = const()[name = tensor<string, []>("text_encoder_text_model_encoder_layers_6_self_attn_out_proj_weight_to_fp16"), val = tensor<fp16, [1024, 1024]>(BLOBFILE(path = tensor<string, []>("@model_path/weights/weight.bin"), offset = tensor<uint64, []>(258820480)))];
            tensor<fp16, [1024]> text_encoder_text_model_encoder_layers_6_self_attn_out_proj_bias_to_fp16 = const()[name = tensor<string, []>("text_encoder_text_model_encoder_layers_6_self_attn_out_proj_bias_to_fp16"), val = tensor<fp16, [1024]>(BLOBFILE(path = tensor<string, []>("@model_path/weights/weight.bin"), offset = tensor<uint64, []>(260917696)))];
            tensor<fp16, [1, 77, 1024]> hidden_states_39_cast = linear(bias = text_encoder_text_model_encoder_layers_6_self_attn_out_proj_bias_to_fp16, weight = text_encoder_text_model_encoder_layers_6_self_attn_out_proj_weight_to_fp16, x = input_105_cast);
            tensor<fp16, [1, 77, 1024]> input_107_cast = add(x = input_99_cast, y = hidden_states_39_cast);
            tensor<int32, [1]> input_109_axes_0 = const()[name = tensor<string, []>("input_109_axes_0"), val = tensor<int32, [1]>([-1])];
            tensor<fp16, [1024]> text_encoder_text_model_encoder_layers_6_layer_norm2_weight_to_fp16 = const()[name = tensor<string, []>("text_encoder_text_model_encoder_layers_6_layer_norm2_weight_to_fp16"), val = tensor<fp16, [1024]>(BLOBFILE(path = tensor<string, []>("@model_path/weights/weight.bin"), offset = tensor<uint64, []>(260919808)))];
            tensor<fp16, [1024]> text_encoder_text_model_encoder_layers_6_layer_norm2_bias_to_fp16 = const()[name = tensor<string, []>("text_encoder_text_model_encoder_layers_6_layer_norm2_bias_to_fp16"), val = tensor<fp16, [1024]>(BLOBFILE(path = tensor<string, []>("@model_path/weights/weight.bin"), offset = tensor<uint64, []>(260921920)))];
            tensor<fp16, [1, 77, 1024]> input_109_cast = layer_norm(axes = input_109_axes_0, beta = text_encoder_text_model_encoder_layers_6_layer_norm2_bias_to_fp16, epsilon = var_12_to_fp16, gamma = text_encoder_text_model_encoder_layers_6_layer_norm2_weight_to_fp16, x = input_107_cast);
            tensor<fp16, [4096, 1024]> text_encoder_text_model_encoder_layers_6_mlp_fc1_weight_to_fp16 = const()[name = tensor<string, []>("text_encoder_text_model_encoder_layers_6_mlp_fc1_weight_to_fp16"), val = tensor<fp16, [4096, 1024]>(BLOBFILE(path = tensor<string, []>("@model_path/weights/weight.bin"), offset = tensor<uint64, []>(260924032)))];
            tensor<fp16, [4096]> text_encoder_text_model_encoder_layers_6_mlp_fc1_bias_to_fp16 = const()[name = tensor<string, []>("text_encoder_text_model_encoder_layers_6_mlp_fc1_bias_to_fp16"), val = tensor<fp16, [4096]>(BLOBFILE(path = tensor<string, []>("@model_path/weights/weight.bin"), offset = tensor<uint64, []>(269312704)))];
            tensor<fp16, [1, 77, 4096]> input_111_cast = linear(bias = text_encoder_text_model_encoder_layers_6_mlp_fc1_bias_to_fp16, weight = text_encoder_text_model_encoder_layers_6_mlp_fc1_weight_to_fp16, x = input_109_cast);
            tensor<string, []> input_113_mode_0 = const()[name = tensor<string, []>("input_113_mode_0"), val = tensor<string, []>("EXACT")];
            tensor<fp16, [1, 77, 4096]> input_113_cast = gelu(mode = input_113_mode_0, x = input_111_cast);
            tensor<fp16, [1024, 4096]> text_encoder_text_model_encoder_layers_6_mlp_fc2_weight_to_fp16 = const()[name = tensor<string, []>("text_encoder_text_model_encoder_layers_6_mlp_fc2_weight_to_fp16"), val = tensor<fp16, [1024, 4096]>(BLOBFILE(path = tensor<string, []>("@model_path/weights/weight.bin"), offset = tensor<uint64, []>(269320960)))];
            tensor<fp16, [1024]> text_encoder_text_model_encoder_layers_6_mlp_fc2_bias_to_fp16 = const()[name = tensor<string, []>("text_encoder_text_model_encoder_layers_6_mlp_fc2_bias_to_fp16"), val = tensor<fp16, [1024]>(BLOBFILE(path = tensor<string, []>("@model_path/weights/weight.bin"), offset = tensor<uint64, []>(277709632)))];
            tensor<fp16, [1, 77, 1024]> hidden_states_41_cast = linear(bias = text_encoder_text_model_encoder_layers_6_mlp_fc2_bias_to_fp16, weight = text_encoder_text_model_encoder_layers_6_mlp_fc2_weight_to_fp16, x = input_113_cast);
            tensor<fp16, [1, 77, 1024]> input_115_cast = add(x = input_107_cast, y = hidden_states_41_cast);
            tensor<int32, [1]> hidden_states_43_axes_0 = const()[name = tensor<string, []>("hidden_states_43_axes_0"), val = tensor<int32, [1]>([-1])];
            tensor<fp16, [1024]> text_encoder_text_model_encoder_layers_7_layer_norm1_weight_to_fp16 = const()[name = tensor<string, []>("text_encoder_text_model_encoder_layers_7_layer_norm1_weight_to_fp16"), val = tensor<fp16, [1024]>(BLOBFILE(path = tensor<string, []>("@model_path/weights/weight.bin"), offset = tensor<uint64, []>(277711744)))];
            tensor<fp16, [1024]> text_encoder_text_model_encoder_layers_7_layer_norm1_bias_to_fp16 = const()[name = tensor<string, []>("text_encoder_text_model_encoder_layers_7_layer_norm1_bias_to_fp16"), val = tensor<fp16, [1024]>(BLOBFILE(path = tensor<string, []>("@model_path/weights/weight.bin"), offset = tensor<uint64, []>(277713856)))];
            tensor<fp16, [1, 77, 1024]> hidden_states_43_cast = layer_norm(axes = hidden_states_43_axes_0, beta = text_encoder_text_model_encoder_layers_7_layer_norm1_bias_to_fp16, epsilon = var_12_to_fp16, gamma = text_encoder_text_model_encoder_layers_7_layer_norm1_weight_to_fp16, x = input_115_cast);
            tensor<fp16, [1024, 1024]> text_encoder_text_model_encoder_layers_7_self_attn_q_proj_weight_to_fp16 = const()[name = tensor<string, []>("text_encoder_text_model_encoder_layers_7_self_attn_q_proj_weight_to_fp16"), val = tensor<fp16, [1024, 1024]>(BLOBFILE(path = tensor<string, []>("@model_path/weights/weight.bin"), offset = tensor<uint64, []>(277715968)))];
            tensor<fp16, [1024]> text_encoder_text_model_encoder_layers_7_self_attn_q_proj_bias_to_fp16 = const()[name = tensor<string, []>("text_encoder_text_model_encoder_layers_7_self_attn_q_proj_bias_to_fp16"), val = tensor<fp16, [1024]>(BLOBFILE(path = tensor<string, []>("@model_path/weights/weight.bin"), offset = tensor<uint64, []>(279813184)))];
            tensor<fp16, [1, 77, 1024]> var_719_cast = linear(bias = text_encoder_text_model_encoder_layers_7_self_attn_q_proj_bias_to_fp16, weight = text_encoder_text_model_encoder_layers_7_self_attn_q_proj_weight_to_fp16, x = hidden_states_43_cast);
            tensor<fp16, []> var_720_to_fp16 = const()[name = tensor<string, []>("op_720_to_fp16"), val = tensor<fp16, []>(0x1p-3)];
            tensor<fp16, [1, 77, 1024]> tensor_47_cast = mul(x = var_719_cast, y = var_720_to_fp16);
            tensor<fp16, [1024, 1024]> text_encoder_text_model_encoder_layers_7_self_attn_k_proj_weight_to_fp16 = const()[name = tensor<string, []>("text_encoder_text_model_encoder_layers_7_self_attn_k_proj_weight_to_fp16"), val = tensor<fp16, [1024, 1024]>(BLOBFILE(path = tensor<string, []>("@model_path/weights/weight.bin"), offset = tensor<uint64, []>(279815296)))];
            tensor<fp16, [1024]> text_encoder_text_model_encoder_layers_7_self_attn_k_proj_bias_to_fp16 = const()[name = tensor<string, []>("text_encoder_text_model_encoder_layers_7_self_attn_k_proj_bias_to_fp16"), val = tensor<fp16, [1024]>(BLOBFILE(path = tensor<string, []>("@model_path/weights/weight.bin"), offset = tensor<uint64, []>(281912512)))];
            tensor<fp16, [1, 77, 1024]> tensor_43_cast = linear(bias = text_encoder_text_model_encoder_layers_7_self_attn_k_proj_bias_to_fp16, weight = text_encoder_text_model_encoder_layers_7_self_attn_k_proj_weight_to_fp16, x = hidden_states_43_cast);
            tensor<int32, [4]> var_725 = const()[name = tensor<string, []>("op_725"), val = tensor<int32, [4]>([1, -1, 16, 64])];
            tensor<fp16, [1, 77, 16, 64]> var_726_cast = reshape(shape = var_725, x = tensor_43_cast);
            tensor<int32, [4]> var_727_perm_0 = const()[name = tensor<string, []>("op_727_perm_0"), val = tensor<int32, [4]>([0, 2, 1, 3])];
            tensor<fp16, [1024, 1024]> text_encoder_text_model_encoder_layers_7_self_attn_v_proj_weight_to_fp16 = const()[name = tensor<string, []>("text_encoder_text_model_encoder_layers_7_self_attn_v_proj_weight_to_fp16"), val = tensor<fp16, [1024, 1024]>(BLOBFILE(path = tensor<string, []>("@model_path/weights/weight.bin"), offset = tensor<uint64, []>(281914624)))];
            tensor<fp16, [1024]> text_encoder_text_model_encoder_layers_7_self_attn_v_proj_bias_to_fp16 = const()[name = tensor<string, []>("text_encoder_text_model_encoder_layers_7_self_attn_v_proj_bias_to_fp16"), val = tensor<fp16, [1024]>(BLOBFILE(path = tensor<string, []>("@model_path/weights/weight.bin"), offset = tensor<uint64, []>(284011840)))];
            tensor<fp16, [1, 77, 1024]> tensor_45_cast = linear(bias = text_encoder_text_model_encoder_layers_7_self_attn_v_proj_bias_to_fp16, weight = text_encoder_text_model_encoder_layers_7_self_attn_v_proj_weight_to_fp16, x = hidden_states_43_cast);
            tensor<int32, [4]> var_732 = const()[name = tensor<string, []>("op_732"), val = tensor<int32, [4]>([1, -1, 16, 64])];
            tensor<fp16, [1, 77, 16, 64]> var_733_cast = reshape(shape = var_732, x = tensor_45_cast);
            tensor<int32, [4]> var_734_perm_0 = const()[name = tensor<string, []>("op_734_perm_0"), val = tensor<int32, [4]>([0, 2, 1, 3])];
            tensor<int32, [4]> var_741 = const()[name = tensor<string, []>("op_741"), val = tensor<int32, [4]>([1, 77, 16, 64])];
            tensor<fp16, [1, 77, 16, 64]> var_742_cast = reshape(shape = var_741, x = tensor_47_cast);
            tensor<int32, [4]> var_743_perm_0 = const()[name = tensor<string, []>("op_743_perm_0"), val = tensor<int32, [4]>([0, 2, 1, 3])];
            tensor<int32, [3]> var_745 = const()[name = tensor<string, []>("op_745"), val = tensor<int32, [3]>([16, -1, 64])];
            tensor<fp16, [1, 16, 77, 64]> transpose_78 = transpose(perm = var_743_perm_0, x = var_742_cast);
            tensor<fp16, [16, 77, 64]> query_states_15_cast = reshape(shape = var_745, x = transpose_78);
            tensor<int32, [3]> var_747 = const()[name = tensor<string, []>("op_747"), val = tensor<int32, [3]>([16, -1, 64])];
            tensor<fp16, [1, 16, 77, 64]> transpose_80 = transpose(perm = var_727_perm_0, x = var_726_cast);
            tensor<fp16, [16, 77, 64]> key_states_31_cast = reshape(shape = var_747, x = transpose_80);
            tensor<int32, [3]> var_749 = const()[name = tensor<string, []>("op_749"), val = tensor<int32, [3]>([16, -1, 64])];
            tensor<fp16, [1, 16, 77, 64]> transpose_79 = transpose(perm = var_734_perm_0, x = var_733_cast);
            tensor<fp16, [16, 77, 64]> value_states_31_cast = reshape(shape = var_749, x = transpose_79);
            tensor<int32, [3]> var_752_perm_0 = const()[name = tensor<string, []>("op_752_perm_0"), val = tensor<int32, [3]>([0, 2, 1])];
            tensor<bool, []> attn_weights_43_transpose_x_0 = const()[name = tensor<string, []>("attn_weights_43_transpose_x_0"), val = tensor<bool, []>(false)];
            tensor<bool, []> attn_weights_43_transpose_y_0 = const()[name = tensor<string, []>("attn_weights_43_transpose_y_0"), val = tensor<bool, []>(false)];
            tensor<fp16, [16, 64, 77]> transpose_77 = transpose(perm = var_752_perm_0, x = key_states_31_cast);
            tensor<fp16, [16, 77, 77]> attn_weights_43_cast = matmul(transpose_x = attn_weights_43_transpose_x_0, transpose_y = attn_weights_43_transpose_y_0, x = query_states_15_cast, y = transpose_77);
            tensor<int32, [4]> var_754 = const()[name = tensor<string, []>("op_754"), val = tensor<int32, [4]>([1, 16, 77, 77])];
            tensor<fp16, [1, 16, 77, 77]> var_755_cast = reshape(shape = var_754, x = attn_weights_43_cast);
            tensor<fp16, [1, 16, 77, 77]> attn_weights_45_cast = add(x = var_755_cast, y = var_44_cast);
            tensor<int32, [3]> var_760 = const()[name = tensor<string, []>("op_760"), val = tensor<int32, [3]>([16, 77, 77])];
            tensor<fp16, [16, 77, 77]> input_117_cast = reshape(shape = var_760, x = attn_weights_45_cast);
            tensor<fp16, [16, 77, 77]> input_119_cast = softmax(axis = var_5, x = input_117_cast);
            tensor<bool, []> attn_output_43_transpose_x_0 = const()[name = tensor<string, []>("attn_output_43_transpose_x_0"), val = tensor<bool, []>(false)];
            tensor<bool, []> attn_output_43_transpose_y_0 = const()[name = tensor<string, []>("attn_output_43_transpose_y_0"), val = tensor<bool, []>(false)];
            tensor<fp16, [16, 77, 64]> attn_output_43_cast = matmul(transpose_x = attn_output_43_transpose_x_0, transpose_y = attn_output_43_transpose_y_0, x = input_119_cast, y = value_states_31_cast);
            tensor<int32, [4]> var_765 = const()[name = tensor<string, []>("op_765"), val = tensor<int32, [4]>([1, 16, 77, 64])];
            tensor<fp16, [1, 16, 77, 64]> attn_output_45_cast = reshape(shape = var_765, x = attn_output_43_cast);
            tensor<int32, [4]> attn_output_47_perm_0 = const()[name = tensor<string, []>("attn_output_47_perm_0"), val = tensor<int32, [4]>([0, 2, 1, 3])];
            tensor<int32, [3]> var_768 = const()[name = tensor<string, []>("op_768"), val = tensor<int32, [3]>([1, 77, 1024])];
            tensor<fp16, [1, 77, 16, 64]> transpose_76 = transpose(perm = attn_output_47_perm_0, x = attn_output_45_cast);
            tensor<fp16, [1, 77, 1024]> input_121_cast = reshape(shape = var_768, x = transpose_76);
            tensor<fp16, [1024, 1024]> text_encoder_text_model_encoder_layers_7_self_attn_out_proj_weight_to_fp16 = const()[name = tensor<string, []>("text_encoder_text_model_encoder_layers_7_self_attn_out_proj_weight_to_fp16"), val = tensor<fp16, [1024, 1024]>(BLOBFILE(path = tensor<string, []>("@model_path/weights/weight.bin"), offset = tensor<uint64, []>(284013952)))];
            tensor<fp16, [1024]> text_encoder_text_model_encoder_layers_7_self_attn_out_proj_bias_to_fp16 = const()[name = tensor<string, []>("text_encoder_text_model_encoder_layers_7_self_attn_out_proj_bias_to_fp16"), val = tensor<fp16, [1024]>(BLOBFILE(path = tensor<string, []>("@model_path/weights/weight.bin"), offset = tensor<uint64, []>(286111168)))];
            tensor<fp16, [1, 77, 1024]> hidden_states_45_cast = linear(bias = text_encoder_text_model_encoder_layers_7_self_attn_out_proj_bias_to_fp16, weight = text_encoder_text_model_encoder_layers_7_self_attn_out_proj_weight_to_fp16, x = input_121_cast);
            tensor<fp16, [1, 77, 1024]> input_123_cast = add(x = input_115_cast, y = hidden_states_45_cast);
            tensor<int32, [1]> input_125_axes_0 = const()[name = tensor<string, []>("input_125_axes_0"), val = tensor<int32, [1]>([-1])];
            tensor<fp16, [1024]> text_encoder_text_model_encoder_layers_7_layer_norm2_weight_to_fp16 = const()[name = tensor<string, []>("text_encoder_text_model_encoder_layers_7_layer_norm2_weight_to_fp16"), val = tensor<fp16, [1024]>(BLOBFILE(path = tensor<string, []>("@model_path/weights/weight.bin"), offset = tensor<uint64, []>(286113280)))];
            tensor<fp16, [1024]> text_encoder_text_model_encoder_layers_7_layer_norm2_bias_to_fp16 = const()[name = tensor<string, []>("text_encoder_text_model_encoder_layers_7_layer_norm2_bias_to_fp16"), val = tensor<fp16, [1024]>(BLOBFILE(path = tensor<string, []>("@model_path/weights/weight.bin"), offset = tensor<uint64, []>(286115392)))];
            tensor<fp16, [1, 77, 1024]> input_125_cast = layer_norm(axes = input_125_axes_0, beta = text_encoder_text_model_encoder_layers_7_layer_norm2_bias_to_fp16, epsilon = var_12_to_fp16, gamma = text_encoder_text_model_encoder_layers_7_layer_norm2_weight_to_fp16, x = input_123_cast);
            tensor<fp16, [4096, 1024]> text_encoder_text_model_encoder_layers_7_mlp_fc1_weight_to_fp16 = const()[name = tensor<string, []>("text_encoder_text_model_encoder_layers_7_mlp_fc1_weight_to_fp16"), val = tensor<fp16, [4096, 1024]>(BLOBFILE(path = tensor<string, []>("@model_path/weights/weight.bin"), offset = tensor<uint64, []>(286117504)))];
            tensor<fp16, [4096]> text_encoder_text_model_encoder_layers_7_mlp_fc1_bias_to_fp16 = const()[name = tensor<string, []>("text_encoder_text_model_encoder_layers_7_mlp_fc1_bias_to_fp16"), val = tensor<fp16, [4096]>(BLOBFILE(path = tensor<string, []>("@model_path/weights/weight.bin"), offset = tensor<uint64, []>(294506176)))];
            tensor<fp16, [1, 77, 4096]> input_127_cast = linear(bias = text_encoder_text_model_encoder_layers_7_mlp_fc1_bias_to_fp16, weight = text_encoder_text_model_encoder_layers_7_mlp_fc1_weight_to_fp16, x = input_125_cast);
            tensor<string, []> input_129_mode_0 = const()[name = tensor<string, []>("input_129_mode_0"), val = tensor<string, []>("EXACT")];
            tensor<fp16, [1, 77, 4096]> input_129_cast = gelu(mode = input_129_mode_0, x = input_127_cast);
            tensor<fp16, [1024, 4096]> text_encoder_text_model_encoder_layers_7_mlp_fc2_weight_to_fp16 = const()[name = tensor<string, []>("text_encoder_text_model_encoder_layers_7_mlp_fc2_weight_to_fp16"), val = tensor<fp16, [1024, 4096]>(BLOBFILE(path = tensor<string, []>("@model_path/weights/weight.bin"), offset = tensor<uint64, []>(294514432)))];
            tensor<fp16, [1024]> text_encoder_text_model_encoder_layers_7_mlp_fc2_bias_to_fp16 = const()[name = tensor<string, []>("text_encoder_text_model_encoder_layers_7_mlp_fc2_bias_to_fp16"), val = tensor<fp16, [1024]>(BLOBFILE(path = tensor<string, []>("@model_path/weights/weight.bin"), offset = tensor<uint64, []>(302903104)))];
            tensor<fp16, [1, 77, 1024]> hidden_states_47_cast = linear(bias = text_encoder_text_model_encoder_layers_7_mlp_fc2_bias_to_fp16, weight = text_encoder_text_model_encoder_layers_7_mlp_fc2_weight_to_fp16, x = input_129_cast);
            tensor<fp16, [1, 77, 1024]> input_131_cast = add(x = input_123_cast, y = hidden_states_47_cast);
            tensor<int32, [1]> hidden_states_49_axes_0 = const()[name = tensor<string, []>("hidden_states_49_axes_0"), val = tensor<int32, [1]>([-1])];
            tensor<fp16, [1024]> text_encoder_text_model_encoder_layers_8_layer_norm1_weight_to_fp16 = const()[name = tensor<string, []>("text_encoder_text_model_encoder_layers_8_layer_norm1_weight_to_fp16"), val = tensor<fp16, [1024]>(BLOBFILE(path = tensor<string, []>("@model_path/weights/weight.bin"), offset = tensor<uint64, []>(302905216)))];
            tensor<fp16, [1024]> text_encoder_text_model_encoder_layers_8_layer_norm1_bias_to_fp16 = const()[name = tensor<string, []>("text_encoder_text_model_encoder_layers_8_layer_norm1_bias_to_fp16"), val = tensor<fp16, [1024]>(BLOBFILE(path = tensor<string, []>("@model_path/weights/weight.bin"), offset = tensor<uint64, []>(302907328)))];
            tensor<fp16, [1, 77, 1024]> hidden_states_49_cast = layer_norm(axes = hidden_states_49_axes_0, beta = text_encoder_text_model_encoder_layers_8_layer_norm1_bias_to_fp16, epsilon = var_12_to_fp16, gamma = text_encoder_text_model_encoder_layers_8_layer_norm1_weight_to_fp16, x = input_131_cast);
            tensor<fp16, [1024, 1024]> text_encoder_text_model_encoder_layers_8_self_attn_q_proj_weight_to_fp16 = const()[name = tensor<string, []>("text_encoder_text_model_encoder_layers_8_self_attn_q_proj_weight_to_fp16"), val = tensor<fp16, [1024, 1024]>(BLOBFILE(path = tensor<string, []>("@model_path/weights/weight.bin"), offset = tensor<uint64, []>(302909440)))];
            tensor<fp16, [1024]> text_encoder_text_model_encoder_layers_8_self_attn_q_proj_bias_to_fp16 = const()[name = tensor<string, []>("text_encoder_text_model_encoder_layers_8_self_attn_q_proj_bias_to_fp16"), val = tensor<fp16, [1024]>(BLOBFILE(path = tensor<string, []>("@model_path/weights/weight.bin"), offset = tensor<uint64, []>(305006656)))];
            tensor<fp16, [1, 77, 1024]> var_806_cast = linear(bias = text_encoder_text_model_encoder_layers_8_self_attn_q_proj_bias_to_fp16, weight = text_encoder_text_model_encoder_layers_8_self_attn_q_proj_weight_to_fp16, x = hidden_states_49_cast);
            tensor<fp16, []> var_807_to_fp16 = const()[name = tensor<string, []>("op_807_to_fp16"), val = tensor<fp16, []>(0x1p-3)];
            tensor<fp16, [1, 77, 1024]> tensor_53_cast = mul(x = var_806_cast, y = var_807_to_fp16);
            tensor<fp16, [1024, 1024]> text_encoder_text_model_encoder_layers_8_self_attn_k_proj_weight_to_fp16 = const()[name = tensor<string, []>("text_encoder_text_model_encoder_layers_8_self_attn_k_proj_weight_to_fp16"), val = tensor<fp16, [1024, 1024]>(BLOBFILE(path = tensor<string, []>("@model_path/weights/weight.bin"), offset = tensor<uint64, []>(305008768)))];
            tensor<fp16, [1024]> text_encoder_text_model_encoder_layers_8_self_attn_k_proj_bias_to_fp16 = const()[name = tensor<string, []>("text_encoder_text_model_encoder_layers_8_self_attn_k_proj_bias_to_fp16"), val = tensor<fp16, [1024]>(BLOBFILE(path = tensor<string, []>("@model_path/weights/weight.bin"), offset = tensor<uint64, []>(307105984)))];
            tensor<fp16, [1, 77, 1024]> tensor_49_cast = linear(bias = text_encoder_text_model_encoder_layers_8_self_attn_k_proj_bias_to_fp16, weight = text_encoder_text_model_encoder_layers_8_self_attn_k_proj_weight_to_fp16, x = hidden_states_49_cast);
            tensor<int32, [4]> var_812 = const()[name = tensor<string, []>("op_812"), val = tensor<int32, [4]>([1, -1, 16, 64])];
            tensor<fp16, [1, 77, 16, 64]> var_813_cast = reshape(shape = var_812, x = tensor_49_cast);
            tensor<int32, [4]> var_814_perm_0 = const()[name = tensor<string, []>("op_814_perm_0"), val = tensor<int32, [4]>([0, 2, 1, 3])];
            tensor<fp16, [1024, 1024]> text_encoder_text_model_encoder_layers_8_self_attn_v_proj_weight_to_fp16 = const()[name = tensor<string, []>("text_encoder_text_model_encoder_layers_8_self_attn_v_proj_weight_to_fp16"), val = tensor<fp16, [1024, 1024]>(BLOBFILE(path = tensor<string, []>("@model_path/weights/weight.bin"), offset = tensor<uint64, []>(307108096)))];
            tensor<fp16, [1024]> text_encoder_text_model_encoder_layers_8_self_attn_v_proj_bias_to_fp16 = const()[name = tensor<string, []>("text_encoder_text_model_encoder_layers_8_self_attn_v_proj_bias_to_fp16"), val = tensor<fp16, [1024]>(BLOBFILE(path = tensor<string, []>("@model_path/weights/weight.bin"), offset = tensor<uint64, []>(309205312)))];
            tensor<fp16, [1, 77, 1024]> tensor_51_cast = linear(bias = text_encoder_text_model_encoder_layers_8_self_attn_v_proj_bias_to_fp16, weight = text_encoder_text_model_encoder_layers_8_self_attn_v_proj_weight_to_fp16, x = hidden_states_49_cast);
            tensor<int32, [4]> var_819 = const()[name = tensor<string, []>("op_819"), val = tensor<int32, [4]>([1, -1, 16, 64])];
            tensor<fp16, [1, 77, 16, 64]> var_820_cast = reshape(shape = var_819, x = tensor_51_cast);
            tensor<int32, [4]> var_821_perm_0 = const()[name = tensor<string, []>("op_821_perm_0"), val = tensor<int32, [4]>([0, 2, 1, 3])];
            tensor<int32, [4]> var_828 = const()[name = tensor<string, []>("op_828"), val = tensor<int32, [4]>([1, 77, 16, 64])];
            tensor<fp16, [1, 77, 16, 64]> var_829_cast = reshape(shape = var_828, x = tensor_53_cast);
            tensor<int32, [4]> var_830_perm_0 = const()[name = tensor<string, []>("op_830_perm_0"), val = tensor<int32, [4]>([0, 2, 1, 3])];
            tensor<int32, [3]> var_832 = const()[name = tensor<string, []>("op_832"), val = tensor<int32, [3]>([16, -1, 64])];
            tensor<fp16, [1, 16, 77, 64]> transpose_73 = transpose(perm = var_830_perm_0, x = var_829_cast);
            tensor<fp16, [16, 77, 64]> query_states_17_cast = reshape(shape = var_832, x = transpose_73);
            tensor<int32, [3]> var_834 = const()[name = tensor<string, []>("op_834"), val = tensor<int32, [3]>([16, -1, 64])];
            tensor<fp16, [1, 16, 77, 64]> transpose_75 = transpose(perm = var_814_perm_0, x = var_813_cast);
            tensor<fp16, [16, 77, 64]> key_states_35_cast = reshape(shape = var_834, x = transpose_75);
            tensor<int32, [3]> var_836 = const()[name = tensor<string, []>("op_836"), val = tensor<int32, [3]>([16, -1, 64])];
            tensor<fp16, [1, 16, 77, 64]> transpose_74 = transpose(perm = var_821_perm_0, x = var_820_cast);
            tensor<fp16, [16, 77, 64]> value_states_35_cast = reshape(shape = var_836, x = transpose_74);
            tensor<int32, [3]> var_839_perm_0 = const()[name = tensor<string, []>("op_839_perm_0"), val = tensor<int32, [3]>([0, 2, 1])];
            tensor<bool, []> attn_weights_49_transpose_x_0 = const()[name = tensor<string, []>("attn_weights_49_transpose_x_0"), val = tensor<bool, []>(false)];
            tensor<bool, []> attn_weights_49_transpose_y_0 = const()[name = tensor<string, []>("attn_weights_49_transpose_y_0"), val = tensor<bool, []>(false)];
            tensor<fp16, [16, 64, 77]> transpose_72 = transpose(perm = var_839_perm_0, x = key_states_35_cast);
            tensor<fp16, [16, 77, 77]> attn_weights_49_cast = matmul(transpose_x = attn_weights_49_transpose_x_0, transpose_y = attn_weights_49_transpose_y_0, x = query_states_17_cast, y = transpose_72);
            tensor<int32, [4]> var_841 = const()[name = tensor<string, []>("op_841"), val = tensor<int32, [4]>([1, 16, 77, 77])];
            tensor<fp16, [1, 16, 77, 77]> var_842_cast = reshape(shape = var_841, x = attn_weights_49_cast);
            tensor<fp16, [1, 16, 77, 77]> attn_weights_51_cast = add(x = var_842_cast, y = var_44_cast);
            tensor<int32, [3]> var_847 = const()[name = tensor<string, []>("op_847"), val = tensor<int32, [3]>([16, 77, 77])];
            tensor<fp16, [16, 77, 77]> input_133_cast = reshape(shape = var_847, x = attn_weights_51_cast);
            tensor<fp16, [16, 77, 77]> input_135_cast = softmax(axis = var_5, x = input_133_cast);
            tensor<bool, []> attn_output_49_transpose_x_0 = const()[name = tensor<string, []>("attn_output_49_transpose_x_0"), val = tensor<bool, []>(false)];
            tensor<bool, []> attn_output_49_transpose_y_0 = const()[name = tensor<string, []>("attn_output_49_transpose_y_0"), val = tensor<bool, []>(false)];
            tensor<fp16, [16, 77, 64]> attn_output_49_cast = matmul(transpose_x = attn_output_49_transpose_x_0, transpose_y = attn_output_49_transpose_y_0, x = input_135_cast, y = value_states_35_cast);
            tensor<int32, [4]> var_852 = const()[name = tensor<string, []>("op_852"), val = tensor<int32, [4]>([1, 16, 77, 64])];
            tensor<fp16, [1, 16, 77, 64]> attn_output_51_cast = reshape(shape = var_852, x = attn_output_49_cast);
            tensor<int32, [4]> attn_output_53_perm_0 = const()[name = tensor<string, []>("attn_output_53_perm_0"), val = tensor<int32, [4]>([0, 2, 1, 3])];
            tensor<int32, [3]> var_855 = const()[name = tensor<string, []>("op_855"), val = tensor<int32, [3]>([1, 77, 1024])];
            tensor<fp16, [1, 77, 16, 64]> transpose_71 = transpose(perm = attn_output_53_perm_0, x = attn_output_51_cast);
            tensor<fp16, [1, 77, 1024]> input_137_cast = reshape(shape = var_855, x = transpose_71);
            tensor<fp16, [1024, 1024]> text_encoder_text_model_encoder_layers_8_self_attn_out_proj_weight_to_fp16 = const()[name = tensor<string, []>("text_encoder_text_model_encoder_layers_8_self_attn_out_proj_weight_to_fp16"), val = tensor<fp16, [1024, 1024]>(BLOBFILE(path = tensor<string, []>("@model_path/weights/weight.bin"), offset = tensor<uint64, []>(309207424)))];
            tensor<fp16, [1024]> text_encoder_text_model_encoder_layers_8_self_attn_out_proj_bias_to_fp16 = const()[name = tensor<string, []>("text_encoder_text_model_encoder_layers_8_self_attn_out_proj_bias_to_fp16"), val = tensor<fp16, [1024]>(BLOBFILE(path = tensor<string, []>("@model_path/weights/weight.bin"), offset = tensor<uint64, []>(311304640)))];
            tensor<fp16, [1, 77, 1024]> hidden_states_51_cast = linear(bias = text_encoder_text_model_encoder_layers_8_self_attn_out_proj_bias_to_fp16, weight = text_encoder_text_model_encoder_layers_8_self_attn_out_proj_weight_to_fp16, x = input_137_cast);
            tensor<fp16, [1, 77, 1024]> input_139_cast = add(x = input_131_cast, y = hidden_states_51_cast);
            tensor<int32, [1]> input_141_axes_0 = const()[name = tensor<string, []>("input_141_axes_0"), val = tensor<int32, [1]>([-1])];
            tensor<fp16, [1024]> text_encoder_text_model_encoder_layers_8_layer_norm2_weight_to_fp16 = const()[name = tensor<string, []>("text_encoder_text_model_encoder_layers_8_layer_norm2_weight_to_fp16"), val = tensor<fp16, [1024]>(BLOBFILE(path = tensor<string, []>("@model_path/weights/weight.bin"), offset = tensor<uint64, []>(311306752)))];
            tensor<fp16, [1024]> text_encoder_text_model_encoder_layers_8_layer_norm2_bias_to_fp16 = const()[name = tensor<string, []>("text_encoder_text_model_encoder_layers_8_layer_norm2_bias_to_fp16"), val = tensor<fp16, [1024]>(BLOBFILE(path = tensor<string, []>("@model_path/weights/weight.bin"), offset = tensor<uint64, []>(311308864)))];
            tensor<fp16, [1, 77, 1024]> input_141_cast = layer_norm(axes = input_141_axes_0, beta = text_encoder_text_model_encoder_layers_8_layer_norm2_bias_to_fp16, epsilon = var_12_to_fp16, gamma = text_encoder_text_model_encoder_layers_8_layer_norm2_weight_to_fp16, x = input_139_cast);
            tensor<fp16, [4096, 1024]> text_encoder_text_model_encoder_layers_8_mlp_fc1_weight_to_fp16 = const()[name = tensor<string, []>("text_encoder_text_model_encoder_layers_8_mlp_fc1_weight_to_fp16"), val = tensor<fp16, [4096, 1024]>(BLOBFILE(path = tensor<string, []>("@model_path/weights/weight.bin"), offset = tensor<uint64, []>(311310976)))];
            tensor<fp16, [4096]> text_encoder_text_model_encoder_layers_8_mlp_fc1_bias_to_fp16 = const()[name = tensor<string, []>("text_encoder_text_model_encoder_layers_8_mlp_fc1_bias_to_fp16"), val = tensor<fp16, [4096]>(BLOBFILE(path = tensor<string, []>("@model_path/weights/weight.bin"), offset = tensor<uint64, []>(319699648)))];
            tensor<fp16, [1, 77, 4096]> input_143_cast = linear(bias = text_encoder_text_model_encoder_layers_8_mlp_fc1_bias_to_fp16, weight = text_encoder_text_model_encoder_layers_8_mlp_fc1_weight_to_fp16, x = input_141_cast);
            tensor<string, []> input_145_mode_0 = const()[name = tensor<string, []>("input_145_mode_0"), val = tensor<string, []>("EXACT")];
            tensor<fp16, [1, 77, 4096]> input_145_cast = gelu(mode = input_145_mode_0, x = input_143_cast);
            tensor<fp16, [1024, 4096]> text_encoder_text_model_encoder_layers_8_mlp_fc2_weight_to_fp16 = const()[name = tensor<string, []>("text_encoder_text_model_encoder_layers_8_mlp_fc2_weight_to_fp16"), val = tensor<fp16, [1024, 4096]>(BLOBFILE(path = tensor<string, []>("@model_path/weights/weight.bin"), offset = tensor<uint64, []>(319707904)))];
            tensor<fp16, [1024]> text_encoder_text_model_encoder_layers_8_mlp_fc2_bias_to_fp16 = const()[name = tensor<string, []>("text_encoder_text_model_encoder_layers_8_mlp_fc2_bias_to_fp16"), val = tensor<fp16, [1024]>(BLOBFILE(path = tensor<string, []>("@model_path/weights/weight.bin"), offset = tensor<uint64, []>(328096576)))];
            tensor<fp16, [1, 77, 1024]> hidden_states_53_cast = linear(bias = text_encoder_text_model_encoder_layers_8_mlp_fc2_bias_to_fp16, weight = text_encoder_text_model_encoder_layers_8_mlp_fc2_weight_to_fp16, x = input_145_cast);
            tensor<fp16, [1, 77, 1024]> input_147_cast = add(x = input_139_cast, y = hidden_states_53_cast);
            tensor<int32, [1]> hidden_states_55_axes_0 = const()[name = tensor<string, []>("hidden_states_55_axes_0"), val = tensor<int32, [1]>([-1])];
            tensor<fp16, [1024]> text_encoder_text_model_encoder_layers_9_layer_norm1_weight_to_fp16 = const()[name = tensor<string, []>("text_encoder_text_model_encoder_layers_9_layer_norm1_weight_to_fp16"), val = tensor<fp16, [1024]>(BLOBFILE(path = tensor<string, []>("@model_path/weights/weight.bin"), offset = tensor<uint64, []>(328098688)))];
            tensor<fp16, [1024]> text_encoder_text_model_encoder_layers_9_layer_norm1_bias_to_fp16 = const()[name = tensor<string, []>("text_encoder_text_model_encoder_layers_9_layer_norm1_bias_to_fp16"), val = tensor<fp16, [1024]>(BLOBFILE(path = tensor<string, []>("@model_path/weights/weight.bin"), offset = tensor<uint64, []>(328100800)))];
            tensor<fp16, [1, 77, 1024]> hidden_states_55_cast = layer_norm(axes = hidden_states_55_axes_0, beta = text_encoder_text_model_encoder_layers_9_layer_norm1_bias_to_fp16, epsilon = var_12_to_fp16, gamma = text_encoder_text_model_encoder_layers_9_layer_norm1_weight_to_fp16, x = input_147_cast);
            tensor<fp16, [1024, 1024]> text_encoder_text_model_encoder_layers_9_self_attn_q_proj_weight_to_fp16 = const()[name = tensor<string, []>("text_encoder_text_model_encoder_layers_9_self_attn_q_proj_weight_to_fp16"), val = tensor<fp16, [1024, 1024]>(BLOBFILE(path = tensor<string, []>("@model_path/weights/weight.bin"), offset = tensor<uint64, []>(328102912)))];
            tensor<fp16, [1024]> text_encoder_text_model_encoder_layers_9_self_attn_q_proj_bias_to_fp16 = const()[name = tensor<string, []>("text_encoder_text_model_encoder_layers_9_self_attn_q_proj_bias_to_fp16"), val = tensor<fp16, [1024]>(BLOBFILE(path = tensor<string, []>("@model_path/weights/weight.bin"), offset = tensor<uint64, []>(330200128)))];
            tensor<fp16, [1, 77, 1024]> var_893_cast = linear(bias = text_encoder_text_model_encoder_layers_9_self_attn_q_proj_bias_to_fp16, weight = text_encoder_text_model_encoder_layers_9_self_attn_q_proj_weight_to_fp16, x = hidden_states_55_cast);
            tensor<fp16, []> var_894_to_fp16 = const()[name = tensor<string, []>("op_894_to_fp16"), val = tensor<fp16, []>(0x1p-3)];
            tensor<fp16, [1, 77, 1024]> tensor_59_cast = mul(x = var_893_cast, y = var_894_to_fp16);
            tensor<fp16, [1024, 1024]> text_encoder_text_model_encoder_layers_9_self_attn_k_proj_weight_to_fp16 = const()[name = tensor<string, []>("text_encoder_text_model_encoder_layers_9_self_attn_k_proj_weight_to_fp16"), val = tensor<fp16, [1024, 1024]>(BLOBFILE(path = tensor<string, []>("@model_path/weights/weight.bin"), offset = tensor<uint64, []>(330202240)))];
            tensor<fp16, [1024]> text_encoder_text_model_encoder_layers_9_self_attn_k_proj_bias_to_fp16 = const()[name = tensor<string, []>("text_encoder_text_model_encoder_layers_9_self_attn_k_proj_bias_to_fp16"), val = tensor<fp16, [1024]>(BLOBFILE(path = tensor<string, []>("@model_path/weights/weight.bin"), offset = tensor<uint64, []>(332299456)))];
            tensor<fp16, [1, 77, 1024]> tensor_55_cast = linear(bias = text_encoder_text_model_encoder_layers_9_self_attn_k_proj_bias_to_fp16, weight = text_encoder_text_model_encoder_layers_9_self_attn_k_proj_weight_to_fp16, x = hidden_states_55_cast);
            tensor<int32, [4]> var_899 = const()[name = tensor<string, []>("op_899"), val = tensor<int32, [4]>([1, -1, 16, 64])];
            tensor<fp16, [1, 77, 16, 64]> var_900_cast = reshape(shape = var_899, x = tensor_55_cast);
            tensor<int32, [4]> var_901_perm_0 = const()[name = tensor<string, []>("op_901_perm_0"), val = tensor<int32, [4]>([0, 2, 1, 3])];
            tensor<fp16, [1024, 1024]> text_encoder_text_model_encoder_layers_9_self_attn_v_proj_weight_to_fp16 = const()[name = tensor<string, []>("text_encoder_text_model_encoder_layers_9_self_attn_v_proj_weight_to_fp16"), val = tensor<fp16, [1024, 1024]>(BLOBFILE(path = tensor<string, []>("@model_path/weights/weight.bin"), offset = tensor<uint64, []>(332301568)))];
            tensor<fp16, [1024]> text_encoder_text_model_encoder_layers_9_self_attn_v_proj_bias_to_fp16 = const()[name = tensor<string, []>("text_encoder_text_model_encoder_layers_9_self_attn_v_proj_bias_to_fp16"), val = tensor<fp16, [1024]>(BLOBFILE(path = tensor<string, []>("@model_path/weights/weight.bin"), offset = tensor<uint64, []>(334398784)))];
            tensor<fp16, [1, 77, 1024]> tensor_57_cast = linear(bias = text_encoder_text_model_encoder_layers_9_self_attn_v_proj_bias_to_fp16, weight = text_encoder_text_model_encoder_layers_9_self_attn_v_proj_weight_to_fp16, x = hidden_states_55_cast);
            tensor<int32, [4]> var_906 = const()[name = tensor<string, []>("op_906"), val = tensor<int32, [4]>([1, -1, 16, 64])];
            tensor<fp16, [1, 77, 16, 64]> var_907_cast = reshape(shape = var_906, x = tensor_57_cast);
            tensor<int32, [4]> var_908_perm_0 = const()[name = tensor<string, []>("op_908_perm_0"), val = tensor<int32, [4]>([0, 2, 1, 3])];
            tensor<int32, [4]> var_915 = const()[name = tensor<string, []>("op_915"), val = tensor<int32, [4]>([1, 77, 16, 64])];
            tensor<fp16, [1, 77, 16, 64]> var_916_cast = reshape(shape = var_915, x = tensor_59_cast);
            tensor<int32, [4]> var_917_perm_0 = const()[name = tensor<string, []>("op_917_perm_0"), val = tensor<int32, [4]>([0, 2, 1, 3])];
            tensor<int32, [3]> var_919 = const()[name = tensor<string, []>("op_919"), val = tensor<int32, [3]>([16, -1, 64])];
            tensor<fp16, [1, 16, 77, 64]> transpose_68 = transpose(perm = var_917_perm_0, x = var_916_cast);
            tensor<fp16, [16, 77, 64]> query_states_19_cast = reshape(shape = var_919, x = transpose_68);
            tensor<int32, [3]> var_921 = const()[name = tensor<string, []>("op_921"), val = tensor<int32, [3]>([16, -1, 64])];
            tensor<fp16, [1, 16, 77, 64]> transpose_70 = transpose(perm = var_901_perm_0, x = var_900_cast);
            tensor<fp16, [16, 77, 64]> key_states_39_cast = reshape(shape = var_921, x = transpose_70);
            tensor<int32, [3]> var_923 = const()[name = tensor<string, []>("op_923"), val = tensor<int32, [3]>([16, -1, 64])];
            tensor<fp16, [1, 16, 77, 64]> transpose_69 = transpose(perm = var_908_perm_0, x = var_907_cast);
            tensor<fp16, [16, 77, 64]> value_states_39_cast = reshape(shape = var_923, x = transpose_69);
            tensor<int32, [3]> var_926_perm_0 = const()[name = tensor<string, []>("op_926_perm_0"), val = tensor<int32, [3]>([0, 2, 1])];
            tensor<bool, []> attn_weights_55_transpose_x_0 = const()[name = tensor<string, []>("attn_weights_55_transpose_x_0"), val = tensor<bool, []>(false)];
            tensor<bool, []> attn_weights_55_transpose_y_0 = const()[name = tensor<string, []>("attn_weights_55_transpose_y_0"), val = tensor<bool, []>(false)];
            tensor<fp16, [16, 64, 77]> transpose_67 = transpose(perm = var_926_perm_0, x = key_states_39_cast);
            tensor<fp16, [16, 77, 77]> attn_weights_55_cast = matmul(transpose_x = attn_weights_55_transpose_x_0, transpose_y = attn_weights_55_transpose_y_0, x = query_states_19_cast, y = transpose_67);
            tensor<int32, [4]> var_928 = const()[name = tensor<string, []>("op_928"), val = tensor<int32, [4]>([1, 16, 77, 77])];
            tensor<fp16, [1, 16, 77, 77]> var_929_cast = reshape(shape = var_928, x = attn_weights_55_cast);
            tensor<fp16, [1, 16, 77, 77]> attn_weights_57_cast = add(x = var_929_cast, y = var_44_cast);
            tensor<int32, [3]> var_934 = const()[name = tensor<string, []>("op_934"), val = tensor<int32, [3]>([16, 77, 77])];
            tensor<fp16, [16, 77, 77]> input_149_cast = reshape(shape = var_934, x = attn_weights_57_cast);
            tensor<fp16, [16, 77, 77]> input_151_cast = softmax(axis = var_5, x = input_149_cast);
            tensor<bool, []> attn_output_55_transpose_x_0 = const()[name = tensor<string, []>("attn_output_55_transpose_x_0"), val = tensor<bool, []>(false)];
            tensor<bool, []> attn_output_55_transpose_y_0 = const()[name = tensor<string, []>("attn_output_55_transpose_y_0"), val = tensor<bool, []>(false)];
            tensor<fp16, [16, 77, 64]> attn_output_55_cast = matmul(transpose_x = attn_output_55_transpose_x_0, transpose_y = attn_output_55_transpose_y_0, x = input_151_cast, y = value_states_39_cast);
            tensor<int32, [4]> var_939 = const()[name = tensor<string, []>("op_939"), val = tensor<int32, [4]>([1, 16, 77, 64])];
            tensor<fp16, [1, 16, 77, 64]> attn_output_57_cast = reshape(shape = var_939, x = attn_output_55_cast);
            tensor<int32, [4]> attn_output_59_perm_0 = const()[name = tensor<string, []>("attn_output_59_perm_0"), val = tensor<int32, [4]>([0, 2, 1, 3])];
            tensor<int32, [3]> var_942 = const()[name = tensor<string, []>("op_942"), val = tensor<int32, [3]>([1, 77, 1024])];
            tensor<fp16, [1, 77, 16, 64]> transpose_66 = transpose(perm = attn_output_59_perm_0, x = attn_output_57_cast);
            tensor<fp16, [1, 77, 1024]> input_153_cast = reshape(shape = var_942, x = transpose_66);
            tensor<fp16, [1024, 1024]> text_encoder_text_model_encoder_layers_9_self_attn_out_proj_weight_to_fp16 = const()[name = tensor<string, []>("text_encoder_text_model_encoder_layers_9_self_attn_out_proj_weight_to_fp16"), val = tensor<fp16, [1024, 1024]>(BLOBFILE(path = tensor<string, []>("@model_path/weights/weight.bin"), offset = tensor<uint64, []>(334400896)))];
            tensor<fp16, [1024]> text_encoder_text_model_encoder_layers_9_self_attn_out_proj_bias_to_fp16 = const()[name = tensor<string, []>("text_encoder_text_model_encoder_layers_9_self_attn_out_proj_bias_to_fp16"), val = tensor<fp16, [1024]>(BLOBFILE(path = tensor<string, []>("@model_path/weights/weight.bin"), offset = tensor<uint64, []>(336498112)))];
            tensor<fp16, [1, 77, 1024]> hidden_states_57_cast = linear(bias = text_encoder_text_model_encoder_layers_9_self_attn_out_proj_bias_to_fp16, weight = text_encoder_text_model_encoder_layers_9_self_attn_out_proj_weight_to_fp16, x = input_153_cast);
            tensor<fp16, [1, 77, 1024]> input_155_cast = add(x = input_147_cast, y = hidden_states_57_cast);
            tensor<int32, [1]> input_157_axes_0 = const()[name = tensor<string, []>("input_157_axes_0"), val = tensor<int32, [1]>([-1])];
            tensor<fp16, [1024]> text_encoder_text_model_encoder_layers_9_layer_norm2_weight_to_fp16 = const()[name = tensor<string, []>("text_encoder_text_model_encoder_layers_9_layer_norm2_weight_to_fp16"), val = tensor<fp16, [1024]>(BLOBFILE(path = tensor<string, []>("@model_path/weights/weight.bin"), offset = tensor<uint64, []>(336500224)))];
            tensor<fp16, [1024]> text_encoder_text_model_encoder_layers_9_layer_norm2_bias_to_fp16 = const()[name = tensor<string, []>("text_encoder_text_model_encoder_layers_9_layer_norm2_bias_to_fp16"), val = tensor<fp16, [1024]>(BLOBFILE(path = tensor<string, []>("@model_path/weights/weight.bin"), offset = tensor<uint64, []>(336502336)))];
            tensor<fp16, [1, 77, 1024]> input_157_cast = layer_norm(axes = input_157_axes_0, beta = text_encoder_text_model_encoder_layers_9_layer_norm2_bias_to_fp16, epsilon = var_12_to_fp16, gamma = text_encoder_text_model_encoder_layers_9_layer_norm2_weight_to_fp16, x = input_155_cast);
            tensor<fp16, [4096, 1024]> text_encoder_text_model_encoder_layers_9_mlp_fc1_weight_to_fp16 = const()[name = tensor<string, []>("text_encoder_text_model_encoder_layers_9_mlp_fc1_weight_to_fp16"), val = tensor<fp16, [4096, 1024]>(BLOBFILE(path = tensor<string, []>("@model_path/weights/weight.bin"), offset = tensor<uint64, []>(336504448)))];
            tensor<fp16, [4096]> text_encoder_text_model_encoder_layers_9_mlp_fc1_bias_to_fp16 = const()[name = tensor<string, []>("text_encoder_text_model_encoder_layers_9_mlp_fc1_bias_to_fp16"), val = tensor<fp16, [4096]>(BLOBFILE(path = tensor<string, []>("@model_path/weights/weight.bin"), offset = tensor<uint64, []>(344893120)))];
            tensor<fp16, [1, 77, 4096]> input_159_cast = linear(bias = text_encoder_text_model_encoder_layers_9_mlp_fc1_bias_to_fp16, weight = text_encoder_text_model_encoder_layers_9_mlp_fc1_weight_to_fp16, x = input_157_cast);
            tensor<string, []> input_161_mode_0 = const()[name = tensor<string, []>("input_161_mode_0"), val = tensor<string, []>("EXACT")];
            tensor<fp16, [1, 77, 4096]> input_161_cast = gelu(mode = input_161_mode_0, x = input_159_cast);
            tensor<fp16, [1024, 4096]> text_encoder_text_model_encoder_layers_9_mlp_fc2_weight_to_fp16 = const()[name = tensor<string, []>("text_encoder_text_model_encoder_layers_9_mlp_fc2_weight_to_fp16"), val = tensor<fp16, [1024, 4096]>(BLOBFILE(path = tensor<string, []>("@model_path/weights/weight.bin"), offset = tensor<uint64, []>(344901376)))];
            tensor<fp16, [1024]> text_encoder_text_model_encoder_layers_9_mlp_fc2_bias_to_fp16 = const()[name = tensor<string, []>("text_encoder_text_model_encoder_layers_9_mlp_fc2_bias_to_fp16"), val = tensor<fp16, [1024]>(BLOBFILE(path = tensor<string, []>("@model_path/weights/weight.bin"), offset = tensor<uint64, []>(353290048)))];
            tensor<fp16, [1, 77, 1024]> hidden_states_59_cast = linear(bias = text_encoder_text_model_encoder_layers_9_mlp_fc2_bias_to_fp16, weight = text_encoder_text_model_encoder_layers_9_mlp_fc2_weight_to_fp16, x = input_161_cast);
            tensor<fp16, [1, 77, 1024]> input_163_cast = add(x = input_155_cast, y = hidden_states_59_cast);
            tensor<int32, [1]> hidden_states_61_axes_0 = const()[name = tensor<string, []>("hidden_states_61_axes_0"), val = tensor<int32, [1]>([-1])];
            tensor<fp16, [1024]> text_encoder_text_model_encoder_layers_10_layer_norm1_weight_to_fp16 = const()[name = tensor<string, []>("text_encoder_text_model_encoder_layers_10_layer_norm1_weight_to_fp16"), val = tensor<fp16, [1024]>(BLOBFILE(path = tensor<string, []>("@model_path/weights/weight.bin"), offset = tensor<uint64, []>(353292160)))];
            tensor<fp16, [1024]> text_encoder_text_model_encoder_layers_10_layer_norm1_bias_to_fp16 = const()[name = tensor<string, []>("text_encoder_text_model_encoder_layers_10_layer_norm1_bias_to_fp16"), val = tensor<fp16, [1024]>(BLOBFILE(path = tensor<string, []>("@model_path/weights/weight.bin"), offset = tensor<uint64, []>(353294272)))];
            tensor<fp16, [1, 77, 1024]> hidden_states_61_cast = layer_norm(axes = hidden_states_61_axes_0, beta = text_encoder_text_model_encoder_layers_10_layer_norm1_bias_to_fp16, epsilon = var_12_to_fp16, gamma = text_encoder_text_model_encoder_layers_10_layer_norm1_weight_to_fp16, x = input_163_cast);
            tensor<fp16, [1024, 1024]> text_encoder_text_model_encoder_layers_10_self_attn_q_proj_weight_to_fp16 = const()[name = tensor<string, []>("text_encoder_text_model_encoder_layers_10_self_attn_q_proj_weight_to_fp16"), val = tensor<fp16, [1024, 1024]>(BLOBFILE(path = tensor<string, []>("@model_path/weights/weight.bin"), offset = tensor<uint64, []>(353296384)))];
            tensor<fp16, [1024]> text_encoder_text_model_encoder_layers_10_self_attn_q_proj_bias_to_fp16 = const()[name = tensor<string, []>("text_encoder_text_model_encoder_layers_10_self_attn_q_proj_bias_to_fp16"), val = tensor<fp16, [1024]>(BLOBFILE(path = tensor<string, []>("@model_path/weights/weight.bin"), offset = tensor<uint64, []>(355393600)))];
            tensor<fp16, [1, 77, 1024]> var_980_cast = linear(bias = text_encoder_text_model_encoder_layers_10_self_attn_q_proj_bias_to_fp16, weight = text_encoder_text_model_encoder_layers_10_self_attn_q_proj_weight_to_fp16, x = hidden_states_61_cast);
            tensor<fp16, []> var_981_to_fp16 = const()[name = tensor<string, []>("op_981_to_fp16"), val = tensor<fp16, []>(0x1p-3)];
            tensor<fp16, [1, 77, 1024]> tensor_65_cast = mul(x = var_980_cast, y = var_981_to_fp16);
            tensor<fp16, [1024, 1024]> text_encoder_text_model_encoder_layers_10_self_attn_k_proj_weight_to_fp16 = const()[name = tensor<string, []>("text_encoder_text_model_encoder_layers_10_self_attn_k_proj_weight_to_fp16"), val = tensor<fp16, [1024, 1024]>(BLOBFILE(path = tensor<string, []>("@model_path/weights/weight.bin"), offset = tensor<uint64, []>(355395712)))];
            tensor<fp16, [1024]> text_encoder_text_model_encoder_layers_10_self_attn_k_proj_bias_to_fp16 = const()[name = tensor<string, []>("text_encoder_text_model_encoder_layers_10_self_attn_k_proj_bias_to_fp16"), val = tensor<fp16, [1024]>(BLOBFILE(path = tensor<string, []>("@model_path/weights/weight.bin"), offset = tensor<uint64, []>(357492928)))];
            tensor<fp16, [1, 77, 1024]> tensor_61_cast = linear(bias = text_encoder_text_model_encoder_layers_10_self_attn_k_proj_bias_to_fp16, weight = text_encoder_text_model_encoder_layers_10_self_attn_k_proj_weight_to_fp16, x = hidden_states_61_cast);
            tensor<int32, [4]> var_986 = const()[name = tensor<string, []>("op_986"), val = tensor<int32, [4]>([1, -1, 16, 64])];
            tensor<fp16, [1, 77, 16, 64]> var_987_cast = reshape(shape = var_986, x = tensor_61_cast);
            tensor<int32, [4]> var_988_perm_0 = const()[name = tensor<string, []>("op_988_perm_0"), val = tensor<int32, [4]>([0, 2, 1, 3])];
            tensor<fp16, [1024, 1024]> text_encoder_text_model_encoder_layers_10_self_attn_v_proj_weight_to_fp16 = const()[name = tensor<string, []>("text_encoder_text_model_encoder_layers_10_self_attn_v_proj_weight_to_fp16"), val = tensor<fp16, [1024, 1024]>(BLOBFILE(path = tensor<string, []>("@model_path/weights/weight.bin"), offset = tensor<uint64, []>(357495040)))];
            tensor<fp16, [1024]> text_encoder_text_model_encoder_layers_10_self_attn_v_proj_bias_to_fp16 = const()[name = tensor<string, []>("text_encoder_text_model_encoder_layers_10_self_attn_v_proj_bias_to_fp16"), val = tensor<fp16, [1024]>(BLOBFILE(path = tensor<string, []>("@model_path/weights/weight.bin"), offset = tensor<uint64, []>(359592256)))];
            tensor<fp16, [1, 77, 1024]> tensor_63_cast = linear(bias = text_encoder_text_model_encoder_layers_10_self_attn_v_proj_bias_to_fp16, weight = text_encoder_text_model_encoder_layers_10_self_attn_v_proj_weight_to_fp16, x = hidden_states_61_cast);
            tensor<int32, [4]> var_993 = const()[name = tensor<string, []>("op_993"), val = tensor<int32, [4]>([1, -1, 16, 64])];
            tensor<fp16, [1, 77, 16, 64]> var_994_cast = reshape(shape = var_993, x = tensor_63_cast);
            tensor<int32, [4]> var_995_perm_0 = const()[name = tensor<string, []>("op_995_perm_0"), val = tensor<int32, [4]>([0, 2, 1, 3])];
            tensor<int32, [4]> var_1002 = const()[name = tensor<string, []>("op_1002"), val = tensor<int32, [4]>([1, 77, 16, 64])];
            tensor<fp16, [1, 77, 16, 64]> var_1003_cast = reshape(shape = var_1002, x = tensor_65_cast);
            tensor<int32, [4]> var_1004_perm_0 = const()[name = tensor<string, []>("op_1004_perm_0"), val = tensor<int32, [4]>([0, 2, 1, 3])];
            tensor<int32, [3]> var_1006 = const()[name = tensor<string, []>("op_1006"), val = tensor<int32, [3]>([16, -1, 64])];
            tensor<fp16, [1, 16, 77, 64]> transpose_63 = transpose(perm = var_1004_perm_0, x = var_1003_cast);
            tensor<fp16, [16, 77, 64]> query_states_21_cast = reshape(shape = var_1006, x = transpose_63);
            tensor<int32, [3]> var_1008 = const()[name = tensor<string, []>("op_1008"), val = tensor<int32, [3]>([16, -1, 64])];
            tensor<fp16, [1, 16, 77, 64]> transpose_65 = transpose(perm = var_988_perm_0, x = var_987_cast);
            tensor<fp16, [16, 77, 64]> key_states_43_cast = reshape(shape = var_1008, x = transpose_65);
            tensor<int32, [3]> var_1010 = const()[name = tensor<string, []>("op_1010"), val = tensor<int32, [3]>([16, -1, 64])];
            tensor<fp16, [1, 16, 77, 64]> transpose_64 = transpose(perm = var_995_perm_0, x = var_994_cast);
            tensor<fp16, [16, 77, 64]> value_states_43_cast = reshape(shape = var_1010, x = transpose_64);
            tensor<int32, [3]> var_1013_perm_0 = const()[name = tensor<string, []>("op_1013_perm_0"), val = tensor<int32, [3]>([0, 2, 1])];
            tensor<bool, []> attn_weights_61_transpose_x_0 = const()[name = tensor<string, []>("attn_weights_61_transpose_x_0"), val = tensor<bool, []>(false)];
            tensor<bool, []> attn_weights_61_transpose_y_0 = const()[name = tensor<string, []>("attn_weights_61_transpose_y_0"), val = tensor<bool, []>(false)];
            tensor<fp16, [16, 64, 77]> transpose_62 = transpose(perm = var_1013_perm_0, x = key_states_43_cast);
            tensor<fp16, [16, 77, 77]> attn_weights_61_cast = matmul(transpose_x = attn_weights_61_transpose_x_0, transpose_y = attn_weights_61_transpose_y_0, x = query_states_21_cast, y = transpose_62);
            tensor<int32, [4]> var_1015 = const()[name = tensor<string, []>("op_1015"), val = tensor<int32, [4]>([1, 16, 77, 77])];
            tensor<fp16, [1, 16, 77, 77]> var_1016_cast = reshape(shape = var_1015, x = attn_weights_61_cast);
            tensor<fp16, [1, 16, 77, 77]> attn_weights_63_cast = add(x = var_1016_cast, y = var_44_cast);
            tensor<int32, [3]> var_1021 = const()[name = tensor<string, []>("op_1021"), val = tensor<int32, [3]>([16, 77, 77])];
            tensor<fp16, [16, 77, 77]> input_165_cast = reshape(shape = var_1021, x = attn_weights_63_cast);
            tensor<fp16, [16, 77, 77]> input_167_cast = softmax(axis = var_5, x = input_165_cast);
            tensor<bool, []> attn_output_61_transpose_x_0 = const()[name = tensor<string, []>("attn_output_61_transpose_x_0"), val = tensor<bool, []>(false)];
            tensor<bool, []> attn_output_61_transpose_y_0 = const()[name = tensor<string, []>("attn_output_61_transpose_y_0"), val = tensor<bool, []>(false)];
            tensor<fp16, [16, 77, 64]> attn_output_61_cast = matmul(transpose_x = attn_output_61_transpose_x_0, transpose_y = attn_output_61_transpose_y_0, x = input_167_cast, y = value_states_43_cast);
            tensor<int32, [4]> var_1026 = const()[name = tensor<string, []>("op_1026"), val = tensor<int32, [4]>([1, 16, 77, 64])];
            tensor<fp16, [1, 16, 77, 64]> attn_output_63_cast = reshape(shape = var_1026, x = attn_output_61_cast);
            tensor<int32, [4]> attn_output_65_perm_0 = const()[name = tensor<string, []>("attn_output_65_perm_0"), val = tensor<int32, [4]>([0, 2, 1, 3])];
            tensor<int32, [3]> var_1029 = const()[name = tensor<string, []>("op_1029"), val = tensor<int32, [3]>([1, 77, 1024])];
            tensor<fp16, [1, 77, 16, 64]> transpose_61 = transpose(perm = attn_output_65_perm_0, x = attn_output_63_cast);
            tensor<fp16, [1, 77, 1024]> input_169_cast = reshape(shape = var_1029, x = transpose_61);
            tensor<fp16, [1024, 1024]> text_encoder_text_model_encoder_layers_10_self_attn_out_proj_weight_to_fp16 = const()[name = tensor<string, []>("text_encoder_text_model_encoder_layers_10_self_attn_out_proj_weight_to_fp16"), val = tensor<fp16, [1024, 1024]>(BLOBFILE(path = tensor<string, []>("@model_path/weights/weight.bin"), offset = tensor<uint64, []>(359594368)))];
            tensor<fp16, [1024]> text_encoder_text_model_encoder_layers_10_self_attn_out_proj_bias_to_fp16 = const()[name = tensor<string, []>("text_encoder_text_model_encoder_layers_10_self_attn_out_proj_bias_to_fp16"), val = tensor<fp16, [1024]>(BLOBFILE(path = tensor<string, []>("@model_path/weights/weight.bin"), offset = tensor<uint64, []>(361691584)))];
            tensor<fp16, [1, 77, 1024]> hidden_states_63_cast = linear(bias = text_encoder_text_model_encoder_layers_10_self_attn_out_proj_bias_to_fp16, weight = text_encoder_text_model_encoder_layers_10_self_attn_out_proj_weight_to_fp16, x = input_169_cast);
            tensor<fp16, [1, 77, 1024]> input_171_cast = add(x = input_163_cast, y = hidden_states_63_cast);
            tensor<int32, [1]> input_173_axes_0 = const()[name = tensor<string, []>("input_173_axes_0"), val = tensor<int32, [1]>([-1])];
            tensor<fp16, [1024]> text_encoder_text_model_encoder_layers_10_layer_norm2_weight_to_fp16 = const()[name = tensor<string, []>("text_encoder_text_model_encoder_layers_10_layer_norm2_weight_to_fp16"), val = tensor<fp16, [1024]>(BLOBFILE(path = tensor<string, []>("@model_path/weights/weight.bin"), offset = tensor<u…
            tensor<fp16, [1, 16, 77, 77]> var_1799_cast = reshape(shape = var_1798, x = attn_weights_115_cast);
            tensor<fp16, [1, 16, 77, 77]> attn_weights_117_cast = add(x = var_1799_cast, y = var_44_cast);
            tensor<int32, [3]> var_1804 = const()[name = tensor<string, []>("op_1804"), val = tensor<int32, [3]>([16, 77, 77])];
            tensor<fp16, [16, 77, 77]> input_309_cast = reshape(shape = var_1804, x = attn_weights_117_cast);
            tensor<fp16, [16, 77, 77]> input_311_cast = softmax(axis = var_5, x = input_309_cast);
            tensor<bool, []> attn_output_115_transpose_x_0 = const()[name = tensor<string, []>("attn_output_115_transpose_x_0"), val = tensor<bool, []>(false)];
            tensor<bool, []> attn_output_115_transpose_y_0 = const()[name = tensor<string, []>("attn_output_115_transpose_y_0"), val = tensor<bool, []>(false)];
            tensor<fp16, [16, 77, 64]> attn_output_115_cast = matmul(transpose_x = attn_output_115_transpose_x_0, transpose_y = attn_output_115_transpose_y_0, x = input_311_cast, y = value_states_79_cast);
            tensor<int32, [4]> var_1809 = const()[name = tensor<string, []>("op_1809"), val = tensor<int32, [4]>([1, 16, 77, 64])];
            tensor<fp16, [1, 16, 77, 64]> attn_output_117_cast = reshape(shape = var_1809, x = attn_output_115_cast);
            tensor<int32, [4]> attn_output_119_perm_0 = const()[name = tensor<string, []>("attn_output_119_perm_0"), val = tensor<int32, [4]>([0, 2, 1, 3])];
            tensor<int32, [3]> var_1812 = const()[name = tensor<string, []>("op_1812"), val = tensor<int32, [3]>([1, 77, 1024])];
            tensor<fp16, [1, 77, 16, 64]> transpose_16 = transpose(perm = attn_output_119_perm_0, x = attn_output_117_cast);
            tensor<fp16, [1, 77, 1024]> input_313_cast = reshape(shape = var_1812, x = transpose_16);
            tensor<fp16, [1024, 1024]> text_encoder_text_model_encoder_layers_19_self_attn_out_proj_weight_to_fp16 = const()[name = tensor<string, []>("text_encoder_text_model_encoder_layers_19_self_attn_out_proj_weight_to_fp16"), val = tensor<fp16, [1024, 1024]>(BLOBFILE(path = tensor<string, []>("@model_path/weights/weight.bin"), offset = tensor<uint64, []>(586335616)))];
            tensor<fp16, [1024]> text_encoder_text_model_encoder_layers_19_self_attn_out_proj_bias_to_fp16 = const()[name = tensor<string, []>("text_encoder_text_model_encoder_layers_19_self_attn_out_proj_bias_to_fp16"), val = tensor<fp16, [1024]>(BLOBFILE(path = tensor<string, []>("@model_path/weights/weight.bin"), offset = tensor<uint64, []>(588432832)))];
            tensor<fp16, [1, 77, 1024]> hidden_states_117_cast = linear(bias = text_encoder_text_model_encoder_layers_19_self_attn_out_proj_bias_to_fp16, weight = text_encoder_text_model_encoder_layers_19_self_attn_out_proj_weight_to_fp16, x = input_313_cast);
            tensor<fp16, [1, 77, 1024]> input_315_cast = add(x = input_307_cast, y = hidden_states_117_cast);
            tensor<int32, [1]> input_317_axes_0 = const()[name = tensor<string, []>("input_317_axes_0"), val = tensor<int32, [1]>([-1])];
            tensor<fp16, [1024]> text_encoder_text_model_encoder_layers_19_layer_norm2_weight_to_fp16 = const()[name = tensor<string, []>("text_encoder_text_model_encoder_layers_19_layer_norm2_weight_to_fp16"), val = tensor<fp16, [1024]>(BLOBFILE(path = tensor<string, []>("@model_path/weights/weight.bin"), offset = tensor<uint64, []>(588434944)))];
            tensor<fp16, [1024]> text_encoder_text_model_encoder_layers_19_layer_norm2_bias_to_fp16 = const()[name = tensor<string, []>("text_encoder_text_model_encoder_layers_19_layer_norm2_bias_to_fp16"), val = tensor<fp16, [1024]>(BLOBFILE(path = tensor<string, []>("@model_path/weights/weight.bin"), offset = tensor<uint64, []>(588437056)))];
            tensor<fp16, [1, 77, 1024]> input_317_cast = layer_norm(axes = input_317_axes_0, beta = text_encoder_text_model_encoder_layers_19_layer_norm2_bias_to_fp16, epsilon = var_12_to_fp16, gamma = text_encoder_text_model_encoder_layers_19_layer_norm2_weight_to_fp16, x = input_315_cast);
            tensor<fp16, [4096, 1024]> text_encoder_text_model_encoder_layers_19_mlp_fc1_weight_to_fp16 = const()[name = tensor<string, []>("text_encoder_text_model_encoder_layers_19_mlp_fc1_weight_to_fp16"), val = tensor<fp16, [4096, 1024]>(BLOBFILE(path = tensor<string, []>("@model_path/weights/weight.bin"), offset = tensor<uint64, []>(588439168)))];
            tensor<fp16, [4096]> text_encoder_text_model_encoder_layers_19_mlp_fc1_bias_to_fp16 = const()[name = tensor<string, []>("text_encoder_text_model_encoder_layers_19_mlp_fc1_bias_to_fp16"), val = tensor<fp16, [4096]>(BLOBFILE(path = tensor<string, []>("@model_path/weights/weight.bin"), offset = tensor<uint64, []>(596827840)))];
            tensor<fp16, [1, 77, 4096]> input_319_cast = linear(bias = text_encoder_text_model_encoder_layers_19_mlp_fc1_bias_to_fp16, weight = text_encoder_text_model_encoder_layers_19_mlp_fc1_weight_to_fp16, x = input_317_cast);
            tensor<string, []> input_321_mode_0 = const()[name = tensor<string, []>("input_321_mode_0"), val = tensor<string, []>("EXACT")];
            tensor<fp16, [1, 77, 4096]> input_321_cast = gelu(mode = input_321_mode_0, x = input_319_cast);
            tensor<fp16, [1024, 4096]> text_encoder_text_model_encoder_layers_19_mlp_fc2_weight_to_fp16 = const()[name = tensor<string, []>("text_encoder_text_model_encoder_layers_19_mlp_fc2_weight_to_fp16"), val = tensor<fp16, [1024, 4096]>(BLOBFILE(path = tensor<string, []>("@model_path/weights/weight.bin"), offset = tensor<uint64, []>(596836096)))];
            tensor<fp16, [1024]> text_encoder_text_model_encoder_layers_19_mlp_fc2_bias_to_fp16 = const()[name = tensor<string, []>("text_encoder_text_model_encoder_layers_19_mlp_fc2_bias_to_fp16"), val = tensor<fp16, [1024]>(BLOBFILE(path = tensor<string, []>("@model_path/weights/weight.bin"), offset = tensor<uint64, []>(605224768)))];
            tensor<fp16, [1, 77, 1024]> hidden_states_119_cast = linear(bias = text_encoder_text_model_encoder_layers_19_mlp_fc2_bias_to_fp16, weight = text_encoder_text_model_encoder_layers_19_mlp_fc2_weight_to_fp16, x = input_321_cast);
            tensor<fp16, [1, 77, 1024]> input_323_cast = add(x = input_315_cast, y = hidden_states_119_cast);
            tensor<int32, [1]> hidden_states_121_axes_0 = const()[name = tensor<string, []>("hidden_states_121_axes_0"), val = tensor<int32, [1]>([-1])];
            tensor<fp16, [1024]> text_encoder_text_model_encoder_layers_20_layer_norm1_weight_to_fp16 = const()[name = tensor<string, []>("text_encoder_text_model_encoder_layers_20_layer_norm1_weight_to_fp16"), val = tensor<fp16, [1024]>(BLOBFILE(path = tensor<string, []>("@model_path/weights/weight.bin"), offset = tensor<uint64, []>(605226880)))];
            tensor<fp16, [1024]> text_encoder_text_model_encoder_layers_20_layer_norm1_bias_to_fp16 = const()[name = tensor<string, []>("text_encoder_text_model_encoder_layers_20_layer_norm1_bias_to_fp16"), val = tensor<fp16, [1024]>(BLOBFILE(path = tensor<string, []>("@model_path/weights/weight.bin"), offset = tensor<uint64, []>(605228992)))];
            tensor<fp16, [1, 77, 1024]> hidden_states_121_cast = layer_norm(axes = hidden_states_121_axes_0, beta = text_encoder_text_model_encoder_layers_20_layer_norm1_bias_to_fp16, epsilon = var_12_to_fp16, gamma = text_encoder_text_model_encoder_layers_20_layer_norm1_weight_to_fp16, x = input_323_cast);
            tensor<fp16, [1024, 1024]> text_encoder_text_model_encoder_layers_20_self_attn_q_proj_weight_to_fp16 = const()[name = tensor<string, []>("text_encoder_text_model_encoder_layers_20_self_attn_q_proj_weight_to_fp16"), val = tensor<fp16, [1024, 1024]>(BLOBFILE(path = tensor<string, []>("@model_path/weights/weight.bin"), offset = tensor<uint64, []>(605231104)))];
            tensor<fp16, [1024]> text_encoder_text_model_encoder_layers_20_self_attn_q_proj_bias_to_fp16 = const()[name = tensor<string, []>("text_encoder_text_model_encoder_layers_20_self_attn_q_proj_bias_to_fp16"), val = tensor<fp16, [1024]>(BLOBFILE(path = tensor<string, []>("@model_path/weights/weight.bin"), offset = tensor<uint64, []>(607328320)))];
            tensor<fp16, [1, 77, 1024]> var_1850_cast = linear(bias = text_encoder_text_model_encoder_layers_20_self_attn_q_proj_bias_to_fp16, weight = text_encoder_text_model_encoder_layers_20_self_attn_q_proj_weight_to_fp16, x = hidden_states_121_cast);
            tensor<fp16, []> var_1851_to_fp16 = const()[name = tensor<string, []>("op_1851_to_fp16"), val = tensor<fp16, []>(0x1p-3)];
            tensor<fp16, [1, 77, 1024]> tensor_125_cast = mul(x = var_1850_cast, y = var_1851_to_fp16);
            tensor<fp16, [1024, 1024]> text_encoder_text_model_encoder_layers_20_self_attn_k_proj_weight_to_fp16 = const()[name = tensor<string, []>("text_encoder_text_model_encoder_layers_20_self_attn_k_proj_weight_to_fp16"), val = tensor<fp16, [1024, 1024]>(BLOBFILE(path = tensor<string, []>("@model_path/weights/weight.bin"), offset = tensor<uint64, []>(607330432)))];
            tensor<fp16, [1024]> text_encoder_text_model_encoder_layers_20_self_attn_k_proj_bias_to_fp16 = const()[name = tensor<string, []>("text_encoder_text_model_encoder_layers_20_self_attn_k_proj_bias_to_fp16"), val = tensor<fp16, [1024]>(BLOBFILE(path = tensor<string, []>("@model_path/weights/weight.bin"), offset = tensor<uint64, []>(609427648)))];
            tensor<fp16, [1, 77, 1024]> tensor_121_cast = linear(bias = text_encoder_text_model_encoder_layers_20_self_attn_k_proj_bias_to_fp16, weight = text_encoder_text_model_encoder_layers_20_self_attn_k_proj_weight_to_fp16, x = hidden_states_121_cast);
            tensor<int32, [4]> var_1856 = const()[name = tensor<string, []>("op_1856"), val = tensor<int32, [4]>([1, -1, 16, 64])];
            tensor<fp16, [1, 77, 16, 64]> var_1857_cast = reshape(shape = var_1856, x = tensor_121_cast);
            tensor<int32, [4]> var_1858_perm_0 = const()[name = tensor<string, []>("op_1858_perm_0"), val = tensor<int32, [4]>([0, 2, 1, 3])];
            tensor<fp16, [1024, 1024]> text_encoder_text_model_encoder_layers_20_self_attn_v_proj_weight_to_fp16 = const()[name = tensor<string, []>("text_encoder_text_model_encoder_layers_20_self_attn_v_proj_weight_to_fp16"), val = tensor<fp16, [1024, 1024]>(BLOBFILE(path = tensor<string, []>("@model_path/weights/weight.bin"), offset = tensor<uint64, []>(609429760)))];
            tensor<fp16, [1024]> text_encoder_text_model_encoder_layers_20_self_attn_v_proj_bias_to_fp16 = const()[name = tensor<string, []>("text_encoder_text_model_encoder_layers_20_self_attn_v_proj_bias_to_fp16"), val = tensor<fp16, [1024]>(BLOBFILE(path = tensor<string, []>("@model_path/weights/weight.bin"), offset = tensor<uint64, []>(611526976)))];
            tensor<fp16, [1, 77, 1024]> tensor_123_cast = linear(bias = text_encoder_text_model_encoder_layers_20_self_attn_v_proj_bias_to_fp16, weight = text_encoder_text_model_encoder_layers_20_self_attn_v_proj_weight_to_fp16, x = hidden_states_121_cast);
            tensor<int32, [4]> var_1863 = const()[name = tensor<string, []>("op_1863"), val = tensor<int32, [4]>([1, -1, 16, 64])];
            tensor<fp16, [1, 77, 16, 64]> var_1864_cast = reshape(shape = var_1863, x = tensor_123_cast);
            tensor<int32, [4]> var_1865_perm_0 = const()[name = tensor<string, []>("op_1865_perm_0"), val = tensor<int32, [4]>([0, 2, 1, 3])];
            tensor<int32, [4]> var_1872 = const()[name = tensor<string, []>("op_1872"), val = tensor<int32, [4]>([1, 77, 16, 64])];
            tensor<fp16, [1, 77, 16, 64]> var_1873_cast = reshape(shape = var_1872, x = tensor_125_cast);
            tensor<int32, [4]> var_1874_perm_0 = const()[name = tensor<string, []>("op_1874_perm_0"), val = tensor<int32, [4]>([0, 2, 1, 3])];
            tensor<int32, [3]> var_1876 = const()[name = tensor<string, []>("op_1876"), val = tensor<int32, [3]>([16, -1, 64])];
            tensor<fp16, [1, 16, 77, 64]> transpose_13 = transpose(perm = var_1874_perm_0, x = var_1873_cast);
            tensor<fp16, [16, 77, 64]> query_states_41_cast = reshape(shape = var_1876, x = transpose_13);
            tensor<int32, [3]> var_1878 = const()[name = tensor<string, []>("op_1878"), val = tensor<int32, [3]>([16, -1, 64])];
            tensor<fp16, [1, 16, 77, 64]> transpose_15 = transpose(perm = var_1858_perm_0, x = var_1857_cast);
            tensor<fp16, [16, 77, 64]> key_states_83_cast = reshape(shape = var_1878, x = transpose_15);
            tensor<int32, [3]> var_1880 = const()[name = tensor<string, []>("op_1880"), val = tensor<int32, [3]>([16, -1, 64])];
            tensor<fp16, [1, 16, 77, 64]> transpose_14 = transpose(perm = var_1865_perm_0, x = var_1864_cast);
            tensor<fp16, [16, 77, 64]> value_states_83_cast = reshape(shape = var_1880, x = transpose_14);
            tensor<int32, [3]> var_1883_perm_0 = const()[name = tensor<string, []>("op_1883_perm_0"), val = tensor<int32, [3]>([0, 2, 1])];
            tensor<bool, []> attn_weights_121_transpose_x_0 = const()[name = tensor<string, []>("attn_weights_121_transpose_x_0"), val = tensor<bool, []>(false)];
            tensor<bool, []> attn_weights_121_transpose_y_0 = const()[name = tensor<string, []>("attn_weights_121_transpose_y_0"), val = tensor<bool, []>(false)];
            tensor<fp16, [16, 64, 77]> transpose_12 = transpose(perm = var_1883_perm_0, x = key_states_83_cast);
            tensor<fp16, [16, 77, 77]> attn_weights_121_cast = matmul(transpose_x = attn_weights_121_transpose_x_0, transpose_y = attn_weights_121_transpose_y_0, x = query_states_41_cast, y = transpose_12);
            tensor<int32, [4]> var_1885 = const()[name = tensor<string, []>("op_1885"), val = tensor<int32, [4]>([1, 16, 77, 77])];
            tensor<fp16, [1, 16, 77, 77]> var_1886_cast = reshape(shape = var_1885, x = attn_weights_121_cast);
            tensor<fp16, [1, 16, 77, 77]> attn_weights_123_cast = add(x = var_1886_cast, y = var_44_cast);
            tensor<int32, [3]> var_1891 = const()[name = tensor<string, []>("op_1891"), val = tensor<int32, [3]>([16, 77, 77])];
            tensor<fp16, [16, 77, 77]> input_325_cast = reshape(shape = var_1891, x = attn_weights_123_cast);
            tensor<fp16, [16, 77, 77]> input_327_cast = softmax(axis = var_5, x = input_325_cast);
            tensor<bool, []> attn_output_121_transpose_x_0 = const()[name = tensor<string, []>("attn_output_121_transpose_x_0"), val = tensor<bool, []>(false)];
            tensor<bool, []> attn_output_121_transpose_y_0 = const()[name = tensor<string, []>("attn_output_121_transpose_y_0"), val = tensor<bool, []>(false)];
            tensor<fp16, [16, 77, 64]> attn_output_121_cast = matmul(transpose_x = attn_output_121_transpose_x_0, transpose_y = attn_output_121_transpose_y_0, x = input_327_cast, y = value_states_83_cast);
            tensor<int32, [4]> var_1896 = const()[name = tensor<string, []>("op_1896"), val = tensor<int32, [4]>([1, 16, 77, 64])];
            tensor<fp16, [1, 16, 77, 64]> attn_output_123_cast = reshape(shape = var_1896, x = attn_output_121_cast);
            tensor<int32, [4]> attn_output_125_perm_0 = const()[name = tensor<string, []>("attn_output_125_perm_0"), val = tensor<int32, [4]>([0, 2, 1, 3])];
            tensor<int32, [3]> var_1899 = const()[name = tensor<string, []>("op_1899"), val = tensor<int32, [3]>([1, 77, 1024])];
            tensor<fp16, [1, 77, 16, 64]> transpose_11 = transpose(perm = attn_output_125_perm_0, x = attn_output_123_cast);
            tensor<fp16, [1, 77, 1024]> input_329_cast = reshape(shape = var_1899, x = transpose_11);
            tensor<fp16, [1024, 1024]> text_encoder_text_model_encoder_layers_20_self_attn_out_proj_weight_to_fp16 = const()[name = tensor<string, []>("text_encoder_text_model_encoder_layers_20_self_attn_out_proj_weight_to_fp16"), val = tensor<fp16, [1024, 1024]>(BLOBFILE(path = tensor<string, []>("@model_path/weights/weight.bin"), offset = tensor<uint64, []>(611529088)))];
            tensor<fp16, [1024]> text_encoder_text_model_encoder_layers_20_self_attn_out_proj_bias_to_fp16 = const()[name = tensor<string, []>("text_encoder_text_model_encoder_layers_20_self_attn_out_proj_bias_to_fp16"), val = tensor<fp16, [1024]>(BLOBFILE(path = tensor<string, []>("@model_path/weights/weight.bin"), offset = tensor<uint64, []>(613626304)))];
            tensor<fp16, [1, 77, 1024]> hidden_states_123_cast = linear(bias = text_encoder_text_model_encoder_layers_20_self_attn_out_proj_bias_to_fp16, weight = text_encoder_text_model_encoder_layers_20_self_attn_out_proj_weight_to_fp16, x = input_329_cast);
            tensor<fp16, [1, 77, 1024]> input_331_cast = add(x = input_323_cast, y = hidden_states_123_cast);
            tensor<int32, [1]> input_333_axes_0 = const()[name = tensor<string, []>("input_333_axes_0"), val = tensor<int32, [1]>([-1])];
            tensor<fp16, [1024]> text_encoder_text_model_encoder_layers_20_layer_norm2_weight_to_fp16 = const()[name = tensor<string, []>("text_encoder_text_model_encoder_layers_20_layer_norm2_weight_to_fp16"), val = tensor<fp16, [1024]>(BLOBFILE(path = tensor<string, []>("@model_path/weights/weight.bin"), offset = tensor<uint64, []>(613628416)))];
            tensor<fp16, [1024]> text_encoder_text_model_encoder_layers_20_layer_norm2_bias_to_fp16 = const()[name = tensor<string, []>("text_encoder_text_model_encoder_layers_20_layer_norm2_bias_to_fp16"), val = tensor<fp16, [1024]>(BLOBFILE(path = tensor<string, []>("@model_path/weights/weight.bin"), offset = tensor<uint64, []>(613630528)))];
            tensor<fp16, [1, 77, 1024]> input_333_cast = layer_norm(axes = input_333_axes_0, beta = text_encoder_text_model_encoder_layers_20_layer_norm2_bias_to_fp16, epsilon = var_12_to_fp16, gamma = text_encoder_text_model_encoder_layers_20_layer_norm2_weight_to_fp16, x = input_331_cast);
            tensor<fp16, [4096, 1024]> text_encoder_text_model_encoder_layers_20_mlp_fc1_weight_to_fp16 = const()[name = tensor<string, []>("text_encoder_text_model_encoder_layers_20_mlp_fc1_weight_to_fp16"), val = tensor<fp16, [4096, 1024]>(BLOBFILE(path = tensor<string, []>("@model_path/weights/weight.bin"), offset = tensor<uint64, []>(613632640)))];
            tensor<fp16, [4096]> text_encoder_text_model_encoder_layers_20_mlp_fc1_bias_to_fp16 = const()[name = tensor<string, []>("text_encoder_text_model_encoder_layers_20_mlp_fc1_bias_to_fp16"), val = tensor<fp16, [4096]>(BLOBFILE(path = tensor<string, []>("@model_path/weights/weight.bin"), offset = tensor<uint64, []>(622021312)))];
            tensor<fp16, [1, 77, 4096]> input_335_cast = linear(bias = text_encoder_text_model_encoder_layers_20_mlp_fc1_bias_to_fp16, weight = text_encoder_text_model_encoder_layers_20_mlp_fc1_weight_to_fp16, x = input_333_cast);
            tensor<string, []> input_337_mode_0 = const()[name = tensor<string, []>("input_337_mode_0"), val = tensor<string, []>("EXACT")];
            tensor<fp16, [1, 77, 4096]> input_337_cast = gelu(mode = input_337_mode_0, x = input_335_cast);
            tensor<fp16, [1024, 4096]> text_encoder_text_model_encoder_layers_20_mlp_fc2_weight_to_fp16 = const()[name = tensor<string, []>("text_encoder_text_model_encoder_layers_20_mlp_fc2_weight_to_fp16"), val = tensor<fp16, [1024, 4096]>(BLOBFILE(path = tensor<string, []>("@model_path/weights/weight.bin"), offset = tensor<uint64, []>(622029568)))];
            tensor<fp16, [1024]> text_encoder_text_model_encoder_layers_20_mlp_fc2_bias_to_fp16 = const()[name = tensor<string, []>("text_encoder_text_model_encoder_layers_20_mlp_fc2_bias_to_fp16"), val = tensor<fp16, [1024]>(BLOBFILE(path = tensor<string, []>("@model_path/weights/weight.bin"), offset = tensor<uint64, []>(630418240)))];
            tensor<fp16, [1, 77, 1024]> hidden_states_125_cast = linear(bias = text_encoder_text_model_encoder_layers_20_mlp_fc2_bias_to_fp16, weight = text_encoder_text_model_encoder_layers_20_mlp_fc2_weight_to_fp16, x = input_337_cast);
            tensor<fp16, [1, 77, 1024]> input_339_cast = add(x = input_331_cast, y = hidden_states_125_cast);
            tensor<int32, [1]> hidden_states_127_axes_0 = const()[name = tensor<string, []>("hidden_states_127_axes_0"), val = tensor<int32, [1]>([-1])];
            tensor<fp16, [1024]> text_encoder_text_model_encoder_layers_21_layer_norm1_weight_to_fp16 = const()[name = tensor<string, []>("text_encoder_text_model_encoder_layers_21_layer_norm1_weight_to_fp16"), val = tensor<fp16, [1024]>(BLOBFILE(path = tensor<string, []>("@model_path/weights/weight.bin"), offset = tensor<uint64, []>(630420352)))];
            tensor<fp16, [1024]> text_encoder_text_model_encoder_layers_21_layer_norm1_bias_to_fp16 = const()[name = tensor<string, []>("text_encoder_text_model_encoder_layers_21_layer_norm1_bias_to_fp16"), val = tensor<fp16, [1024]>(BLOBFILE(path = tensor<string, []>("@model_path/weights/weight.bin"), offset = tensor<uint64, []>(630422464)))];
            tensor<fp16, [1, 77, 1024]> hidden_states_127_cast = layer_norm(axes = hidden_states_127_axes_0, beta = text_encoder_text_model_encoder_layers_21_layer_norm1_bias_to_fp16, epsilon = var_12_to_fp16, gamma = text_encoder_text_model_encoder_layers_21_layer_norm1_weight_to_fp16, x = input_339_cast);
            tensor<fp16, [1024, 1024]> text_encoder_text_model_encoder_layers_21_self_attn_q_proj_weight_to_fp16 = const()[name = tensor<string, []>("text_encoder_text_model_encoder_layers_21_self_attn_q_proj_weight_to_fp16"), val = tensor<fp16, [1024, 1024]>(BLOBFILE(path = tensor<string, []>("@model_path/weights/weight.bin"), offset = tensor<uint64, []>(630424576)))];
            tensor<fp16, [1024]> text_encoder_text_model_encoder_layers_21_self_attn_q_proj_bias_to_fp16 = const()[name = tensor<string, []>("text_encoder_text_model_encoder_layers_21_self_attn_q_proj_bias_to_fp16"), val = tensor<fp16, [1024]>(BLOBFILE(path = tensor<string, []>("@model_path/weights/weight.bin"), offset = tensor<uint64, []>(632521792)))];
            tensor<fp16, [1, 77, 1024]> var_1937_cast = linear(bias = text_encoder_text_model_encoder_layers_21_self_attn_q_proj_bias_to_fp16, weight = text_encoder_text_model_encoder_layers_21_self_attn_q_proj_weight_to_fp16, x = hidden_states_127_cast);
            tensor<fp16, []> var_1938_to_fp16 = const()[name = tensor<string, []>("op_1938_to_fp16"), val = tensor<fp16, []>(0x1p-3)];
            tensor<fp16, [1, 77, 1024]> tensor_131_cast = mul(x = var_1937_cast, y = var_1938_to_fp16);
            tensor<fp16, [1024, 1024]> text_encoder_text_model_encoder_layers_21_self_attn_k_proj_weight_to_fp16 = const()[name = tensor<string, []>("text_encoder_text_model_encoder_layers_21_self_attn_k_proj_weight_to_fp16"), val = tensor<fp16, [1024, 1024]>(BLOBFILE(path = tensor<string, []>("@model_path/weights/weight.bin"), offset = tensor<uint64, []>(632523904)))];
            tensor<fp16, [1024]> text_encoder_text_model_encoder_layers_21_self_attn_k_proj_bias_to_fp16 = const()[name = tensor<string, []>("text_encoder_text_model_encoder_layers_21_self_attn_k_proj_bias_to_fp16"), val = tensor<fp16, [1024]>(BLOBFILE(path = tensor<string, []>("@model_path/weights/weight.bin"), offset = tensor<uint64, []>(634621120)))];
            tensor<fp16, [1, 77, 1024]> tensor_127_cast = linear(bias = text_encoder_text_model_encoder_layers_21_self_attn_k_proj_bias_to_fp16, weight = text_encoder_text_model_encoder_layers_21_self_attn_k_proj_weight_to_fp16, x = hidden_states_127_cast);
            tensor<int32, [4]> var_1943 = const()[name = tensor<string, []>("op_1943"), val = tensor<int32, [4]>([1, -1, 16, 64])];
            tensor<fp16, [1, 77, 16, 64]> var_1944_cast = reshape(shape = var_1943, x = tensor_127_cast);
            tensor<int32, [4]> var_1945_perm_0 = const()[name = tensor<string, []>("op_1945_perm_0"), val = tensor<int32, [4]>([0, 2, 1, 3])];
            tensor<fp16, [1024, 1024]> text_encoder_text_model_encoder_layers_21_self_attn_v_proj_weight_to_fp16 = const()[name = tensor<string, []>("text_encoder_text_model_encoder_layers_21_self_attn_v_proj_weight_to_fp16"), val = tensor<fp16, [1024, 1024]>(BLOBFILE(path = tensor<string, []>("@model_path/weights/weight.bin"), offset = tensor<uint64, []>(634623232)))];
            tensor<fp16, [1024]> text_encoder_text_model_encoder_layers_21_self_attn_v_proj_bias_to_fp16 = const()[name = tensor<string, []>("text_encoder_text_model_encoder_layers_21_self_attn_v_proj_bias_to_fp16"), val = tensor<fp16, [1024]>(BLOBFILE(path = tensor<string, []>("@model_path/weights/weight.bin"), offset = tensor<uint64, []>(636720448)))];
            tensor<fp16, [1, 77, 1024]> tensor_129_cast = linear(bias = text_encoder_text_model_encoder_layers_21_self_attn_v_proj_bias_to_fp16, weight = text_encoder_text_model_encoder_layers_21_self_attn_v_proj_weight_to_fp16, x = hidden_states_127_cast);
            tensor<int32, [4]> var_1950 = const()[name = tensor<string, []>("op_1950"), val = tensor<int32, [4]>([1, -1, 16, 64])];
            tensor<fp16, [1, 77, 16, 64]> var_1951_cast = reshape(shape = var_1950, x = tensor_129_cast);
            tensor<int32, [4]> var_1952_perm_0 = const()[name = tensor<string, []>("op_1952_perm_0"), val = tensor<int32, [4]>([0, 2, 1, 3])];
            tensor<int32, [4]> var_1959 = const()[name = tensor<string, []>("op_1959"), val = tensor<int32, [4]>([1, 77, 16, 64])];
            tensor<fp16, [1, 77, 16, 64]> var_1960_cast = reshape(shape = var_1959, x = tensor_131_cast);
            tensor<int32, [4]> var_1961_perm_0 = const()[name = tensor<string, []>("op_1961_perm_0"), val = tensor<int32, [4]>([0, 2, 1, 3])];
            tensor<int32, [3]> var_1963 = const()[name = tensor<string, []>("op_1963"), val = tensor<int32, [3]>([16, -1, 64])];
            tensor<fp16, [1, 16, 77, 64]> transpose_8 = transpose(perm = var_1961_perm_0, x = var_1960_cast);
            tensor<fp16, [16, 77, 64]> query_states_43_cast = reshape(shape = var_1963, x = transpose_8);
            tensor<int32, [3]> var_1965 = const()[name = tensor<string, []>("op_1965"), val = tensor<int32, [3]>([16, -1, 64])];
            tensor<fp16, [1, 16, 77, 64]> transpose_10 = transpose(perm = var_1945_perm_0, x = var_1944_cast);
            tensor<fp16, [16, 77, 64]> key_states_87_cast = reshape(shape = var_1965, x = transpose_10);
            tensor<int32, [3]> var_1967 = const()[name = tensor<string, []>("op_1967"), val = tensor<int32, [3]>([16, -1, 64])];
            tensor<fp16, [1, 16, 77, 64]> transpose_9 = transpose(perm = var_1952_perm_0, x = var_1951_cast);
            tensor<fp16, [16, 77, 64]> value_states_87_cast = reshape(shape = var_1967, x = transpose_9);
            tensor<int32, [3]> var_1970_perm_0 = const()[name = tensor<string, []>("op_1970_perm_0"), val = tensor<int32, [3]>([0, 2, 1])];
            tensor<bool, []> attn_weights_127_transpose_x_0 = const()[name = tensor<string, []>("attn_weights_127_transpose_x_0"), val = tensor<bool, []>(false)];
            tensor<bool, []> attn_weights_127_transpose_y_0 = const()[name = tensor<string, []>("attn_weights_127_transpose_y_0"), val = tensor<bool, []>(false)];
            tensor<fp16, [16, 64, 77]> transpose_7 = transpose(perm = var_1970_perm_0, x = key_states_87_cast);
            tensor<fp16, [16, 77, 77]> attn_weights_127_cast = matmul(transpose_x = attn_weights_127_transpose_x_0, transpose_y = attn_weights_127_transpose_y_0, x = query_states_43_cast, y = transpose_7);
            tensor<int32, [4]> var_1972 = const()[name = tensor<string, []>("op_1972"), val = tensor<int32, [4]>([1, 16, 77, 77])];
            tensor<fp16, [1, 16, 77, 77]> var_1973_cast = reshape(shape = var_1972, x = attn_weights_127_cast);
            tensor<fp16, [1, 16, 77, 77]> attn_weights_129_cast = add(x = var_1973_cast, y = var_44_cast);
            tensor<int32, [3]> var_1978 = const()[name = tensor<string, []>("op_1978"), val = tensor<int32, [3]>([16, 77, 77])];
            tensor<fp16, [16, 77, 77]> input_341_cast = reshape(shape = var_1978, x = attn_weights_129_cast);
            tensor<fp16, [16, 77, 77]> input_343_cast = softmax(axis = var_5, x = input_341_cast);
            tensor<bool, []> attn_output_127_transpose_x_0 = const()[name = tensor<string, []>("attn_output_127_transpose_x_0"), val = tensor<bool, []>(false)];
            tensor<bool, []> attn_output_127_transpose_y_0 = const()[name = tensor<string, []>("attn_output_127_transpose_y_0"), val = tensor<bool, []>(false)];
            tensor<fp16, [16, 77, 64]> attn_output_127_cast = matmul(transpose_x = attn_output_127_transpose_x_0, transpose_y = attn_output_127_transpose_y_0, x = input_343_cast, y = value_states_87_cast);
            tensor<int32, [4]> var_1983 = const()[name = tensor<string, []>("op_1983"), val = tensor<int32, [4]>([1, 16, 77, 64])];
            tensor<fp16, [1, 16, 77, 64]> attn_output_129_cast = reshape(shape = var_1983, x = attn_output_127_cast);
            tensor<int32, [4]> attn_output_131_perm_0 = const()[name = tensor<string, []>("attn_output_131_perm_0"), val = tensor<int32, [4]>([0, 2, 1, 3])];
            tensor<int32, [3]> var_1986 = const()[name = tensor<string, []>("op_1986"), val = tensor<int32, [3]>([1, 77, 1024])];
            tensor<fp16, [1, 77, 16, 64]> transpose_6 = transpose(perm = attn_output_131_perm_0, x = attn_output_129_cast);
            tensor<fp16, [1, 77, 1024]> input_345_cast = reshape(shape = var_1986, x = transpose_6);
            tensor<fp16, [1024, 1024]> text_encoder_text_model_encoder_layers_21_self_attn_out_proj_weight_to_fp16 = const()[name = tensor<string, []>("text_encoder_text_model_encoder_layers_21_self_attn_out_proj_weight_to_fp16"), val = tensor<fp16, [1024, 1024]>(BLOBFILE(path = tensor<string, []>("@model_path/weights/weight.bin"), offset = tensor<uint64, []>(636722560)))];
            tensor<fp16, [1024]> text_encoder_text_model_encoder_layers_21_self_attn_out_proj_bias_to_fp16 = const()[name = tensor<string, []>("text_encoder_text_model_encoder_layers_21_self_attn_out_proj_bias_to_fp16"), val = tensor<fp16, [1024]>(BLOBFILE(path = tensor<string, []>("@model_path/weights/weight.bin"), offset = tensor<uint64, []>(638819776)))];
            tensor<fp16, [1, 77, 1024]> hidden_states_129_cast = linear(bias = text_encoder_text_model_encoder_layers_21_self_attn_out_proj_bias_to_fp16, weight = text_encoder_text_model_encoder_layers_21_self_attn_out_proj_weight_to_fp16, x = input_345_cast);
            tensor<fp16, [1, 77, 1024]> input_347_cast = add(x = input_339_cast, y = hidden_states_129_cast);
            tensor<int32, [1]> input_349_axes_0 = const()[name = tensor<string, []>("input_349_axes_0"), val = tensor<int32, [1]>([-1])];
            tensor<fp16, [1024]> text_encoder_text_model_encoder_layers_21_layer_norm2_weight_to_fp16 = const()[name = tensor<string, []>("text_encoder_text_model_encoder_layers_21_layer_norm2_weight_to_fp16"), val = tensor<fp16, [1024]>(BLOBFILE(path = tensor<string, []>("@model_path/weights/weight.bin"), offset = tensor<uint64, []>(638821888)))];
            tensor<fp16, [1024]> text_encoder_text_model_encoder_layers_21_layer_norm2_bias_to_fp16 = const()[name = tensor<string, []>("text_encoder_text_model_encoder_layers_21_layer_norm2_bias_to_fp16"), val = tensor<fp16, [1024]>(BLOBFILE(path = tensor<string, []>("@model_path/weights/weight.bin"), offset = tensor<uint64, []>(638824000)))];
            tensor<fp16, [1, 77, 1024]> input_349_cast = layer_norm(axes = input_349_axes_0, beta = text_encoder_text_model_encoder_layers_21_layer_norm2_bias_to_fp16, epsilon = var_12_to_fp16, gamma = text_encoder_text_model_encoder_layers_21_layer_norm2_weight_to_fp16, x = input_347_cast);
            tensor<fp16, [4096, 1024]> text_encoder_text_model_encoder_layers_21_mlp_fc1_weight_to_fp16 = const()[name = tensor<string, []>("text_encoder_text_model_encoder_layers_21_mlp_fc1_weight_to_fp16"), val = tensor<fp16, [4096, 1024]>(BLOBFILE(path = tensor<string, []>("@model_path/weights/weight.bin"), offset = tensor<uint64, []>(638826112)))];
            tensor<fp16, [4096]> text_encoder_text_model_encoder_layers_21_mlp_fc1_bias_to_fp16 = const()[name = tensor<string, []>("text_encoder_text_model_encoder_layers_21_mlp_fc1_bias_to_fp16"), val = tensor<fp16, [4096]>(BLOBFILE(path = tensor<string, []>("@model_path/weights/weight.bin"), offset = tensor<uint64, []>(647214784)))];
            tensor<fp16, [1, 77, 4096]> input_351_cast = linear(bias = text_encoder_text_model_encoder_layers_21_mlp_fc1_bias_to_fp16, weight = text_encoder_text_model_encoder_layers_21_mlp_fc1_weight_to_fp16, x = input_349_cast);
            tensor<string, []> input_353_mode_0 = const()[name = tensor<string, []>("input_353_mode_0"), val = tensor<string, []>("EXACT")];
            tensor<fp16, [1, 77, 4096]> input_353_cast = gelu(mode = input_353_mode_0, x = input_351_cast);
            tensor<fp16, [1024, 4096]> text_encoder_text_model_encoder_layers_21_mlp_fc2_weight_to_fp16 = const()[name = tensor<string, []>("text_encoder_text_model_encoder_layers_21_mlp_fc2_weight_to_fp16"), val = tensor<fp16, [1024, 4096]>(BLOBFILE(path = tensor<string, []>("@model_path/weights/weight.bin"), offset = tensor<uint64, []>(647223040)))];
            tensor<fp16, [1024]> text_encoder_text_model_encoder_layers_21_mlp_fc2_bias_to_fp16 = const()[name = tensor<string, []>("text_encoder_text_model_encoder_layers_21_mlp_fc2_bias_to_fp16"), val = tensor<fp16, [1024]>(BLOBFILE(path = tensor<string, []>("@model_path/weights/weight.bin"), offset = tensor<uint64, []>(655611712)))];
            tensor<fp16, [1, 77, 1024]> hidden_states_131_cast = linear(bias = text_encoder_text_model_encoder_layers_21_mlp_fc2_bias_to_fp16, weight = text_encoder_text_model_encoder_layers_21_mlp_fc2_weight_to_fp16, x = input_353_cast);
            tensor<fp16, [1, 77, 1024]> input_355_cast = add(x = input_347_cast, y = hidden_states_131_cast);
            tensor<int32, [1]> hidden_states_133_axes_0 = const()[name = tensor<string, []>("hidden_states_133_axes_0"), val = tensor<int32, [1]>([-1])];
            tensor<fp16, [1024]> text_encoder_text_model_encoder_layers_22_layer_norm1_weight_to_fp16 = const()[name = tensor<string, []>("text_encoder_text_model_encoder_layers_22_layer_norm1_weight_to_fp16"), val = tensor<fp16, [1024]>(BLOBFILE(path = tensor<string, []>("@model_path/weights/weight.bin"), offset = tensor<uint64, []>(655613824)))];
            tensor<fp16, [1024]> text_encoder_text_model_encoder_layers_22_layer_norm1_bias_to_fp16 = const()[name = tensor<string, []>("text_encoder_text_model_encoder_layers_22_layer_norm1_bias_to_fp16"), val = tensor<fp16, [1024]>(BLOBFILE(path = tensor<string, []>("@model_path/weights/weight.bin"), offset = tensor<uint64, []>(655615936)))];
            tensor<fp16, [1, 77, 1024]> hidden_states_133_cast = layer_norm(axes = hidden_states_133_axes_0, beta = text_encoder_text_model_encoder_layers_22_layer_norm1_bias_to_fp16, epsilon = var_12_to_fp16, gamma = text_encoder_text_model_encoder_layers_22_layer_norm1_weight_to_fp16, x = input_355_cast);
            tensor<fp16, [1024, 1024]> text_encoder_text_model_encoder_layers_22_self_attn_q_proj_weight_to_fp16 = const()[name = tensor<string, []>("text_encoder_text_model_encoder_layers_22_self_attn_q_proj_weight_to_fp16"), val = tensor<fp16, [1024, 1024]>(BLOBFILE(path = tensor<string, []>("@model_path/weights/weight.bin"), offset = tensor<uint64, []>(655618048)))];
            tensor<fp16, [1024]> text_encoder_text_model_encoder_layers_22_self_attn_q_proj_bias_to_fp16 = const()[name = tensor<string, []>("text_encoder_text_model_encoder_layers_22_self_attn_q_proj_bias_to_fp16"), val = tensor<fp16, [1024]>(BLOBFILE(path = tensor<string, []>("@model_path/weights/weight.bin"), offset = tensor<uint64, []>(657715264)))];
            tensor<fp16, [1, 77, 1024]> var_2024_cast = linear(bias = text_encoder_text_model_encoder_layers_22_self_attn_q_proj_bias_to_fp16, weight = text_encoder_text_model_encoder_layers_22_self_attn_q_proj_weight_to_fp16, x = hidden_states_133_cast);
            tensor<fp16, []> var_2025_to_fp16 = const()[name = tensor<string, []>("op_2025_to_fp16"), val = tensor<fp16, []>(0x1p-3)];
            tensor<fp16, [1, 77, 1024]> tensor_cast = mul(x = var_2024_cast, y = var_2025_to_fp16);
            tensor<fp16, [1024, 1024]> text_encoder_text_model_encoder_layers_22_self_attn_k_proj_weight_to_fp16 = const()[name = tensor<string, []>("text_encoder_text_model_encoder_layers_22_self_attn_k_proj_weight_to_fp16"), val = tensor<fp16, [1024, 1024]>(BLOBFILE(path = tensor<string, []>("@model_path/weights/weight.bin"), offset = tensor<uint64, []>(657717376)))];
            tensor<fp16, [1024]> text_encoder_text_model_encoder_layers_22_self_attn_k_proj_bias_to_fp16 = const()[name = tensor<string, []>("text_encoder_text_model_encoder_layers_22_self_attn_k_proj_bias_to_fp16"), val = tensor<fp16, [1024]>(BLOBFILE(path = tensor<string, []>("@model_path/weights/weight.bin"), offset = tensor<uint64, []>(659814592)))];
            tensor<fp16, [1, 77, 1024]> tensor_133_cast = linear(bias = text_encoder_text_model_encoder_layers_22_self_attn_k_proj_bias_to_fp16, weight = text_encoder_text_model_encoder_layers_22_self_attn_k_proj_weight_to_fp16, x = hidden_states_133_cast);
            tensor<int32, [4]> var_2030 = const()[name = tensor<string, []>("op_2030"), val = tensor<int32, [4]>([1, -1, 16, 64])];
            tensor<fp16, [1, 77, 16, 64]> var_2031_cast = reshape(shape = var_2030, x = tensor_133_cast);
            tensor<int32, [4]> var_2032_perm_0 = const()[name = tensor<string, []>("op_2032_perm_0"), val = tensor<int32, [4]>([0, 2, 1, 3])];
            tensor<fp16, [1024, 1024]> text_encoder_text_model_encoder_layers_22_self_attn_v_proj_weight_to_fp16 = const()[name = tensor<string, []>("text_encoder_text_model_encoder_layers_22_self_attn_v_proj_weight_to_fp16"), val = tensor<fp16, [1024, 1024]>(BLOBFILE(path = tensor<string, []>("@model_path/weights/weight.bin"), offset = tensor<uint64, []>(659816704)))];
            tensor<fp16, [1024]> text_encoder_text_model_encoder_layers_22_self_attn_v_proj_bias_to_fp16 = const()[name = tensor<string, []>("text_encoder_text_model_encoder_layers_22_self_attn_v_proj_bias_to_fp16"), val = tensor<fp16, [1024]>(BLOBFILE(path = tensor<string, []>("@model_path/weights/weight.bin"), offset = tensor<uint64, []>(661913920)))];
            tensor<fp16, [1, 77, 1024]> tensor_135_cast = linear(bias = text_encoder_text_model_encoder_layers_22_self_attn_v_proj_bias_to_fp16, weight = text_encoder_text_model_encoder_layers_22_self_attn_v_proj_weight_to_fp16, x = hidden_states_133_cast);
            tensor<int32, [4]> var_2037 = const()[name = tensor<string, []>("op_2037"), val = tensor<int32, [4]>([1, -1, 16, 64])];
            tensor<fp16, [1, 77, 16, 64]> var_2038_cast = reshape(shape = var_2037, x = tensor_135_cast);
            tensor<int32, [4]> var_2039_perm_0 = const()[name = tensor<string, []>("op_2039_perm_0"), val = tensor<int32, [4]>([0, 2, 1, 3])];
            tensor<int32, [4]> var_2046 = const()[name = tensor<string, []>("op_2046"), val = tensor<int32, [4]>([1, 77, 16, 64])];
            tensor<fp16, [1, 77, 16, 64]> var_2047_cast = reshape(shape = var_2046, x = tensor_cast);
            tensor<int32, [4]> var_2048_perm_0 = const()[name = tensor<string, []>("op_2048_perm_0"), val = tensor<int32, [4]>([0, 2, 1, 3])];
            tensor<int32, [3]> var_2050 = const()[name = tensor<string, []>("op_2050"), val = tensor<int32, [3]>([16, -1, 64])];
            tensor<fp16, [1, 16, 77, 64]> transpose_3 = transpose(perm = var_2048_perm_0, x = var_2047_cast);
            tensor<fp16, [16, 77, 64]> query_states_cast = reshape(shape = var_2050, x = transpose_3);
            tensor<int32, [3]> var_2052 = const()[name = tensor<string, []>("op_2052"), val = tensor<int32, [3]>([16, -1, 64])];
            tensor<fp16, [1, 16, 77, 64]> transpose_5 = transpose(perm = var_2032_perm_0, x = var_2031_cast);
            tensor<fp16, [16, 77, 64]> key_states_cast = reshape(shape = var_2052, x = transpose_5);
            tensor<int32, [3]> var_2054 = const()[name = tensor<string, []>("op_2054"), val = tensor<int32, [3]>([16, -1, 64])];
            tensor<fp16, [1, 16, 77, 64]> transpose_4 = transpose(perm = var_2039_perm_0, x = var_2038_cast);
            tensor<fp16, [16, 77, 64]> value_states_cast = reshape(shape = var_2054, x = transpose_4);
            tensor<int32, [3]> var_2057_perm_0 = const()[name = tensor<string, []>("op_2057_perm_0"), val = tensor<int32, [3]>([0, 2, 1])];
            tensor<bool, []> attn_weights_133_transpose_x_0 = const()[name = tensor<string, []>("attn_weights_133_transpose_x_0"), val = tensor<bool, []>(false)];
            tensor<bool, []> attn_weights_133_transpose_y_0 = const()[name = tensor<string, []>("attn_weights_133_transpose_y_0"), val = tensor<bool, []>(false)];
            tensor<fp16, [16, 64, 77]> transpose_2 = transpose(perm = var_2057_perm_0, x = key_states_cast);
            tensor<fp16, [16, 77, 77]> attn_weights_133_cast = matmul(transpose_x = attn_weights_133_transpose_x_0, transpose_y = attn_weights_133_transpose_y_0, x = query_states_cast, y = transpose_2);
            tensor<int32, [4]> var_2059 = const()[name = tensor<string, []>("op_2059"), val = tensor<int32, [4]>([1, 16, 77, 77])];
            tensor<fp16, [1, 16, 77, 77]> var_2060_cast = reshape(shape = var_2059, x = attn_weights_133_cast);
            tensor<fp16, [1, 16, 77, 77]> attn_weights_135_cast = add(x = var_2060_cast, y = var_44_cast);
            tensor<int32, [3]> var_2065 = const()[name = tensor<string, []>("op_2065"), val = tensor<int32, [3]>([16, 77, 77])];
            tensor<fp16, [16, 77, 77]> input_357_cast = reshape(shape = var_2065, x = attn_weights_135_cast);
            tensor<fp16, [16, 77, 77]> input_359_cast = softmax(axis = var_5, x = input_357_cast);
            tensor<bool, []> attn_output_133_transpose_x_0 = const()[name = tensor<string, []>("attn_output_133_transpose_x_0"), val = tensor<bool, []>(false)];
            tensor<bool, []> attn_output_133_transpose_y_0 = const()[name = tensor<string, []>("attn_output_133_transpose_y_0"), val = tensor<bool, []>(false)];
            tensor<fp16, [16, 77, 64]> attn_output_133_cast = matmul(transpose_x = attn_output_133_transpose_x_0, transpose_y = attn_output_133_transpose_y_0, x = input_359_cast, y = value_states_cast);
            tensor<int32, [4]> var_2070 = const()[name = tensor<string, []>("op_2070"), val = tensor<int32, [4]>([1, 16, 77, 64])];
            tensor<fp16, [1, 16, 77, 64]> attn_output_135_cast = reshape(shape = var_2070, x = attn_output_133_cast);
            tensor<int32, [4]> attn_output_perm_0 = const()[name = tensor<string, []>("attn_output_perm_0"), val = tensor<int32, [4]>([0, 2, 1, 3])];
            tensor<int32, [3]> var_2073 = const()[name = tensor<string, []>("op_2073"), val = tensor<int32, [3]>([1, 77, 1024])];
            tensor<fp16, [1, 77, 16, 64]> transpose_1 = transpose(perm = attn_output_perm_0, x = attn_output_135_cast);
            tensor<fp16, [1, 77, 1024]> input_361_cast = reshape(shape = var_2073, x = transpose_1);
            tensor<fp16, [1024, 1024]> text_encoder_text_model_encoder_layers_22_self_attn_out_proj_weight_to_fp16 = const()[name = tensor<string, []>("text_encoder_text_model_encoder_layers_22_self_attn_out_proj_weight_to_fp16"), val = tensor<fp16, [1024, 1024]>(BLOBFILE(path = tensor<string, []>("@model_path/weights/weight.bin"), offset = tensor<uint64, []>(661916032)))];
            tensor<fp16, [1024]> text_encoder_text_model_encoder_layers_22_self_attn_out_proj_bias_to_fp16 = const()[name = tensor<string, []>("text_encoder_text_model_encoder_layers_22_self_attn_out_proj_bias_to_fp16"), val = tensor<fp16, [1024]>(BLOBFILE(path = tensor<string, []>("@model_path/weights/weight.bin"), offset = tensor<uint64, []>(664013248)))];
            tensor<fp16, [1, 77, 1024]> hidden_states_135_cast = linear(bias = text_encoder_text_model_encoder_layers_22_self_attn_out_proj_bias_to_fp16, weight = text_encoder_text_model_encoder_layers_22_self_attn_out_proj_weight_to_fp16, x = input_361_cast);
            tensor<fp16, [1, 77, 1024]> input_363_cast = add(x = input_355_cast, y = hidden_states_135_cast);
            tensor<int32, [1]> input_365_axes_0 = const()[name = tensor<string, []>("input_365_axes_0"), val = tensor<int32, [1]>([-1])];
            tensor<fp16, [1024]> text_encoder_text_model_encoder_layers_22_layer_norm2_weight_to_fp16 = const()[name = tensor<string, []>("text_encoder_text_model_encoder_layers_22_layer_norm2_weight_to_fp16"), val = tensor<fp16, [1024]>(BLOBFILE(path = tensor<string, []>("@model_path/weights/weight.bin"), offset = tensor<uint64, []>(664015360)))];
            tensor<fp16, [1024]> text_encoder_text_model_encoder_layers_22_layer_norm2_bias_to_fp16 = const()[name = tensor<string, []>("text_encoder_text_model_encoder_layers_22_layer_norm2_bias_to_fp16"), val = tensor<fp16, [1024]>(BLOBFILE(path = tensor<string, []>("@model_path/weights/weight.bin"), offset = tensor<uint64, []>(664017472)))];
            tensor<fp16, [1, 77, 1024]> input_365_cast = layer_norm(axes = input_365_axes_0, beta = text_encoder_text_model_encoder_layers_22_layer_norm2_bias_to_fp16, epsilon = var_12_to_fp16, gamma = text_encoder_text_model_encoder_layers_22_layer_norm2_weight_to_fp16, x = input_363_cast);
            tensor<fp16, [4096, 1024]> text_encoder_text_model_encoder_layers_22_mlp_fc1_weight_to_fp16 = const()[name = tensor<string, []>("text_encoder_text_model_encoder_layers_22_mlp_fc1_weight_to_fp16"), val = tensor<fp16, [4096, 1024]>(BLOBFILE(path = tensor<string, []>("@model_path/weights/weight.bin"), offset = tensor<uint64, []>(664019584)))];
            tensor<fp16, [4096]> text_encoder_text_model_encoder_layers_22_mlp_fc1_bias_to_fp16 = const()[name = tensor<string, []>("text_encoder_text_model_encoder_layers_22_mlp_fc1_bias_to_fp16"), val = tensor<fp16, [4096]>(BLOBFILE(path = tensor<string, []>("@model_path/weights/weight.bin"), offset = tensor<uint64, []>(672408256)))];
            tensor<fp16, [1, 77, 4096]> input_367_cast = linear(bias = text_encoder_text_model_encoder_layers_22_mlp_fc1_bias_to_fp16, weight = text_encoder_text_model_encoder_layers_22_mlp_fc1_weight_to_fp16, x = input_365_cast);
            tensor<string, []> input_369_mode_0 = const()[name = tensor<string, []>("input_369_mode_0"), val = tensor<string, []>("EXACT")];
            tensor<fp16, [1, 77, 4096]> input_369_cast = gelu(mode = input_369_mode_0, x = input_367_cast);
            tensor<fp16, [1024, 4096]> text_encoder_text_model_encoder_layers_22_mlp_fc2_weight_to_fp16 = const()[name = tensor<string, []>("text_encoder_text_model_encoder_layers_22_mlp_fc2_weight_to_fp16"), val = tensor<fp16, [1024, 4096]>(BLOBFILE(path = tensor<string, []>("@model_path/weights/weight.bin"), offset = tensor<uint64, []>(672416512)))];
            tensor<fp16, [1024]> text_encoder_text_model_encoder_layers_22_mlp_fc2_bias_to_fp16 = const()[name = tensor<string, []>("text_encoder_text_model_encoder_layers_22_mlp_fc2_bias_to_fp16"), val = tensor<fp16, [1024]>(BLOBFILE(path = tensor<string, []>("@model_path/weights/weight.bin"), offset = tensor<uint64, []>(680805184)))];
            tensor<fp16, [1, 77, 1024]> hidden_states_cast = linear(bias = text_encoder_text_model_encoder_layers_22_mlp_fc2_bias_to_fp16, weight = text_encoder_text_model_encoder_layers_22_mlp_fc2_weight_to_fp16, x = input_369_cast);
            tensor<fp16, [1, 77, 1024]> input_cast = add(x = input_363_cast, y = hidden_states_cast);
            tensor<int32, [1]> last_hidden_state_axes_0 = const()[name = tensor<string, []>("last_hidden_state_axes_0"), val = tensor<int32, [1]>([-1])];
            tensor<fp16, [1024]> text_encoder_text_model_final_layer_norm_weight_to_fp16 = const()[name = tensor<string, []>("text_encoder_text_model_final_layer_norm_weight_to_fp16"), val = tensor<fp16, [1024]>(BLOBFILE(path = tensor<string, []>("@model_path/weights/weight.bin"), offset = tensor<uint64, []>(680807296)))];
            tensor<fp16, [1024]> text_encoder_text_model_final_layer_norm_bias_to_fp16 = const()[name = tensor<string, []>("text_encoder_text_model_final_layer_norm_bias_to_fp16"), val = tensor<fp16, [1024]>(BLOBFILE(path = tensor<string, []>("@model_path/weights/weight.bin"), offset = tensor<uint64, []>(680809408)))];
            tensor<fp16, [1, 77, 1024]> last_hidden_state_cast = layer_norm(axes = last_hidden_state_axes_0, beta = text_encoder_text_model_final_layer_norm_bias_to_fp16, epsilon = var_12_to_fp16, gamma = text_encoder_text_model_final_layer_norm_weight_to_fp16, x = input_cast);
            tensor<string, []> last_hidden_state_cast_to_fp32_dtype_0 = const()[name = tensor<string, []>("last_hidden_state_cast_to_fp32_dtype_0"), val = tensor<string, []>("fp32")];
            tensor<int32, [1]> var_2098 = const()[name = tensor<string, []>("op_2098"), val = tensor<int32, [1]>([0])];
            tensor<int32, [1]> var_2100 = reduce_argmax(axis = var_5, keep_dims = var_6, x = cast_954);
            tensor<int32, []> stack_0_axis_0 = const()[name = tensor<string, []>("stack_0_axis_0"), val = tensor<int32, []>(1)];
            tensor<int32, [1, 2]> stack_0 = stack(axis = stack_0_axis_0, values = (var_2098, var_2100));
            tensor<int32, []> var_2102_transpose_batch_dims_0 = const()[name = tensor<string, []>("op_2102_transpose_batch_dims_0"), val = tensor<int32, []>(0)];
            tensor<fp16, [1, 1024]> var_2102_transpose_cast = gather_nd(batch_dims = var_2102_transpose_batch_dims_0, indices = stack_0, x = last_hidden_state_cast);
            tensor<string, []> var_2102_cast_to_fp32_dtype_0 = const()[name = tensor<string, []>("op_2102_cast_to_fp32_dtype_0"), val = tensor<string, []>("fp32")];
            tensor<fp32, [1, 1024]> pooled_outputs = cast(dtype = var_2102_cast_to_fp32_dtype_0, x = var_2102_transpose_cast);
            tensor<fp32, [1, 77, 1024]> last_hidden_state = cast(dtype = last_hidden_state_cast_to_fp32_dtype_0, x = last_hidden_state_cast);
        } -> (last_hidden_state, pooled_outputs);
}