program(1.0)
[buildInfo = dict<tensor<string, []>, tensor<string, []>>({{"coremlc-component-MIL", "4.28.4"}, {"coremlc-version", "1429.0.0"}})]
{
    func main<ios16>(tensor<fp16, [2, 1024, 1, 77]> encoder_hidden_states, tensor<fp16, [2, 4, 64, 64]> sample, tensor<fp16, [2]> timestep) {
            tensor<int32, []> var_25 = const()[name = tensor<string, []>("op_25"), val = tensor<int32, []>(-1)];
            tensor<int32, [1]> var_42_axes_0 = const()[name = tensor<string, []>("op_42_axes_0"), val = tensor<int32, [1]>([1])];
            tensor<fp16, [2, 1]> var_42_cast = expand_dims(axes = var_42_axes_0, x = timestep);
            tensor<fp16, [1, 160]> var_44_to_fp16 = const()[name = tensor<string, []>("op_44_to_fp16"), val = tensor<fp16, [1, 160]>(BLOBFILE(path = tensor<string, []>("@model_path/weights/weight.bin"), offset = tensor<uint64, []>(64)))];
            tensor<fp16, [2, 160]> emb_3_cast = mul(x = var_42_cast, y = var_44_to_fp16);
            tensor<fp16, [2, 160]> var_49_cast = sin(x = emb_3_cast);
            tensor<fp16, [2, 160]> var_50_cast = cos(x = emb_3_cast);
            tensor<bool, []> emb_interleave_0 = const()[name = tensor<string, []>("emb_interleave_0"), val = tensor<bool, []>(false)];
            tensor<fp16, [2, 320]> emb_cast = concat(axis = var_25, interleave = emb_interleave_0, values = (var_49_cast, var_50_cast));
            tensor<int32, [2]> var_54_begin_0 = const()[name = tensor<string, []>("op_54_begin_0"), val = tensor<int32, [2]>([0, 160])];
            tensor<int32, [2]> var_54_end_0 = const()[name = tensor<string, []>("op_54_end_0"), val = tensor<int32, [2]>([2, 320])];
            tensor<bool, [2]> var_54_end_mask_0 = const()[name = tensor<string, []>("op_54_end_mask_0"), val = tensor<bool, [2]>([true, true])];
            tensor<fp16, [2, 160]> var_54_cast = slice_by_index(begin = var_54_begin_0, end = var_54_end_0, end_mask = var_54_end_mask_0, x = emb_cast);
            tensor<int32, [2]> var_56_begin_0 = const()[name = tensor<string, []>("op_56_begin_0"), val = tensor<int32, [2]>([0, 0])];
            tensor<int32, [2]> var_56_end_0 = const()[name = tensor<string, []>("op_56_end_0"), val = tensor<int32, [2]>([2, 160])];
            tensor<bool, [2]> var_56_end_mask_0 = const()[name = tensor<string, []>("op_56_end_mask_0"), val = tensor<bool, [2]>([true, false])];
            tensor<fp16, [2, 160]> var_56_cast = slice_by_index(begin = var_56_begin_0, end = var_56_end_0, end_mask = var_56_end_mask_0, x = emb_cast);
            tensor<bool, []> sample_interleave_0 = const()[name = tensor<string, []>("sample_interleave_0"), val = tensor<bool, []>(false)];
            tensor<fp16, [2, 320]> sample_cast = concat(axis = var_25, interleave = sample_interleave_0, values = (var_54_cast, var_56_cast));
            tensor<int32, []> var_59 = const()[name = tensor<string, []>("op_59"), val = tensor<int32, []>(1)];
            tensor<int32, [1]> var_66_axes_0 = const()[name = tensor<string, []>("op_66_axes_0"), val = tensor<int32, [1]>([-1])];
            tensor<fp16, [2, 320, 1]> var_66_cast = expand_dims(axes = var_66_axes_0, x = sample_cast);
            tensor<int32, [1]> input_1_axes_0 = const()[name = tensor<string, []>("input_1_axes_0"), val = tensor<int32, [1]>([-1])];
            tensor<fp16, [2, 320, 1, 1]> input_1_cast = expand_dims(axes = input_1_axes_0, x = var_66_cast);
            tensor<int32, [2]> var_70 = const()[name = tensor<string, []>("op_70"), val = tensor<int32, [2]>([1, 1])];
            tensor<int32, [2]> var_72 = const()[name = tensor<string, []>("op_72"), val = tensor<int32, [2]>([1, 1])];
            tensor<string, []> input_3_pad_type_0 = const()[name = tensor<string, []>("input_3_pad_type_0"), val = tensor<string, []>("custom")];
            tensor<int32, [4]> input_3_pad_0 = const()[name = tensor<string, []>("input_3_pad_0"), val = tensor<int32, [4]>([0, 0, 0, 0])];
            tensor<fp16, [1280, 320, 1, 1]> time_embedding_linear_1_weight_to_fp16 = const()[name = tensor<string, []>("time_embedding_linear_1_weight_to_fp16"), val = tensor<fp16, [1280, 320, 1, 1]>(BLOBFILE(path = tensor<string, []>("@model_path/weights/weight.bin"), offset = tensor<uint64, []>(448)))];
            tensor<fp16, [1280]> time_embedding_linear_1_bias_to_fp16 = const()[name = tensor<string, []>("time_embedding_linear_1_bias_to_fp16"), val = tensor<fp16, [1280]>(BLOBFILE(path = tensor<string, []>("@model_path/weights/weight.bin"), offset = tensor<uint64, []>(819712)))];
            tensor<fp16, [2, 1280, 1, 1]> input_3_cast = conv(bias = time_embedding_linear_1_bias_to_fp16, dilations = var_72, groups = var_59, pad = input_3_pad_0, pad_type = input_3_pad_type_0, strides = var_70, weight = time_embedding_linear_1_weight_to_fp16, x = input_1_cast);
            tensor<fp16, [2, 1280, 1, 1]> input_5_cast = silu(x = input_3_cast);
            tensor<int32, [2]> var_78 = const()[name = tensor<string, []>("op_78"), val = tensor<int32, [2]>([1, 1])];
            tensor<int32, [2]> var_80 = const()[name = tensor<string, []>("op_80"), val = tensor<int32, [2]>([1, 1])];
            tensor<string, []> input_13_pad_type_0 = const()[name = tensor<string, []>("input_13_pad_type_0"), val = tensor<string, []>("custom")];
            tensor<int32, [4]> input_13_pad_0 = const()[name = tensor<string, []>("input_13_pad_0"), val = tensor<int32, [4]>([0, 0, 0, 0])];
            tensor<fp16, [1280, 1280, 1, 1]> time_embedding_linear_2_weight_to_fp16 = const()[name = tensor<string, []>("time_embedding_linear_2_weight_to_fp16"), val = tensor<fp16, [1280, 1280, 1, 1]>(BLOBFILE(path = tensor<string, []>("@model_path/weights/weight.bin"), offset = tensor<uint64, []>(822336)))];
            tensor<fp16, [1280]> time_embedding_linear_2_bias_to_fp16 = const()[name = tensor<string, []>("time_embedding_linear_2_bias_to_fp16"), val = tensor<fp16, [1280]>(BLOBFILE(path = tensor<string, []>("@model_path/weights/weight.bin"), offset = tensor<uint64, []>(4099200)))];
            tensor<fp16, [2, 1280, 1, 1]> input_13_cast = conv(bias = time_embedding_linear_2_bias_to_fp16, dilations = var_80, groups = var_59, pad = input_13_pad_0, pad_type = input_13_pad_type_0, strides = var_78, weight = time_embedding_linear_2_weight_to_fp16, x = input_5_cast);
            tensor<int32, []> var_86 = const()[name = tensor<string, []>("op_86"), val = tensor<int32, []>(1)];
            tensor<int32, [2]> var_89 = const()[name = tensor<string, []>("op_89"), val = tensor<int32, [2]>([1, 1])];
            tensor<int32, [2]> var_91 = const()[name = tensor<string, []>("op_91"), val = tensor<int32, [2]>([1, 1])];
            tensor<string, []> input_7_pad_type_0 = const()[name = tensor<string, []>("input_7_pad_type_0"), val = tensor<string, []>("custom")];
            tensor<int32, [4]> input_7_pad_0 = const()[name = tensor<string, []>("input_7_pad_0"), val = tensor<int32, [4]>([1, 1, 1, 1])];
            tensor<fp16, [320, 4, 3, 3]> conv_in_weight_to_fp16 = const()[name = tensor<string, []>("conv_in_weight_to_fp16"), val = tensor<fp16, [320, 4, 3, 3]>(BLOBFILE(path = tensor<string, []>("@model_path/weights/weight.bin"), offset = tensor<uint64, []>(4101824)))];
            tensor<fp16, [320]> conv_in_bias_to_fp16 = const()[name = tensor<string, []>("conv_in_bias_to_fp16"), val = tensor<fp16, [320]>(BLOBFILE(path = tensor<string, []>("@model_path/weights/weight.bin"), offset = tensor<uint64, []>(4124928)))];
            tensor<fp16, [2, 320, 64, 64]> input_7_cast_1 = conv(bias = conv_in_bias_to_fp16, dilations = var_91, groups = var_86, pad = input_7_pad_0, pad_type = input_7_pad_type_0, strides = var_89, weight = conv_in_weight_to_fp16, x = sample);
            tensor<bool, []> var_107 = const()[name = tensor<string, []>("op_107"), val = tensor<bool, []>(true)];
            tensor<int32, []> var_112 = const()[name = tensor<string, []>("op_112"), val = tensor<int32, []>(1)];
            tensor<int32, [5]> reshape_0_shape_0 = const()[name = tensor<string, []>("reshape_0_shape_0"), val = tensor<int32, [5]>([2, 32, 10, 64, 64])];
            tensor<fp16, [2, 32, 10, 64, 64]> reshape_0_cast = reshape(shape = reshape_0_shape_0, x = input_7_cast_1);
            tensor<int32, [3]> reduce_mean_0_axes_0 = const()[name = tensor<string, []>("reduce_mean_0_axes_0"), val = tensor<int32, [3]>([2, 3, 4])];
            tensor<bool, []> reduce_mean_0_keep_dims_0 = const()[name = tensor<string, []>("reduce_mean_0_keep_dims_0"), val = tensor<bool, []>(true)];
            tensor<fp16, [2, 32, 1, 1, 1]> reduce_mean_0_cast = reduce_mean(axes = reduce_mean_0_axes_0, keep_dims = reduce_mean_0_keep_dims_0, x = reshape_0_cast);
            tensor<fp16, [2, 32, 10, 64, 64]> sub_0_cast = sub(x = reshape_0_cast, y = reduce_mean_0_cast);
            tensor<fp16, [2, 32, 10, 64, 64]> square_0_cast = square(x = sub_0_cast);
            tensor<int32, [3]> reduce_mean_2_axes_0 = const()[name = tensor<string, []>("reduce_mean_2_axes_0"), val = tensor<int32, [3]>([2, 3, 4])];
            tensor<bool, []> reduce_mean_2_keep_dims_0 = const()[name = tensor<string, []>("reduce_mean_2_keep_dims_0"), val = tensor<bool, []>(true)];
            tensor<fp16, [2, 32, 1, 1, 1]> reduce_mean_2_cast = reduce_mean(axes = reduce_mean_2_axes_0, keep_dims = reduce_mean_2_keep_dims_0, x = square_0_cast);
            tensor<fp16, []> add_0_y_0_to_fp16 = const()[name = tensor<string, []>("add_0_y_0_to_fp16"), val = tensor<fp16, []>(0x1.5p-17)];
            tensor<fp16, [2, 32, 1, 1, 1]> add_0_cast = add(x = reduce_mean_2_cast, y = add_0_y_0_to_fp16);
            tensor<fp16, [2, 32, 1, 1, 1]> sqrt_0_cast = sqrt(x = add_0_cast);
            tensor<fp16, [2, 32, 10, 64, 64]> real_div_0_cast = real_div(x = sub_0_cast, y = sqrt_0_cast);
            tensor<int32, [4]> reshape_1_shape_0 = const()[name = tensor<string, []>("reshape_1_shape_0"), val = tensor<int32, [4]>([2, 320, 64, 64])];
            tensor<fp16, [2, 320, 64, 64]> reshape_1_cast = reshape(shape = reshape_1_shape_0, x = real_div_0_cast);
            tensor<fp16, [320]> add_1_mean_0_to_fp16 = const()[name = tensor<string, []>("add_1_mean_0_to_fp16"), val = tensor<fp16, [320]>(BLOBFILE(path = tensor<string, []>("@model_path/weights/weight.bin"), offset = tensor<uint64, []>(4125632)))];
            tensor<fp16, [320]> add_1_variance_0_to_fp16 = const()[name = tensor<string, []>("add_1_variance_0_to_fp16"), val = tensor<fp16, [320]>(BLOBFILE(path = tensor<string, []>("@model_path/weights/weight.bin"), offset = tensor<uint64, []>(4126336)))];
            tensor<fp16, [320]> add_1_gamma_0_to_fp16 = const()[name = tensor<string, []>("add_1_gamma_0_to_fp16"), val = tensor<fp16, [320]>(BLOBFILE(path = tensor<string, []>("@model_path/weights/weight.bin"), offset = tensor<uint64, []>(4127040)))];
            tensor<fp16, [320]> add_1_beta_0_to_fp16 = const()[name = tensor<string, []>("add_1_beta_0_to_fp16"), val = tensor<fp16, [320]>(BLOBFILE(path = tensor<string, []>("@model_path/weights/weight.bin"), offset = tensor<uint64, []>(4127744)))];
            tensor<fp16, []> add_1_epsilon_0_to_fp16 = const()[name = tensor<string, []>("add_1_epsilon_0_to_fp16"), val = tensor<fp16, []>(0x1.5p-17)];
            tensor<fp16, [2, 320, 64, 64]> add_1_cast = batch_norm(beta = add_1_beta_0_to_fp16, epsilon = add_1_epsilon_0_to_fp16, gamma = add_1_gamma_0_to_fp16, mean = add_1_mean_0_to_fp16, variance = add_1_variance_0_to_fp16, x = reshape_1_cast);
            tensor<fp16, [2, 320, 64, 64]> input_11_cast = silu(x = add_1_cast);
            tensor<int32, [2]> var_134 = const()[name = tensor<string, []>("op_134"), val = tensor<int32, [2]>([1, 1])];
            tensor<int32, [2]> var_136 = const()[name = tensor<string, []>("op_136"), val = tensor<int32, [2]>([1, 1])];
            tensor<string, []> hidden_states_1_pad_type_0 = const()[name = tensor<string, []>("hidden_states_1_pad_type_0"), val = tensor<string, []>("custom")];
            tensor<int32, [4]> hidden_states_1_pad_0 = const()[name = tensor<string, []>("hidden_states_1_pad_0"), val = tensor<int32, [4]>([1, 1, 1, 1])];
            tensor<fp16, [320, 320, 3, 3]> down_blocks_0_resnets_0_conv1_weight_to_fp16 = const()[name = tensor<string, []>("down_blocks_0_resnets_0_conv1_weight_to_fp16"), val = tensor<fp16, [320, 320, 3, 3]>(BLOBFILE(path = tensor<string, []>("@model_path/weights/weight.bin"), offset = tensor<uint64, []>(4128448)))];
            tensor<fp16, [320]> down_blocks_0_resnets_0_conv1_bias_to_fp16 = const()[name = tensor<string, []>("down_blocks_0_resnets_0_conv1_bias_to_fp16"), val = tensor<fp16, [320]>(BLOBFILE(path = tensor<string, []>("@model_path/weights/weight.bin"), offset = tensor<uint64, []>(5971712)))];
            tensor<fp16, [2, 320, 64, 64]> hidden_states_1_cast = conv(bias = down_blocks_0_resnets_0_conv1_bias_to_fp16, dilations = var_136, groups = var_112, pad = hidden_states_1_pad_0, pad_type = hidden_states_1_pad_type_0, strides = var_134, weight = down_blocks_0_resnets_0_conv1_weight_to_fp16, x = input_11_cast);
            tensor<fp16, [2, 1280, 1, 1]> input_15_cast_1 = silu(x = input_13_cast);
            tensor<int32, [2]> var_142 = const()[name = tensor<string, []>("op_142"), val = tensor<int32, [2]>([1, 1])];
            tensor<int32, [2]> var_144 = const()[name = tensor<string, []>("op_144"), val = tensor<int32, [2]>([1, 1])];
            tensor<string, []> temb_1_pad_type_0 = const()[name = tensor<string, []>("temb_1_pad_type_0"), val = tensor<string, []>("custom")];
            tensor<int32, [4]> temb_1_pad_0 = const()[name = tensor<string, []>("temb_1_pad_0"), val = tensor<int32, [4]>([0, 0, 0, 0])];
            tensor<fp16, [320, 1280, 1, 1]> down_blocks_0_resnets_0_time_emb_proj_weight_to_fp16 = const()[name = tensor<string, []>("down_blocks_0_resnets_0_time_emb_proj_weight_to_fp16"), val = tensor<fp16, [320, 1280, 1, 1]>(BLOBFILE(path = tensor<string, []>("@model_path/weights/weight.bin"), offset = tensor<uint64, []>(5972416)))];
            tensor<fp16, [320]> down_blocks_0_resnets_0_time_emb_proj_bias_to_fp16 = const()[name = tensor<string, []>("down_blocks_0_resnets_0_time_emb_proj_bias_to_fp16"), val = tensor<fp16, [320]>(BLOBFILE(path = tensor<string, []>("@model_path/weights/weight.bin"), offset = tensor<uint64, []>(6791680)))];
            tensor<fp16, [2, 320, 1, 1]> temb_1_cast = conv(bias = down_blocks_0_resnets_0_time_emb_proj_bias_to_fp16, dilations = var_144, groups = var_112, pad = temb_1_pad_0, pad_type = temb_1_pad_type_0, strides = var_142, weight = down_blocks_0_resnets_0_time_emb_proj_weight_to_fp16, x = input_15_cast_1);
            tensor<fp16, [2, 320, 64, 64]> input_17_cast = add(x = hidden_states_1_cast, y = temb_1_cast);
            tensor<int32, [5]> reshape_4_shape_0 = const()[name = tensor<string, []>("reshape_4_shape_0"), val = tensor<int32, [5]>([2, 32, 10, 64, 64])];
            tensor<fp16, [2, 32, 10, 64, 64]> reshape_4_cast = reshape(shape = reshape_4_shape_0, x = input_17_cast);
            tensor<int32, [3]> reduce_mean_3_axes_0 = const()[name = tensor<string, []>("reduce_mean_3_axes_0"), val = tensor<int32, [3]>([2, 3, 4])];
            tensor<bool, []> reduce_mean_3_keep_dims_0 = const()[name = tensor<string, []>("reduce_mean_3_keep_dims_0"), val = tensor<bool, []>(true)];
            tensor<fp16, [2, 32, 1, 1, 1]> reduce_mean_3_cast = reduce_mean(axes = reduce_mean_3_axes_0, keep_dims = reduce_mean_3_keep_dims_0, x = reshape_4_cast);
            tensor<fp16, [2, 32, 10, 64, 64]> sub_2_cast = sub(x = reshape_4_cast, y = reduce_mean_3_cast);
            tensor<fp16, [2, 32, 10, 64, 64]> square_1_cast = square(x = sub_2_cast);
            tensor<int32, [3]> reduce_mean_5_axes_0 = const()[name = tensor<string, []>("reduce_mean_5_axes_0"), val = tensor<int32, [3]>([2, 3, 4])];
            tensor<bool, []> reduce_mean_5_keep_dims_0 = const()[name = tensor<string, []>("reduce_mean_5_keep_dims_0"), val = tensor<bool, []>(true)];
            tensor<fp16, [2, 32, 1, 1, 1]> reduce_mean_5_cast = reduce_mean(axes = reduce_mean_5_axes_0, keep_dims = reduce_mean_5_keep_dims_0, x = square_1_cast);
            tensor<fp16, []> add_2_y_0_to_fp16 = const()[name = tensor<string, []>("add_2_y_0_to_fp16"), val = tensor<fp16, []>(0x1.5p-17)];
            tensor<fp16, [2, 32, 1, 1, 1]> add_2_cast = add(x = reduce_mean_5_cast, y = add_2_y_0_to_fp16);
            tensor<fp16, [2, 32, 1, 1, 1]> sqrt_1_cast = sqrt(x = add_2_cast);
            tensor<fp16, [2, 32, 10, 64, 64]> real_div_1_cast = real_div(x = sub_2_cast, y = sqrt_1_cast);
            tensor<int32, [4]> reshape_5_shape_0 = const()[name = tensor<string, []>("reshape_5_shape_0"), val = tensor<int32, [4]>([2, 320, 64, 64])];
            tensor<fp16, [2, 320, 64, 64]> reshape_5_cast = reshape(shape = reshape_5_shape_0, x = real_div_1_cast);
            tensor<fp16, [320]> add_3_mean_0_to_fp16 = const()[name = tensor<string, []>("add_3_mean_0_to_fp16"), val = tensor<fp16, [320]>(BLOBFILE(path = tensor<string, []>("@model_path/weights/weight.bin"), offset = tensor<uint64, []>(6792384)))];
            tensor<fp16, [320]> add_3_variance_0_to_fp16 = const()[name = tensor<string, []>("add_3_variance_0_to_fp16"), val = tensor<fp16, [320]>(BLOBFILE(path = tensor<string, []>("@model_path/weights/weight.bin"), offset = tensor<uint64, []>(6793088)))];
            tensor<fp16, [320]> add_3_gamma_0_to_fp16 = const()[name = tensor<string, []>("add_3_gamma_0_to_fp16"), val = tensor<fp16, [320]>(BLOBFILE(path = tensor<string, []>("@model_path/weights/weight.bin"), offset = tensor<uint64, []>(6793792)))];
            tensor<fp16, [320]> add_3_beta_0_to_fp16 = const()[name = tensor<string, []>("add_3_beta_0_to_fp16"), val = tensor<fp16, [320]>(BLOBFILE(path = tensor<string, []>("@model_path/weights/weight.bin"), offset = tensor<uint64, []>(6794496)))];
            tensor<fp16, []> add_3_epsilon_0_to_fp16 = const()[name = tensor<string, []>("add_3_epsilon_0_to_fp16"), val = tensor<fp16, []>(0x1.5p-17)];
            tensor<fp16, [2, 320, 64, 64]> add_3_cast = batch_norm(beta = add_3_beta_0_to_fp16, epsilon = add_3_epsilon_0_to_fp16, gamma = add_3_gamma_0_to_fp16, mean = add_3_mean_0_to_fp16, variance = add_3_variance_0_to_fp16, x = reshape_5_cast);
            tensor<fp16, [2, 320, 64, 64]> input_21_cast = silu(x = add_3_cast);
            tensor<int32, [2]> var_154 = const()[name = tensor<string, []>("op_154"), val = tensor<int32, [2]>([1, 1])];
            tensor<int32, [2]> var_156 = const()[name = tensor<string, []>("op_156"), val = tensor<int32, [2]>([1, 1])];
            tensor<string, []> hidden_states_3_pad_type_0 = const()[name = tensor<string, []>("hidden_states_3_pad_type_0"), val = tensor<string, []>("custom")];
            tensor<int32, [4]> hidden_states_3_pad_0 = const()[name = tensor<string, []>("hidden_states_3_pad_0"), val = tensor<int32, [4]>([1, 1, 1, 1])];
            tensor<fp16, [320, 320, 3, 3]> down_blocks_0_resnets_0_conv2_weight_to_fp16 = const()[name = tensor<string, []>("down_blocks_0_resnets_0_conv2_weight_to_fp16"), val = tensor<fp16, [320, 320, 3, 3]>(BLOBFILE(path = tensor<string, []>("@model_path/weights/weight.bin"), offset = tensor<uint64, []>(6795200)))];
            tensor<fp16, [320]> down_blocks_0_resnets_0_conv2_bias_to_fp16 = const()[name = tensor<string, []>("down_blocks_0_resnets_0_conv2_bias_to_fp16"), val = tensor<fp16, [320]>(BLOBFILE(path = tensor<string, []>("@model_path/weights/weight.bin"), offset = tensor<uint64, []>(8638464)))];
            tensor<fp16, [2, 320, 64, 64]> hidden_states_3_cast = conv(bias = down_blocks_0_resnets_0_conv2_bias_to_fp16, dilations = var_156, groups = var_112, pad = hidden_states_3_pad_0, pad_type = hidden_states_3_pad_type_0, strides = var_154, weight = down_blocks_0_resnets_0_conv2_weight_to_fp16, x = input_21_cast);
            tensor<fp16, [2, 320, 64, 64]> hidden_states_5_cast = add(x = input_7_cast_1, y = hidden_states_3_cast);
            tensor<int32, [5]> reshape_8_shape_0 = const()[name = tensor<string, []>("reshape_8_shape_0"), val = tensor<int32, [5]>([2, 32, 10, 64, 64])];
            tensor<fp16, [2, 32, 10, 64, 64]> reshape_8_cast = reshape(shape = reshape_8_shape_0, x = hidden_states_5_cast);
            tensor<int32, [3]> reduce_mean_6_axes_0 = const()[name = tensor<string, []>("reduce_mean_6_axes_0"), val = tensor<int32, [3]>([2, 3, 4])];
            tensor<bool, []> reduce_mean_6_keep_dims_0 = const()[name = tensor<string, []>("reduce_mean_6_keep_dims_0"), val = tensor<bool, []>(true)];
            tensor<fp16, [2, 32, 1, 1, 1]> reduce_mean_6_cast = reduce_mean(axes = reduce_mean_6_axes_0, keep_dims = reduce_mean_6_keep_dims_0, x = reshape_8_cast);
            tensor<fp16, [2, 32, 10, 64, 64]> sub_4_cast = sub(x = reshape_8_cast, y = reduce_mean_6_cast);
            tensor<fp16, [2, 32, 10, 64, 64]> square_2_cast = square(x = sub_4_cast);
            tensor<int32, [3]> reduce_mean_8_axes_0 = const()[name = tensor<string, []>("reduce_mean_8_axes_0"), val = tensor<int32, [3]>([2, 3, 4])];
            tensor<bool, []> reduce_mean_8_keep_dims_0 = const()[name = tensor<string, []>("reduce_mean_8_keep_dims_0"), val = tensor<bool, []>(true)];
            tensor<fp16, [2, 32, 1, 1, 1]> reduce_mean_8_cast = reduce_mean(axes = reduce_mean_8_axes_0, keep_dims = reduce_mean_8_keep_dims_0, x = square_2_cast);
            tensor<fp16, []> add_4_y_0_to_fp16 = const()[name = tensor<string, []>("add_4_y_0_to_fp16"), val = tensor<fp16, []>(0x1.1p-20)];
            tensor<fp16, [2, 32, 1, 1, 1]> add_4_cast = add(x = reduce_mean_8_cast, y = add_4_y_0_to_fp16);
            tensor<fp16, [2, 32, 1, 1, 1]> sqrt_2_cast = sqrt(x = add_4_cast);
            tensor<fp16, [2, 32, 10, 64, 64]> real_div_2_cast = real_div(x = sub_4_cast, y = sqrt_2_cast);
            tensor<int32, [4]> reshape_9_shape_0 = const()[name = tensor<string, []>("reshape_9_shape_0"), val = tensor<int32, [4]>([2, 320, 64, 64])];
            tensor<fp16, [2, 320, 64, 64]> reshape_9_cast = reshape(shape = reshape_9_shape_0, x = real_div_2_cast);
            tensor<fp16, [320]> add_5_mean_0_to_fp16 = const()[name = tensor<string, []>("add_5_mean_0_to_fp16"), val = tensor<fp16, [320]>(BLOBFILE(path = tensor<string, []>("@model_path/weights/weight.bin"), offset = tensor<uint64, []>(8639168)))];
            tensor<fp16, [320]> add_5_variance_0_to_fp16 = const()[name = tensor<string, []>("add_5_variance_0_to_fp16"), val = tensor<fp16, [320]>(BLOBFILE(path = tensor<string, []>("@model_path/weights/weight.bin"), offset = tensor<uint64, []>(8639872)))];
            tensor<fp16, [320]> add_5_gamma_0_to_fp16 = const()[name = tensor<string, []>("add_5_gamma_0_to_fp16"), val = tensor<fp16, [320]>(BLOBFILE(path = tensor<string, []>("@model_path/weights/weight.bin"), offset = tensor<uint64, []>(8640576)))];
            tensor<fp16, [320]> add_5_beta_0_to_fp16 = const()[name = tensor<string, []>("add_5_beta_0_to_fp16"), val = tensor<fp16, [320]>(BLOBFILE(path = tensor<string, []>("@model_path/weights/weight.bin"), offset = tensor<uint64, []>(8641280)))];
            tensor<fp16, []> add_5_epsilon_0_to_fp16 = const()[name = tensor<string, []>("add_5_epsilon_0_to_fp16"), val = tensor<fp16, []>(0x1.5p-17)];
            tensor<fp16, [2, 320, 64, 64]> add_5_cast = batch_norm(beta = add_5_beta_0_to_fp16, epsilon = add_5_epsilon_0_to_fp16, gamma = add_5_gamma_0_to_fp16, mean = add_5_mean_0_to_fp16, variance = add_5_variance_0_to_fp16, x = reshape_9_cast);
            tensor<int32, [2]> var_176 = const()[name = tensor<string, []>("op_176"), val = tensor<int32, [2]>([1, 1])];
            tensor<int32, [2]> var_178 = const()[name = tensor<string, []>("op_178"), val = tensor<int32, [2]>([1, 1])];
            tensor<string, []> hidden_states_7_pad_type_0 = const()[name = tensor<string, []>("hidden_states_7_pad_type_0"), val = tensor<string, []>("custom")];
            tensor<int32, [4]> hidden_states_7_pad_0 = const()[name = tensor<string, []>("hidden_states_7_pad_0"), val = tensor<int32, [4]>([0, 0, 0, 0])];
            tensor<fp16, [320, 320, 1, 1]> down_blocks_0_attentions_0_proj_in_weight_to_fp16 = const()[name = tensor<string, []>("down_blocks_0_attentions_0_proj_in_weight_to_fp16"), val = tensor<fp16, [320, 320, 1, 1]>(BLOBFILE(path = tensor<string, []>("@model_path/weights/weight.bin"), offset = tensor<uint64, []>(8641984)))];
            tensor<fp16, [320]> down_blocks_0_attentions_0_proj_in_bias_to_fp16 = const()[name = tensor<string, []>("down_blocks_0_attentions_0_proj_in_bias_to_fp16"), val = tensor<fp16, [320]>(BLOBFILE(path = tensor<string, []>("@model_path/weights/weight.bin"), offset = tensor<uint64, []>(8846848)))];
            tensor<fp16, [2, 320, 64, 64]> hidden_states_7_cast = conv(bias = down_blocks_0_attentions_0_proj_in_bias_to_fp16, dilations = var_178, groups = var_112, pad = hidden_states_7_pad_0, pad_type = hidden_states_7_pad_type_0, strides = var_176, weight = down_blocks_0_attentions_0_proj_in_weight_to_fp16, x = add_5_cast);
            tensor<int32, [4]> var_183 = const()[name = tensor<string, []>("op_183"), val = tensor<int32, [4]>([2, 320, 1, 4096])];
            tensor<fp16, [2, 320, 1, 4096]> inputs_1_cast = reshape(shape = var_183, x = hidden_states_7_cast);
            tensor<int32, [1]> var_193 = const()[name = tensor<string, []>("op_193"), val = tensor<int32, [1]>([1])];
            tensor<fp16, [2, 1, 1, 4096]> channels_mean_1_cast = reduce_mean(axes = var_193, keep_dims = var_107, x = inputs_1_cast);
            tensor<fp16, [2, 320, 1, 4096]> zero_mean_1_cast = sub(x = inputs_1_cast, y = channels_mean_1_cast);
            tensor<fp16, [2, 320, 1, 4096]> zero_mean_sq_1_cast = mul(x = zero_mean_1_cast, y = zero_mean_1_cast);
            tensor<int32, [1]> var_197 = const()[name = tensor<string, []>("op_197"), val = tensor<int32, [1]>([1])];
            tensor<fp16, [2, 1, 1, 4096]> var_198_cast = reduce_mean(axes = var_197, keep_dims = var_107, x = zero_mean_sq_1_cast);
            tensor<fp16, []> var_199_to_fp16 = const()[name = tensor<string, []>("op_199_to_fp16"), val = tensor<fp16, []>(0x1.5p-17)];
            tensor<fp16, [2, 1, 1, 4096]> var_200_cast = add(x = var_198_cast, y = var_199_to_fp16);
            tensor<fp16, []> denom_1_epsilon_0_to_fp16 = const()[name = tensor<string, []>("denom_1_epsilon_0_to_fp16"), val = tensor<fp16, []>(0x1p-24)];
            tensor<fp16, [2, 1, 1, 4096]> denom_1_cast = rsqrt(epsilon = denom_1_epsilon_0_to_fp16, x = var_200_cast);
            tensor<fp16, [2, 320, 1, 4096]> out_1_cast = mul(x = zero_mean_1_cast, y = denom_1_cast);
            tensor<fp16, [1, 320, 1, 1]> var_204_to_fp16 = const()[name = tensor<string, []>("op_204_to_fp16"), val = tensor<fp16, [1, 320, 1, 1]>(BLOBFILE(path = tensor<string, []>("@model_path/weights/weight.bin"), offset = tensor<uint64, []>(8847552)))];
            tensor<fp16, [2, 320, 1, 4096]> var_205_cast = add(x = out_1_cast, y = var_204_to_fp16);
            tensor<fp16, [1, 320, 1, 1]> var_207_to_fp16 = const()[name = tensor<string, []>("op_207_to_fp16"), val = tensor<fp16, [1, 320, 1, 1]>(BLOBFILE(path = tensor<string, []>("@model_path/weights/weight.bin"), offset = tensor<uint64, []>(8848256)))];
            tensor<fp16, [2, 320, 1, 4096]> hidden_states_9_cast = mul(x = var_205_cast, y = var_207_to_fp16);
            tensor<int32, [2]> var_214 = const()[name = tensor<string, []>("op_214"), val = tensor<int32, [2]>([1, 1])];
            tensor<int32, [2]> var_216 = const()[name = tensor<string, []>("op_216"), val = tensor<int32, [2]>([1, 1])];
            tensor<string, []> q_1_pad_type_0 = const()[name = tensor<string, []>("q_1_pad_type_0"), val = tensor<string, []>("custom")];
            tensor<int32, [4]> q_1_pad_0 = const()[name = tensor<string, []>("q_1_pad_0"), val = tensor<int32, [4]>([0, 0, 0, 0])];
            tensor<fp16, [320, 320, 1, 1]> down_blocks_0_attentions_0_transformer_blocks_0_attn1_to_q_weight_to_fp16 = const()[name = tensor<string, []>("down_blocks_0_attentions_0_transformer_blocks_0_attn1_to_q_weight_to_fp16"), val = tensor<fp16, [320, 320, 1, 1]>(BLOBFILE(path = tensor<string, []>("@model_path/weights/weight.bin"), offset = tensor<uint64, []>(8848960)))];
            tensor<fp16, [2, 320, 1, 4096]> q_1_cast = conv(dilations = var_216, groups = var_112, pad = q_1_pad_0, pad_type = q_1_pad_type_0, strides = var_214, weight = down_blocks_0_attentions_0_transformer_blocks_0_attn1_to_q_weight_to_fp16, x = hidden_states_9_cast);
            tensor<int32, [2]> var_220 = const()[name = tensor<string, []>("op_220"), val = tensor<int32, [2]>([1, 1])];
            tensor<int32, [2]> var_222 = const()[name = tensor<string, []>("op_222"), val = tensor<int32, [2]>([1, 1])];
            tensor<string, []> k_1_pad_type_0 = const()[name = tensor<string, []>("k_1_pad_type_0"), val = tensor<string, []>("custom")];
            tensor<int32, [4]> k_1_pad_0 = const()[name = tensor<string, []>("k_1_pad_0"), val = tensor<int32, [4]>([0, 0, 0, 0])];
            tensor<fp16, [320, 320, 1, 1]> down_blocks_0_attentions_0_transformer_blocks_0_attn1_to_k_weight_to_fp16 = const()[name = tensor<string, []>("down_blocks_0_attentions_0_transformer_blocks_0_attn1_to_k_weight_to_fp16"), val = tensor<fp16, [320, 320, 1, 1]>(BLOBFILE(path = tensor<string, []>("@model_path/weights/weight.bin"), offset = tensor<uint64, []>(9053824)))];
            tensor<fp16, [2, 320, 1, 4096]> k_1_cast = conv(dilations = var_222, groups = var_112, pad = k_1_pad_0, pad_type = k_1_pad_type_0, strides = var_220, weight = down_blocks_0_attentions_0_transformer_blocks_0_attn1_to_k_weight_to_fp16, x = hidden_states_9_cast);
            tensor<int32, [2]> var_226 = const()[name = tensor<string, []>("op_226"), val = tensor<int32, [2]>([1, 1])];
            tensor<int32, [2]> var_228 = const()[name = tensor<string, []>("op_228"), val = tensor<int32, [2]>([1, 1])];
            tensor<string, []> v_1_pad_type_0 = const()[name = tensor<string, []>("v_1_pad_type_0"), val = tensor<string, []>("custom")];
            tensor<int32, [4]> v_1_pad_0 = const()[name = tensor<string, []>("v_1_pad_0"), val = tensor<int32, [4]>([0, 0, 0, 0])];
            tensor<fp16, [320, 320, 1, 1]> down_blocks_0_attentions_0_transformer_blocks_0_attn1_to_v_weight_to_fp16 = const()[name = tensor<string, []>("down_blocks_0_attentions_0_transformer_blocks_0_attn1_to_v_weight_to_fp16"), val = tensor<fp16, [320, 320, 1, 1]>(BLOBFILE(path = tensor<string, []>("@model_path/weights/weight.bin"), offset = tensor<uint64, []>(9258688)))];
            tensor<fp16, [2, 320, 1, 4096]> v_1_cast = conv(dilations = var_228, groups = var_112, pad = v_1_pad_0, pad_type = v_1_pad_type_0, strides = var_226, weight = down_blocks_0_attentions_0_transformer_blocks_0_attn1_to_v_weight_to_fp16, x = hidden_states_9_cast);
            tensor<int32, [4]> var_232_begin_0 = const()[name = tensor<string, []>("op_232_begin_0"), val = tensor<int32, [4]>([0, 0, 0, 0])];
            tensor<int32, [4]> var_232_end_0 = const()[name = tensor<string, []>("op_232_end_0"), val = tensor<int32, [4]>([2, 64, 1, 4096])];
            tensor<bool, [4]> var_232_end_mask_0 = const()[name = tensor<string, []>("op_232_end_mask_0"), val = tensor<bool, [4]>([true, false, true, true])];
            tensor<fp16, [2, 64, 1, 4096]> var_232_cast = slice_by_index(begin = var_232_begin_0, end = var_232_end_0, end_mask = var_232_end_mask_0, x = q_1_cast);
            tensor<int32, [4]> var_236_begin_0 = const()[name = tensor<string, []>("op_236_begin_0"), val = tensor<int32, [4]>([0, 64, 0, 0])];
            tensor<int32, [4]> var_236_end_0 = const()[name = tensor<string, []>("op_236_end_0"), val = tensor<int32, [4]>([2, 128, 1, 4096])];
            tensor<bool, [4]> var_236_end_mask_0 = const()[name = tensor<string, []>("op_236_end_mask_0"), val = tensor<bool, [4]>([true, false, true, true])];
            tensor<fp16, [2, 64, 1, 4096]> var_236_cast = slice_by_index(begin = var_236_begin_0, end = var_236_end_0, end_mask = var_236_end_mask_0, x = q_1_cast);
            tensor<int32, [4]> var_240_begin_0 = const()[name = tensor<string, []>("op_240_begin_0"), val = tensor<int32, [4]>([0, 128, 0, 0])];
            tensor<int32, [4]> var_240_end_0 = const()[name = tensor<string, []>("op_240_end_0"), val = tensor<int32, [4]>([2, 192, 1, 4096])];
            tensor<bool, [4]> var_240_end_mask_0 = const()[name = tensor<string, []>("op_240_end_mask_0"), val = tensor<bool, [4]>([true, false, true, true])];
            tensor<fp16, [2, 64, 1, 4096]> var_240_cast = slice_by_index(begin = var_240_begin_0, end = var_240_end_0, end_mask = var_240_end_mask_0, x = q_1_cast);
            tensor<int32, [4]> var_244_begin_0 = const()[name = tensor<string, []>("op_244_begin_0"), val = tensor<int32, [4]>([0, 192, 0, 0])];
            tensor<int32, [4]> var_244_end_0 = const()[name = tensor<string, []>("op_244_end_0"), val = tensor<int32, [4]>([2, 256, 1, 4096])];
            tensor<bool, [4]> var_244_end_mask_0 = const()[name = tensor<string, []>("op_244_end_mask_0"), val = tensor<bool, [4]>([true, false, true, true])];
            tensor<fp16, [2, 64, 1, 4096]> var_244_cast = slice_by_index(begin = var_244_begin_0, end = var_244_end_0, end_mask = var_244_end_mask_0, x = q_1_cast);
            tensor<int32, [4]> var_248_begin_0 = const()[name = tensor<string, []>("op_248_begin_0"), val = tensor<int32, [4]>([0, 256, 0, 0])];
            tensor<int32, [4]> var_248_end_0 = const()[name = tensor<string, []>("op_248_end_0"), val = tensor<int32, [4]>([2, 320, 1, 4096])];
            tensor<bool, [4]> var_248_end_mask_0 = const()[name = tensor<string, []>("op_248_end_mask_0"), val = tensor<bool, [4]>([true, false, true, true])];
            tensor<fp16, [2, 64, 1, 4096]> var_248_cast = slice_by_index(begin = var_248_begin_0, end = var_248_end_0, end_mask = var_248_end_mask_0, x = q_1_cast);
            tensor<int32, [4]> k_3_perm_0 = const()[name = tensor<string, []>("k_3_perm_0"), val = tensor<int32, [4]>([0, 3, 2, 1])];
            tensor<int32, [4]> var_255_begin_0 = const()[name = tensor<string, []>("op_255_begin_0"), val = tensor<int32, [4]>([0, 0, 0, 0])];
            tensor<int32, [4]> var_255_end_0 = const()[name = tensor<string, []>("op_255_end_0"), val = tensor<int32, [4]>([2, 4096, 1, 64])];
            tensor<bool, [4]> var_255_end_mask_0 = const()[name = tensor<string, []>("op_255_end_mask_0"), val = tensor<bool, [4]>([true, true, true, false])];
            tensor<fp16, [2, 4096, 1, 320]> transpose_77 = transpose(perm = k_3_perm_0, x = k_1_cast);
            tensor<fp16, [2, 4096, 1, 64]> var_255_cast = slice_by_index(begin = var_255_begin_0, end = var_255_end_0, end_mask = var_255_end_mask_0, x = transpose_77);
            tensor<int32, [4]> var_259_begin_0 = const()[name = tensor<string, []>("op_259_begin_0"), val = tensor<int32, [4]>([0, 0, 0, 64])];
            tensor<int32, [4]> var_259_end_0 = const()[name = tensor<string, []>("op_259_end_0"), val = tensor<int32, [4]>([2, 4096, 1, 128])];
            tensor<bool, [4]> var_259_end_mask_0 = const()[name = tensor<string, []>("op_259_end_mask_0"), val = tensor<bool, [4]>([true, true, true, false])];
            tensor<fp16, [2, 4096, 1, 64]> var_259_cast = slice_by_index(begin = var_259_begin_0, end = var_259_end_0, end_mask = var_259_end_mask_0, x = transpose_77);
            tensor<int32, [4]> var_263_begin_0 = const()[name = tensor<string, []>("op_263_begin_0"), val = tensor<int32, [4]>([0, 0, 0, 128])];
            tensor<int32, [4]> var_263_end_0 = const()[name = tensor<string, []>("op_263_end_0"), val = tensor<int32, [4]>([2, 4096, 1, 192])];
            tensor<bool, [4]> var_263_end_mask_0 = const()[name = tensor<string, []>("op_263_end_mask_0"), val = tensor<bool, [4]>([true, true, true, false])];
            tensor<fp16, [2, 4096, 1, 64]> var_263_cast = slice_by_index(begin = var_263_begin_0, end = var_263_end_0, end_mask = var_263_end_mask_0, x = transpose_77);
            tensor<int32, [4]> var_267_begin_0 = const()[name = tensor<string, []>("op_267_begin_0"), val = tensor<int32, [4]>([0, 0, 0, 192])];
            tensor<int32, [4]> var_267_end_0 = const()[name = tensor<string, []>("op_267_end_0"), val = tensor<int32, [4]>([2, 4096, 1, 256])];
            tensor<bool, [4]> var_267_end_mask_0 = const()[name = tensor<string, []>("op_267_end_mask_0"), val = tensor<bool, [4]>([true, true, true, false])];
            tensor<fp16, [2, 4096, 1, 64]> var_267_cast = slice_by_index(begin = var_267_begin_0, end = var_267_end_0, end_mask = var_267_end_mask_0, x = transpose_77);
            tensor<int32, [4]> var_271_begin_0 = const()[name = tensor<string, []>("op_271_begin_0"), val = tensor<int32, [4]>([0, 0, 0, 256])];
            tensor<int32, [4]> var_271_end_0 = const()[name = tensor<string, []>("op_271_end_0"), val = tensor<int32, [4]>([2, 4096, 1, 320])];
            tensor<bool, [4]> var_271_end_mask_0 = const()[name = tensor<string, []>("op_271_end_mask_0"), val = tensor<bool, [4]>([true, true, true, false])];
            tensor<fp16, [2, 4096, 1, 64]> var_271_cast = slice_by_index(begin = var_271_begin_0, end = var_271_end_0, end_mask = var_271_end_mask_0, x = transpose_77);
            tensor<int32, [4]> var_273_begin_0 = const()[name = tensor<string, []>("op_273_begin_0"), val = tensor<int32, [4]>([0, 0, 0, 0])];
            tensor<int32, [4]> var_273_end_0 = const()[name = tensor<string, []>("op_273_end_0"), val = tensor<int32, [4]>([2, 64, 1, 4096])];
            tensor<bool, [4]> var_273_end_mask_0 = const()[name = tensor<string, []>("op_273_end_mask_0"), val = tensor<bool, [4]>([true, false, true, true])];
            tensor<fp16, [2, 64, 1, 4096]> var_273_cast = slice_by_index(begin = var_273_begin_0, end = var_273_end_0, end_mask = var_273_end_mask_0, x = v_1_cast);
            tensor<int32, [4]> var_277_begin_0 = const()[name = tensor<string, []>("op_277_begin_0"), val = tensor<int32, [4]>([0, 64, 0, 0])];
            tensor<int32, [4]> var_277_end_0 = const()[name = tensor<string, []>("op_277_end_0"), val = tensor<int32, [4]>([2, 128, 1, 4096])];
            tensor<bool, [4]> var_277_end_mask_0 = const()[name = tensor<string, []>("op_277_end_mask_0"), val = tensor<bool, [4]>([true, false, true, true])];
            tensor<fp16, [2, 64, 1, 4096]> var_277_cast = slice_by_index(begin = var_277_begin_0, end = var_277_end_0, end_mask = var_277_end_mask_0, x = v_1_cast);
            tensor<int32, [4]> var_281_begin_0 = const()[name = tensor<string, []>("op_281_begin_0"), val = tensor<int32, [4]>([0, 128, 0, 0])];
            tensor<int32, [4]> var_281_end_0 = const()[name = tensor<string, []>("op_281_end_0"), val = tensor<int32, [4]>([2, 192, 1, 4096])];
            tensor<bool, [4]> var_281_end_mask_0 = const()[name = tensor<string, []>("op_281_end_mask_0"), val = tensor<bool, [4]>([true, false, true, true])];
            tensor<fp16, [2, 64, 1, 4096]> var_281_cast = slice_by_index(begin = var_281_begin_0, end = var_281_end_0, end_mask = var_281_end_mask_0, x = v_1_cast);
            tensor<int32, [4]> var_285_begin_0 = const()[name = tensor<string, []>("op_285_begin_0"), val = tensor<int32, [4]>([0, 192, 0, 0])];
            tensor<int32, [4]> var_285_end_0 = const()[name = tensor<string, []>("op_285_end_0"), val = tensor<int32, [4]>([2, 256, 1, 4096])];
            tensor<bool, [4]> var_285_end_mask_0 = const()[name = tensor<string, []>("op_285_end_mask_0"), val = tensor<bool, [4]>([true, false, true, true])];
            tensor<fp16, [2, 64, 1, 4096]> var_285_cast = slice_by_index(begin = var_285_begin_0, end = var_285_end_0, end_mask = var_285_end_mask_0, x = v_1_cast);
            tensor<int32, [4]> var_289_begin_0 = const()[name = tensor<string, []>("op_289_begin_0"), val = tensor<int32, [4]>([0, 256, 0, 0])];
            tensor<int32, [4]> var_289_end_0 = const()[name = tensor<string, []>("op_289_end_0"), val = tensor<int32, [4]>([2, 320, 1, 4096])];
            tensor<bool, [4]> var_289_end_mask_0 = const()[name = tensor<string, []>("op_289_end_mask_0"), val = tensor<bool, [4]>([true, false, true, true])];
            tensor<fp16, [2, 64, 1, 4096]> var_289_cast = slice_by_index(begin = var_289_begin_0, end = var_289_end_0, end_mask = var_289_end_mask_0, x = v_1_cast);
            tensor<string, []> var_293_equation_0 = const()[name = tensor<string, []>("op_293_equation_0"), val = tensor<string, []>("bkhc,bchq->bkhq")];
            tensor<fp16, [2, 4096, 1, 4096]> var_293_cast = einsum(equation = var_293_equation_0, values = (var_255_cast, var_232_cast));
            tensor<fp16, []> var_294_to_fp16 = const()[name = tensor<string, []>("op_294_to_fp16"), val = tensor<fp16, []>(0x1p-3)];
            tensor<fp16, [2, 4096, 1, 4096]> aw_1_cast = mul(x = var_293_cast, y = var_294_to_fp16);
            tensor<string, []> var_297_equation_0 = const()[name = tensor<string, []>("op_297_equation_0"), val = tensor<string, []>("bkhc,bchq->bkhq")];
            tensor<fp16, [2, 4096, 1, 4096]> var_297_cast = einsum(equation = var_297_equation_0, values = (var_259_cast, var_236_cast));
            tensor<fp16, []> var_298_to_fp16 = const()[name = tensor<string, []>("op_298_to_fp16"), val = tensor<fp16, []>(0x1p-3)];
            tensor<fp16, [2, 4096, 1, 4096]> aw_3_cast = mul(x = var_297_cast, y = var_298_to_fp16);
            tensor<string, []> var_301_equation_0 = const()[name = tensor<string, []>("op_301_equation_0"), val = tensor<string, []>("bkhc,bchq->bkhq")];
            tensor<fp16, [2, 4096, 1, 4096]> var_301_cast = einsum(equation = var_301_equation_0, values = (var_263_cast, var_240_cast));
            tensor<fp16, []> var_302_to_fp16 = const()[name = tensor<string, []>("op_302_to_fp16"), val = tensor<fp16, []>(0x1p-3)];
            tensor<fp16, [2, 4096, 1, 4096]> aw_5_cast = mul(x = var_301_cast, y = var_302_to_fp16);
            tensor<string, []> var_305_equation_0 = const()[name = tensor<string, []>("op_305_equation_0"), val = tensor<string, []>("bkhc,bchq->bkhq")];
            tensor<fp16, [2, 4096, 1, 4096]> var_305_cast = einsum(equation = var_305_equation_0, values = (var_267_cast, var_244_cast));
            tensor<fp16, []> var_306_to_fp16 = const()[name = tensor<string, []>("op_306_to_fp16"), val = tensor<fp16, []>(0x1p-3)];
            tensor<fp16, [2, 4096, 1, 4096]> aw_7_cast = mul(x = var_305_cast, y = var_306_to_fp16);
            tensor<string, []> var_309_equation_0 = const()[name = tensor<string, []>("op_309_equation_0"), val = tensor<string, []>("bkhc,bchq->bkhq")];
            tensor<fp16, [2, 4096, 1, 4096]> var_309_cast = einsum(equation = var_309_equation_0, values = (var_271_cast, var_248_cast));
            tensor<fp16, []> var_310_to_fp16 = const()[name = tensor<string, []>("op_310_to_fp16"), val = tensor<fp16, []>(0x1p-3)];
            tensor<fp16, [2, 4096, 1, 4096]> aw_9_cast = mul(x = var_309_cast, y = var_310_to_fp16);
            tensor<fp16, [2, 4096, 1, 4096]> var_312_cast = softmax(axis = var_112, x = aw_1_cast);
            tensor<fp16, [2, 4096, 1, 4096]> var_313_cast = softmax(axis = var_112, x = aw_3_cast);
            tensor<fp16, [2, 4096, 1, 4096]> var_314_cast = softmax(axis = var_112, x = aw_5_cast);
            tensor<fp16, [2, 4096, 1, 4096]> var_315_cast = softmax(axis = var_112, x = aw_7_cast);
            tensor<fp16, [2, 4096, 1, 4096]> var_316_cast = softmax(axis = var_112, x = aw_9_cast);
            tensor<string, []> var_318_equation_0 = const()[name = tensor<string, []>("op_318_equation_0"), val = tensor<string, []>("bchk,bkhq->bchq")];
            tensor<fp16, [2, 64, 1, 4096]> var_318_cast = einsum(equation = var_318_equation_0, values = (var_273_cast, var_312_cast));
            tensor<string, []> var_320_equation_0 = const()[name = tensor<string, []>("op_320_equation_0"), val = tensor<string, []>("bchk,bkhq->bchq")];
            tensor<fp16, [2, 64, 1, 4096]> var_320_cast = einsum(equation = var_320_equation_0, values = (var_277_cast, var_313_cast));
            tensor<string, []> var_322_equation_0 = const()[name = tensor<string, []>("op_322_equation_0"), val = tensor<string, []>("bchk,bkhq->bchq")];
            tensor<fp16, [2, 64, 1, 4096]> var_322_cast = einsum(equation = var_322_equation_0, values = (var_281_cast, var_314_cast));
            tensor<string, []> var_324_equation_0 = const()[name = tensor<string, []>("op_324_equation_0"), val = tensor<string, []>("bchk,bkhq->bchq")];
            tensor<fp16, [2, 64, 1, 4096]> var_324_cast = einsum(equation = var_324_equation_0, values = (var_285_cast, var_315_cast));
            tensor<string, []> var_326_equation_0 = const()[name = tensor<string, []>("op_326_equation_0"), val = tensor<string, []>("bchk,bkhq->bchq")];
            tensor<fp16, [2, 64, 1, 4096]> var_326_cast = einsum(equation = var_326_equation_0, values = (var_289_cast, var_316_cast));
            tensor<bool, []> input_25_interleave_0 = const()[name = tensor<string, []>("input_25_interleave_0"), val = tensor<bool, []>(false)];
            tensor<fp16, [2, 320, 1, 4096]> input_25_cast = concat(axis = var_112, interleave = input_25_interleave_0, values = (var_318_cast, var_320_cast, var_322_cast, var_324_cast, var_326_cast));
            tensor<int32, [2]> var_332 = const()[name = tensor<string, []>("op_332"), val = tensor<int32, [2]>([1, 1])];
            tensor<int32, [2]> var_334 = const()[name = tensor<string, []>("op_334"), val = tensor<int32, [2]>([1, 1])];
            tensor<string, []> var_336_pad_type_0 = const()[name = tensor<string, []>("op_336_pad_type_0"), val = tensor<string, []>("custom")];
            tensor<int32, [4]> var_336_pad_0 = const()[name = tensor<string, []>("op_336_pad_0"), val = tensor<int32, [4]>([0, 0, 0, 0])];
            tensor<fp16, [320, 320, 1, 1]> down_blocks_0_attentions_0_transformer_blocks_0_attn1_to_out_0_weight_to_fp16 = const()[name = tensor<string, []>("down_blocks_0_attentions_0_transformer_blocks_0_attn1_to_out_0_weight_to_fp16"), val = tensor<fp16, [320, 320, 1, 1]>(BLOBFILE(path = tensor<string, []>("@model_path/weights/weight.bin"), offset = tensor<uint64, []>(9463552)))];
            tensor<fp16, [320]> down_blocks_0_attentions_0_transformer_blocks_0_attn1_to_out_0_bias_to_fp16 = const()[name = tensor<string, []>("down_blocks_0_attentions_0_transformer_blocks_0_attn1_to_out_0_bias_to_fp16"), val = tensor<fp16, [320]>(BLOBFILE(path = tensor<string, []>("@model_path/weights/weight.bin"), offset = tensor<uint64, []>(9668416)))];
            tensor<fp16, [2, 320, 1, 4096]> var_336_cast = conv(bias = down_blocks_0_attentions_0_transformer_blocks_0_attn1_to_out_0_bias_to_fp16, dilations = var_334, groups = var_112, pad = var_336_pad_0, pad_type = var_336_pad_type_0, strides = var_332, weight = down_blocks_0_attentions_0_transformer_blocks_0_attn1_to_out_0_weight_to_fp16, x = input_25_cast);
            tensor<fp16, [2, 320, 1, 4096]> inputs_3_cast = add(x = var_336_cast, y = inputs_1_cast);
            tensor<int32, [1]> var_340 = const()[name = tensor<string, []>("op_340"), val = tensor<int32, [1]>([1])];
            tensor<fp16, [2, 1, 1, 4096]> channels_mean_3_cast = reduce_mean(axes = var_340, keep_dims = var_107, x = inputs_3_cast);
            tensor<fp16, [2, 320, 1, 4096]> zero_mean_3_cast = sub(x = inputs_3_cast, y = channels_mean_3_cast);
            tensor<fp16, [2, 320, 1, 4096]> zero_mean_sq_3_cast = mul(x = zero_mean_3_cast, y = zero_mean_3_cast);
            tensor<int32, [1]> var_344 = const()[name = tensor<string, []>("op_344"), val = tensor<int32, [1]>([1])];
            tensor<fp16, [2, 1, 1, 4096]> var_345_cast = reduce_mean(axes = var_344, keep_dims = var_107, x = zero_mean_sq_3_cast);
            tensor<fp16, []> var_346_to_fp16 = const()[name = tensor<string, []>("op_346_to_fp16"), val = tensor<fp16, []>(0x1.5p-17)];
            tensor<fp16, [2, 1, 1, 4096]> var_347_cast = add(x = var_345_cast, y = var_346_to_fp16);
            tensor<fp16, []> denom_3_epsilon_0_to_fp16 = const()[name = tensor<string, []>("denom_3_epsilon_0_to_fp16"), val = tensor<fp16, []>(0x1p-24)];
            tensor<fp16, [2, 1, 1, 4096]> denom_3_cast = rsqrt(epsilon = denom_3_epsilon_0_to_fp16, x = var_347_cast);
            tensor<fp16, [2, 320, 1, 4096]> out_3_cast = mul(x = zero_mean_3_cast, y = denom_3_cast);
            tensor<fp16, [1, 320, 1, 1]> var_351_to_fp16 = const()[name = tensor<string, []>("op_351_to_fp16"), val = tensor<fp16, [1, 320, 1, 1]>(BLOBFILE(path = tensor<string, []>("@model_path/weights/weight.bin"), offset = tensor<uint64, []>(9669120)))];
            tensor<fp16, [2, 320, 1, 4096]> var_352_cast = add(x = out_3_cast, y = var_351_to_fp16);
            tensor<fp16, [1, 320, 1, 1]> var_354_to_fp16 = const()[name = tensor<string, []>("op_354_to_fp16"), val = tensor<fp16, [1, 320, 1, 1]>(BLOBFILE(path = tensor<string, []>("@model_path/weights/weight.bin"), offset = tensor<uint64, []>(9669824)))];
            tensor<fp16, [2, 320, 1, 4096]> hidden_states_11_cast = mul(x = var_352_cast, y = var_354_to_fp16);
            tensor<int32, [2]> var_361 = const()[name = tensor<string, []>("op_361"), val = tensor<int32, [2]>([1, 1])];
            tensor<int32, [2]> var_363 = const()[name = tensor<string, []>("op_363"), val = tensor<int32, [2]>([1, 1])];
            tensor<string, []> q_3_pad_type_0 = const()[name = tensor<string, []>("q_3_pad_type_0"), val = tensor<string, []>("custom")];
            tensor<int32, [4]> q_3_pad_0 = const()[name = tensor<string, []>("q_3_pad_0"), val = tensor<int32, [4]>([0, 0, 0, 0])];
            tensor<fp16, [320, 320, 1, 1]> down_blocks_0_attentions_0_transformer_blocks_0_attn2_to_q_weight_to_fp16 = const()[name = tensor<string, []>("down_blocks_0_attentions_0_transformer_blocks_0_attn2_to_q_weight_to_fp16"), val = tensor<fp16, [320, 320, 1, 1]>(BLOBFILE(path = tensor<string, []>("@model_path/weights/weight.bin"), offset = tensor<uint64, []>(9670528)))];
            tensor<fp16, [2, 320, 1, 4096]> q_3_cast = conv(dilations = var_363, groups = var_112, pad = q_3_pad_0, pad_type = q_3_pad_type_0, strides = var_361, weight = down_blocks_0_attentions_0_transformer_blocks_0_attn2_to_q_weight_to_fp16, x = hidden_states_11_cast);
            tensor<int32, [2]> var_367 = const()[name = tensor<string, []>("op_367"), val = tensor<int32, [2]>([1, 1])];
            tensor<int32, [2]> var_369 = const()[name = tensor<string, []>("op_369"), val = tensor<int32, [2]>([1, 1])];
            tensor<string, []> k_5_pad_type_0 = const()[name = tensor<string, []>("k_5_pad_type_0"), val = tensor<string, []>("custom")];
            tensor<int32, [4]> k_5_pad_0 = const()[name = tensor<string, []>("k_5_pad_0"), val = tensor<int32, [4]>([0, 0, 0, 0])];
            tensor<fp16, [320, 1024, 1, 1]> down_blocks_0_attentions_0_transformer_blocks_0_attn2_to_k_weight_to_fp16 = const()[name = tensor<string, []>("down_blocks_0_attentions_0_transformer_blocks_0_attn2_to_k_weight_to_fp16"), val = tensor<fp16, [320, 1024, 1, 1]>(BLOBFILE(path = tensor<string, []>("@model_path/weights/weight.bin"), offset = tensor<uint64, []>(9875392)))];
            tensor<fp16, [2, 320, 1, 77]> k_5_cast = conv(dilations = var_369, groups = var_112, pad = k_5_pad_0, pad_type = k_5_pad_type_0, strides = var_367, weight = down_blocks_0_attentions_0_transformer_blocks_0_attn2_to_k_weight_to_fp16, x = encoder_hidden_states);
            tensor<int32, [2]> var_373 = const()[name = tensor<string, []>("op_373"), val = tensor<int32, [2]>([1, 1])];
            tensor<int32, [2]> var_375 = const()[name = tensor<string, []>("op_375"), val = tensor<int32, [2]>([1, 1])];
            tensor<string, []> v_3_pad_type_0 = const()[name = tensor<string, []>("v_3_pad_type_0"), val = tensor<string, []>("custom")];
            tensor<int32, [4]> v_3_pad_0 = const()[name = tensor<string, []>("v_3_pad_0"), val = tensor<int32, [4]>([0, 0, 0, 0])];
            tensor<fp16, [320, 1024, 1, 1]> down_blocks_0_attentions_0_transformer_blocks_0_attn2_to_v_weight_to_fp16 = const()[name = tensor<string, []>("down_blocks_0_attentions_0_transformer_blocks_0_attn2_to_v_weight_to_fp16"), val = tensor<fp16, [320, 1024, 1, 1]>(BLOBFILE(path = tensor<string, []>("@model_path/weights/weight.bin"), offset = tensor<uint64, []>(10530816)))];
            tensor<fp16, [2, 320, 1, 77]> v_3_cast = conv(dilations = var_375, groups = var_112, pad = v_3_pad_0, pad_type = v_3_pad_type_0, strides = var_373, weight = down_blocks_0_attentions_0_transformer_blocks_0_attn2_to_v_weight_to_fp16, x = encoder_hidden_states);
            tensor<int32, [4]> var_379_begin_0 = const()[name = tensor<string, []>("op_379_begin_0"), val = tensor<int32, [4]>([0, 0, 0, 0])];
            tensor<int32, [4]> var_379_end_0 = const()[name = tensor<string, []>("op_379_end_0"), val = tensor<int32, [4]>([2, 64, 1, 4096])];
            tensor<bool, [4]> var_379_end_mask_0 = const()[name = tensor<string, []>("op_379_end_mask_0"), val = tensor<bool, [4]>([true, false, true, true])];
            tensor<fp16, [2, 64, 1, 4096]> var_379_cast = slice_by_index(begin = var_379_begin_0, end = var_379_end_0, end_mask = var_379_end_mask_0, x = q_3_cast);
            tensor<int32, [4]> var_383_begin_0 = const()[name = tensor<string, []>("op_383_begin_0"), val = tensor<int32, [4]>([0, 64, 0, 0])];
            tensor<int32, [4]> var_383_end_0 = const()[name = tensor<string, []>("op_383_end_0"), val = tensor<int32, [4]>([2, 128, 1, 4096])];
            tensor<bool, [4]> var_383_end_mask_0 = const()[name = tensor<string, []>("op_383_end_mask_0"), val = tensor<bool, [4]>([true, false, true, true])];
            tensor<fp16, [2, 64, 1, 4096]> var_383_cast = slice_by_index(begin = var_383_begin_0, end = var_383_end_0, end_mask = var_383_end_mask_0, x = q_3_cast);
            tensor<int32, [4]> var_387_begin_0 = const()[name = tensor<string, []>("op_387_begin_0"), val = tensor<int32, [4]>([0, 128, 0, 0])];
            tensor<int32, [4]> var_387_end_0 = const()[name = tensor<string, []>("op_387_end_0"), val = tensor<int32, [4]>([2, 192, 1, 4096])];
            tensor<bool, [4]> var_387_end_mask_0 = const()[name = tensor<string, []>("op_387_end_mask_0"), val = tensor<bool, [4]>([true, false, true, true])];
            tensor<fp16, [2, 64, 1, 4096]> var_387_cast = slice_by_index(begin = var_387_begin_0, end = var_387_end_0, end_mask = var_387_end_mask_0, x = q_3_cast);
            tensor<int32, [4]> var_391_begin_0 = const()[name = tensor<string, []>("op_391_begin_0"), val = tensor<int32, [4]>([0, 192, 0, 0])];
            tensor<int32, [4]> var_391_end_0 = const()[name = tensor<string, []>("op_391_end_0"), val = tensor<int32, [4]>([2, 256, 1, 4096])];
            tensor<bool, [4]> var_391_end_mask_0 = const()[name = tensor<string, []>("op_391_end_mask_0"), val = tensor<bool, [4]>([true, false, true, true])];
            tensor<fp16, [2, 64, 1, 4096]> var_391_cast = slice_by_index(begin = var_391_begin_0, end = var_391_end_0, end_mask = var_391_end_mask_0, x = q_3_cast);
            tensor<int32, [4]> var_395_begin_0 = const()[name = tensor<string, []>("op_395_begin_0"), val = tensor<int32, [4]>([0, 256, 0, 0])];
            tensor<int32, [4]> var_395_end_0 = const()[name = tensor<string, []>("op_395_end_0"), val = tensor<int32, [4]>([2, 320, 1, 4096])];
            tensor<bool, [4]> var_395_end_mask_0 = const()[name = tensor<string, []>("op_395_end_mask_0"), val = tensor<bool, [4]>([true, false, true, true])];
            tensor<fp16, [2, 64, 1, 4096]> var_395_cast = slice_by_index(begin = var_395_begin_0, end = var_395_end_0, end_mask = var_395_end_mask_0, x = q_3_cast);
            tensor<int32, [4]> k_7_perm_0 = const()[name = tensor<string, []>("k_7_perm_0"), val = tensor<int32, [4]>([0, 3, 2, 1])];
            tensor<int32, [4]> var_402_begin_0 = const()[name = tensor<string, []>("op_402_begin_0"), val = tensor<int32, [4]>([0, 0, 0, 0])];
            tensor<int32, [4]> var_402_end_0 = const()[name = tensor<string, []>("op_402_end_0"), val = tensor<int32, [4]>([2, 77, 1, 64])];
            tensor<bool, [4]> var_402_end_mask_0 = const()[name = tensor<string, []>("op_402_end_mask_0"), val = tensor<bool, [4]>([true, true, true, false])];
            tensor<fp16, [2, 77, 1, 320]> transpose_76 = transpose(perm = k_7_perm_0, x = k_5_cast);
            tensor<fp16, [2, 77, 1, 64]> var_402_cast = slice_by_index(begin = var_402_begin_0, end = var_402_end_0, end_mask = var_402_end_mask_0, x = transpose_76);
            tensor<int32, [4]> var_406_begin_0 = const()[name = tensor<string, []>("op_406_begin_0"), val = tensor<int32, [4]>([0, 0, 0, 64])];
            tensor<int32, [4]> var_406_end_0 = const()[name = tensor<string, []>("op_406_end_0"), val = tensor<int32, [4]>([2, 77, 1, 128])];
            tensor<bool, [4]> var_406_end_mask_0 = const()[name = tensor<string, []>("op_406_end_mask_0"), val = tensor<bool, [4]>([true, true, true, false])];
            tensor<fp16, [2, 77, 1, 64]> var_406_cast = slice_by_index(begin = var_406_begin_0, end = var_406_end_0, end_mask = var_406_end_mask_0, x = transpose_76);
            tensor<int32, [4]> var_410_begin_0 = const()[name = tensor<string, []>("op_410_begin_0"), val = tensor<int32, [4]>([0, 0, 0, 128])];
            tensor<int32, [4]> var_410_end_0 = const()[name = tensor<string, []>("op_410_end_0"), val = tensor<int32, [4]>([2, 77, 1, 192])];
            tensor<bool, [4]> var_410_end_mask_0 = const()[name = tensor<string, []>("op_410_end_mask_0"), val = tensor<bool, [4]>([true, true, true, false])];
            tensor<fp16, [2, 77, 1, 64]> var_410_cast = slice_by_index(begin = var_410_begin_0, end = var_410_end_0, end_mask = var_410_end_mask_0, x = transpose_76);
            tensor<int32, [4]> var_414_begin_0 = const()[name = tensor<string, []>("op_414_begin_0"), val = tensor<int32, [4]>([0, 0, 0, 192])];
            tensor<int32, [4]> var_414_end_0 = const()[name = tensor<string, []>("op_414_end_0"), val = tensor<int32, [4]>([2, 77, 1, 256])];
            tensor<bool, [4]> var_414_end_mask_0 = const()[name = tensor<string, []>("op_414_end_mask_0"), val = tensor<bool, [4]>([true, true, true, false])];
            tensor<fp16, [2, 77, 1, 64]> var_414_cast = slice_by_index(begin = var_414_begin_0, end = var_414_end_0, end_mask = var_414_end_mask_0, x = transpose_76);
            tensor<int32, [4]> var_418_begin_0 = const()[name = tensor<string, []>("op_418_begin_0"), val = tensor<int32, [4]>([0, 0, 0, 256])];
            tensor<int32, [4]> var_418_end_0 = const()[name = tensor<string, []>("op_418_end_0"), val = tensor<int32, [4]>([2, 77, 1, 320])];
            tensor<bool, [4]> var_418_end_mask_0 = const()[name = tensor<string, []>("op_418_end_mask_0"), val = tensor<bool, [4]>([true, true, true, false])];
            tensor<fp16, [2, 77, 1, 64]> var_418_cast = slice_by_index(begin = var_418_begin_0, end = var_418_end_0, end_mask = var_418_end_mask_0, x = transpose_76);
            tensor<int32, [4]> var_420_begin_0 = const()[name = tensor<string, []>("op_420_begin_0"), val = tensor<int32, [4]>([0, 0, 0, 0])];
            tensor<int32, [4]> var_420_end_0 = const()[name = tensor<string, []>("op_420_end_0"), val = tensor<int32, [4]>([2, 64, 1, 77])];
            tensor<bool, [4]> var_420_end_mask_0 = const()[name = tensor<string, []>("op_420_end_mask_0"), val = tensor<bool, [4]>([true, false, true, true])];
            tensor<fp16, [2, 64, 1, 77]> var_420_cast = slice_by_index(begin = var_420_begin_0, end = var_420_end_0, end_mask = var_420_end_mask_0, x = v_3_cast);
            tensor<int32, [4]> var_424_begin_0 = const()[name = tensor<string, []>("op_424_begin_0"), val = tensor<int32, [4]>([0, 64, 0, 0])];
            tensor<int32, [4]> var_424_end_0 = const()[name = tensor<string, []>("op_424_end_0"), val = tensor<int32, [4]>([2, 128, 1, 77])];
            tensor<bool, [4]> var_424_end_mask_0 = const()[name = tensor<string, []>("op_424_end_mask_0"), val = tensor<bool, [4]>([true, false, true, true])];
            tensor<fp16, [2, 64, 1, 77]> var_424_cast = slice_by_index(begin = var_424_begin_0, end = var_424_end_0, end_mask = var_424_end_mask_0, x = v_3_cast);
            tensor<int32, [4]> var_428_begin_0 = const()[name = tensor<string, []>("op_428_begin_0"), val = tensor<int32, [4]>([0, 128, 0, 0])];
            tensor<int32, [4]> var_428_end_0 = const()[name = tensor<string, []>("op_428_end_0"), val = tensor<int32, [4]>([2, 192, 1, 77])];
            tensor<bool, [4]> var_428_end_mask_0 = const()[name = tensor<string, []>("op_428_end_mask_0"), val = tensor<bool, [4]>([true, false, true, true])];
            tensor<fp16, [2, 64, 1, 77]> var_428_cast = slice_by_index(begin = var_428_begin_0, end = var_428_end_0, end_mask = var_428_end_mask_0, x = v_3_cast);
            tensor<int32, [4]> var_432_begin_0 = const()[name = tensor<string, []>("op_432_begin_0"), val = tensor<int32, [4]>([0, 192, 0, 0])];
            tensor<int32, [4]> var_432_end_0 = const()[name = tensor<string, []>("op_432_end_0"), val = tensor<int32, [4]>([2, 256, 1, 77])];
            tensor<bool, [4]> var_432_end_mask_0 = const()[name = tensor<string, []>("op_432_end_mask_0"), val = tensor<bool, [4]>([true, false, true, true])];
            tensor<fp16, [2, 64, 1, 77]> var_432_cast = slice_by_index(begin = var_432_begin_0, end = var_432_end_0, end_mask = var_432_end_mask_0, x = v_3_cast);
            tensor<int32, [4]> var_436_begin_0 = const()[name = tensor<string, []>("op_436_begin_0"), val = tensor<int32, [4]>([0, 256, 0, 0])];
            tensor<int32, [4]> var_436_end_0 = const()[name = tensor<string, []>("op_436_end_0"), val = tensor<int32, [4]>([2, 320, 1, 77])];
            tensor<bool, [4]> var_436_end_mask_0 = const()[name = tensor<string, []>("op_436_end_mask_0"), val = tensor<bool, [4]>([true, false, true, true])];
            tensor<fp16, [2, 64, 1, 77]> var_436_cast = slice_by_index(begin = var_436_begin_0, end = var_436_end_0, end_mask = var_436_end_mask_0, x = v_3_cast);
            tensor<string, []> var_440_equation_0 = const()[name = tensor<string, []>("op_440_equation_0"), val = tensor<string, []>("bkhc,bchq->bkhq")];
            tensor<fp16, [2, 77, 1, 4096]> var_440_cast = einsum(equation = var_440_equation_0, values = (var_402_cast, var_379_cast));
            tensor<fp16, []> var_441_to_fp16 = const()[name = tensor<string, []>("op_441_to_fp16"), val = tensor<fp16, []>(0x1p-3)];
            tensor<fp16, [2, 77, 1, 4096]> aw_11_cast = mul(x = var_440_cast, y = var_441_to_fp16);
            tensor<string, []> var_444_equation_0 = const()[name = tensor<string, []>("op_444_equation_0"), val = tensor<string, []>("bkhc,bchq->bkhq")];
            tensor<fp16, [2, 77, 1, 4096]> var_444_cast = einsum(equation = var_444_equation_0, values = (var_406_cast, var_383_cast));
            tensor<fp16, []> var_445_to_fp16 = const()[name = tensor<string, []>("op_445_to_fp16"), val = tensor<fp16, []>(0x1p-3)];
            tensor<fp16, [2, 77, 1, 4096]> aw_13_cast = mul(x = var_444_cast, y = var_445_to_fp16);
            tensor<string, []> var_448_equation_0 = const()[name = tensor<string, []>("op_448_equation_0"), val = tensor<string, []>("bkhc,bchq->bkhq")];
            tensor<fp16, [2, 77, 1, 4096]> var_448_cast = einsum(equation = var_448_equation_0, values = (var_410_cast, var_387_cast));
            tensor<fp16, []> var_449_to_fp16 = const()[name = tensor<string, []>("op_449_to_fp16"), val = tensor<fp16, []>(0x1p-3)];
            tensor<fp16, [2, 77, 1, 4096]> aw_15_cast = mul(x = var_448_cast, y = var_449_to_fp16);
            tensor<string, []> var_452_equation_0 = const()[name = tensor<string, []>("op_452_equation_0"), val = tensor<string, []>("bkhc,bchq->bkhq")];
            tensor<fp16, [2, 77, 1, 4096]> var_452_cast = einsum(equation = var_452_equation_0, values = (var_414_cast, var_391_cast));
            tensor<fp16, []> var_453_to_fp16 = const()[name = tensor<string, []>("op_453_to_fp16"), val = tensor<fp16, []>(0x1p-3)];
            tensor<fp16, [2, 77, 1, 4096]> aw_17_cast = mul(x = var_452_cast, y = var_453_to_fp16);
            tensor<string, []> var_456_equation_0 = const()[name = tensor<string, []>("op_456_equation_0"), val = tensor<string, []>("bkhc,bchq->bkhq")];
            tensor<fp16, [2, 77, 1, 4096]> var_456_cast = einsum(equation = var_456_equation_0, values = (var_418_cast, var_395_cast));
            tensor<fp16, []> var_457_to_fp16 = const()[name = tensor<string, []>("op_457_to_fp16"), val = tensor<fp16, []>(0x1p-3)];
            tensor<fp16, [2, 77, 1, 4096]> aw_19_cast = mul(x = var_456_cast, y = var_457_to_fp16);
            tensor<fp16, [2, 77, 1, 4096]> var_459_cast = softmax(axis = var_112, x = aw_11_cast);
            tensor<fp16, [2, 77, 1, 4096]> var_460_cast = softmax(axis = var_112, x = aw_13_cast);
            tensor<fp16, [2, 77, 1, 4096]> var_461_cast = softmax(axis = var_112, x = aw_15_cast);
            tensor<fp16, [2, 77, 1, 4096]> var_462_cast = softmax(axis = var_112, x = aw_17_cast);
            tensor<fp16, [2, 77, 1, 4096]> var_463_cast = softmax(axis = var_112, x = aw_19_cast);
            tensor<string, []> var_465_equation_0 = const()[name = tensor<string, []>("op_465_equation_0"), val = tensor<string, []>("bchk,bkhq->bchq")];
            tensor<fp16, [2, 64, 1, 4096]> var_465_cast = einsum(equation = var_465_equation_0, values = (var_420_cast, var_459_cast));
            tensor<string, []> var_467_equation_0 = const()[name = tensor<string, []>("op_467_equation_0"), val = tensor<string, []>("bchk,bkhq->bchq")];
            tensor<fp16, [2, 64, 1, 4096]> var_467_cast = einsum(equation = var_467_equation_0, values = (var_424_cast, var_460_cast));
            tensor<string, []> var_469_equation_0 = const()[name = tensor<string, []>("op_469_equation_0"), val = tensor<string, []>("bchk,bkhq->bchq")];
            tensor<fp16, [2, 64, 1, 4096]> var_469_cast = einsum(equation = var_469_equation_0, values = (var_428_cast, var_461_cast));
            tensor<string, []> var_471_equation_0 = const()[name = tensor<string, []>("op_471_equation_0"), val = tensor<string, []>("bchk,bkhq->bchq")];
            tensor<fp16, [2, 64, 1, 4096]> var_471_cast = einsum(equation = var_471_equation_0, values = (var_432_cast, var_462_cast));
            tensor<string, []> var_473_equation_0 = const()[name = tensor<string, []>("op_473_equation_0"), val = tensor<string, []>("bchk,bkhq->bchq")];
            tensor<fp16, [2, 64, 1, 4096]> var_473_cast = einsum(equation = var_473_equation_0, values = (var_436_cast, var_463_cast));
            tensor<bool, []> input_27_interleave_0 = const()[name = tensor<string, []>("input_27_interleave_0"), val = tensor<bool, []>(false)];
            tensor<fp16, [2, 320, 1, 4096]> input_27_cast = concat(axis = var_112, interleave = input_27_interleave_0, values = (var_465_cast, var_467_cast, var_469_cast, var_471_cast, var_473_cast));
            tensor<int32, [2]> var_479 = const()[name = tensor<string, []>("op_479"), val = tensor<int32, [2]>([1, 1])];
            tensor<int32, [2]> var_481 = const()[name = tensor<string, []>("op_481"), val = tensor<int32, [2]>([1, 1])];
            tensor<string, []> var_483_pad_type_0 = const()[name = tensor<string, []>("op_483_pad_type_0"), val = tensor<string, []>("custom")];
            tensor<int32, [4]> var_483_pad_0 = const()[name = tensor<string, []>("op_483_pad_0"), val = tensor<int32, [4]>([0, 0, 0, 0])];
            tensor<fp16, [320, 320, 1, 1]> down_blocks_0_attentions_0_transformer_blocks_0_attn2_to_out_0_weight_to_fp16 = const()[name = tensor<string, []>("down_blocks_0_attentions_0_transformer_blocks_0_attn2_to_out_0_weight_to_fp16"), val = tensor<fp16, [320, 320, 1, 1]>(BLOBFILE(path = tensor<string, []>("@model_path/weights/weight.bin"), offset = tensor<uint64, []>(11186240)))];
            tensor<fp16, [320]> down_blocks_0_attentions_0_transformer_blocks_0_attn2_to_out_0_bias_to_fp16 = const()[name = tensor<string, []>("down_blocks_0_attentions_0_transformer_blocks_0_attn2_to_out_0_bias_to_fp16"), val = tensor<fp16, [320]>(BLOBFILE(path = tensor<string, []>("@model_path/weights/weight.bin"), offset = tensor<uint64, []>(11391104)))];
            tensor<fp16, [2, 320, 1, 4096]> var_483_cast = conv(bias = down_blocks_0_attentions_0_transformer_blocks_0_attn2_to_out_0_bias_to_fp16, dilations = var_481, groups = var_112, pad = var_483_pad_0, pad_type = var_483_pad_type_0, strides = var_479, weight = down_blocks_0_attentions_0_transformer_blocks_0_attn2_to_out_0_weight_to_fp16, x = input_27_cast);
            tensor<fp16, [2, 320, 1, 4096]> inputs_5_cast = add(x = var_483_cast, y = inputs_3_cast);
            tensor<int32, [1]> var_487 = const()[name = tensor<string, []>("op_487"), val = tensor<int32, [1]>([1])];
            tensor<fp16, [2, 1, 1, 4096]> channels_mean_5_cast = reduce_mean(axes = var_487, keep_dims = var_107, x = inputs_5_cast);
            tensor<fp16, [2, 320, 1, 4096]> zero_mean_5_cast = sub(x = inputs_5_cast, y = channels_mean_5_cast);
            tensor<fp16, [2, 320, 1, 4096]> zero_mean_sq_5_cast = mul(x = zero_mean_5_cast, y = zero_mean_5_cast);
            tensor<int32, [1]> var_491 = const()[name = tensor<string, []>("op_491"), val = tensor<int32, [1]>([1])];
            tensor<fp16, [2, 1, 1, 4096]> var_492_cast = reduce_mean(axes = var_491, keep_dims = var_107, x = zero_mean_sq_5_cast);
            tensor<fp16, []> var_493_to_fp16 = const()[name = tensor<string, []>("op_493_to_fp16"), val = tensor<fp16, []>(0x1.5p-17)];
            tensor<fp16, [2, 1, 1, 4096]> var_494_cast = add(x = var_492_cast, y = var_493_to_fp16);
            tensor<fp16, []> denom_5_epsilon_0_to_fp16 = const()[name = tensor<string, []>("denom_5_epsilon_0_to_fp16"), val = tensor<fp16, []>(0x1p-24)];
            tensor<fp16, [2, 1, 1, 4096]> denom_5_cast = rsqrt(epsilon = denom_5_epsilon_0_to_fp16, x = var_494_cast);
            tensor<fp16, [2, 320, 1, 4096]> out_5_cast = mul(x = zero_mean_5_cast, y = denom_5_cast);
            tensor<fp16, [1, 320, 1, 1]> var_498_to_fp16 = const()[name = tensor<string, []>("op_498_to_fp16"), val = tensor<fp16, [1, 320, 1, 1]>(BLOBFILE(path = tensor<string, []>("@model_path/weights/weight.bin"), offset = tensor<uint64, []>(11391808)))];
            tensor<fp16, [2, 320, 1, 4096]> var_499_cast = add(x = out_5_cast, y = var_498_to_fp16);
            tensor<fp16, [1, 320, 1, 1]> var_501_to_fp16 = const()[name = tensor<string, []>("op_501_to_fp16"), val = tensor<fp16, [1, 320, 1, 1]>(BLOBFILE(path = tensor<string, []>("@model_path/weights/weight.bin"), offset = tensor<uint64, []>(11392512)))];
            tensor<fp16, [2, 320, 1, 4096]> input_29_cast = mul(x = var_499_cast, y = var_501_to_fp16);
            tensor<int32, [2]> var_509 = const()[name = tensor<string, []>("op_509"), val = tensor<int32, [2]>([1, 1])];
            tensor<int32, [2]> var_511 = const()[name = tensor<string, []>("op_511"), val = tensor<int32, [2]>([1, 1])];
            tensor<string, []> var_513_pad_type_0 = const()[name = tensor<string, []>("op_513_pad_type_0"), val = tensor<string, []>("custom")];
            tensor<int32, [4]> var_513_pad_0 = const()[name = tensor<string, []>("op_513_pad_0"), val = tensor<int32, [4]>([0, 0, 0, 0])];
            tensor<fp16, [2560, 320, 1, 1]> down_blocks_0_attentions_0_transformer_blocks_0_ff_net_0_proj_weight_to_fp16 = const()[name = tensor<string, []>("down_blocks_0_attentions_0_transformer_blocks_0_ff_net_0_proj_weight_to_fp16"), val = tensor<fp16, [2560, 320, 1, 1]>(BLOBFILE(path = tensor<string, []>("@model_path/weights/weight.bin"), offset = tensor<uint64, []>(11393216)))];
            tensor<fp16, [2560]> down_blocks_0_attentions_0_transformer_blocks_0_ff_net_0_proj_bias_to_fp16 = const()[name = tensor<string, []>("down_blocks_0_attentions_0_transformer_blocks_0_ff_net_0_proj_bias_to_fp16"), val = tensor<fp16, [2560]>(BLOBFILE(path = tensor<string, []>("@model_path/weights/weight.bin"), offset = tensor<uint64, []>(13031680)))];
            tensor<fp16, [2, 2560, 1, 4096]> var_513_cast = conv(bias = down_blocks_0_attentions_0_transformer_blocks_0_ff_net_0_proj_bias_to_fp16, dilations = var_511, groups = var_112, pad = var_513_pad_0, pad_type = var_513_pad_type_0, strides = var_509, weight = down_blocks_0_attentions_0_transformer_blocks_0_ff_net_0_proj_weight_to_fp16, x = input_29_cast);
            tensor<int32, [2]> var_514_split_sizes_0 = const()[name = tensor<string, []>("op_514_split_sizes_0"), val = tensor<int32, [2]>([1280, 1280])];
            tensor<int32, []> var_514_axis_0 = const()[name = tensor<string, []>("op_514_axis_0"), val = tensor<int32, []>(1)];
            tensor<fp16, [2, 1280, 1, 4096]> var_514_cast_0, tensor<fp16, [2, 1280, 1, 4096]> var_514_cast_1 = split(axis = var_514_axis_0, split_sizes = var_514_split_sizes_0, x = var_513_cast);
            tensor<string, []> var_516_mode_0 = const()[name = tensor<string, []>("op_516_mode_0"), val = tensor<string, []>("EXACT")];
            tensor<fp16, [2, 1280, 1, 4096]> var_516_cast = gelu(mode = var_516_mode_0, x = var_514_cast_1);
            tensor<fp16, [2, 1280, 1, 4096]> input_31_cast = mul(x = var_514_cast_0, y = var_516_cast);
            tensor<int32, [2]> var_520 = const()[name = tensor<string, []>("op_520"), val = tensor<int32, [2]>([1, 1])];
            tensor<int32, [2]> var_522 = const()[name = tensor<string, []>("op_522"), val = tensor<int32, [2]>([1, 1])];
            tensor<string, []> var_524_pad_type_0 = const()[name = tensor<string, []>("op_524_pad_type_0"), val = tensor<string, []>("custom")];
            tensor<int32, [4]> var_524_pad_0 = const()[name = tensor<string, []>("op_524_pad_0"), val = tensor<int32, [4]>([0, 0, 0, 0])];
            tensor<fp16, [320, 1280, 1, 1]> down_blocks_0_attentions_0_transformer_blocks_0_ff_net_2_weight_to_fp16 = const()[name = tensor<string, []>("down_blocks_0_attentions_0_transformer_blocks_0_ff_net_2_weight_to_fp16"), val = tensor<fp16, [320, 1280, 1, 1]>(BLOBFILE(path = tensor<string, []>("@model_path/weights/weight.bin"), offset = tensor<uint64, []>(13036864)))];
            tensor<fp16, [320]> down_blocks_0_attentions_0_transformer_blocks_0_ff_net_2_bias_to_fp16 = const()[name = tensor<string, []>("down_blocks_0_attentions_0_transformer_blocks_0_ff_net_2_bias_to_fp16"), val = tensor<fp16, [320]>(BLOBFILE(path = tensor<string, []>("@model_path/weights/weight.bin"), offset = tensor<uint64, []>(13856128)))];
            tensor<fp16, [2, 320, 1, 4096]> var_524_cast = conv(bias = down_blocks_0_attentions_0_transformer_blocks_0_ff_net_2_bias_to_fp16, dilations = var_522, groups = var_112, pad = var_524_pad_0, pad_type = var_524_pad_type_0, strides = var_520, weight = down_blocks_0_attentions_0_transformer_blocks_0_ff_net_2_weight_to_fp16, x = input_31_cast);
            tensor<fp16, [2, 320, 1, 4096]> hidden_states_15_cast = add(x = var_524_cast, y = inputs_5_cast);
            tensor<int32, [4]> var_526 = const()[name = tensor<string, []>("op_526"), val = tensor<int32, [4]>([2, 320, 64, 64])];
            tensor<fp16, [2, 320, 64, 64]> input_33_cast = reshape(shape = var_526, x = hidden_states_15_cast);
            tensor<int32, [2]> var_530 = const()[name = tensor<string, []>("op_530"), val = tensor<int32, [2]>([1, 1])];
            tensor<int32, [2]> var_532 = const()[name = tensor<string, []>("op_532"), val = tensor<int32, [2]>([1, 1])];
            tensor<string, []> hidden_states_17_pad_type_0 = const()[name = tensor<string, []>("hidden_states_17_pad_type_0"), val = tensor<string, []>("custom")];
            tensor<int32, [4]> hidden_states_17_pad_0 = const()[name = tensor<string, []>("hidden_states_17_pad_0"), val = tensor<int32, [4]>([0, 0, 0, 0])];
            tensor<fp16, [320, 320, 1, 1]> down_blocks_0_attentions_0_proj_out_weight_to_fp16 = const()[name = tensor<string, []>("down_blocks_0_attentions_0_proj_out_weight_to_fp16"), val = tensor<fp16, [320, 320, 1, 1]>(BLOBFILE(path = tensor<string, []>("@model_path/weights/weight.bin"), offset = tensor<uint64, []>(13856832)))];
            tensor<fp16, [320]> down_blocks_0_attentions_0_proj_out_bias_to_fp16 = const()[name = tensor<string, []>("down_blocks_0_attentions_0_proj_out_bias_to_fp16"), val = tensor<fp16, [320]>(BLOBFILE(path = tensor<string, []>("@model_path/weights/weight.bin"), offset = tensor<uint64, []>(14061696)))];
            tensor<fp16, [2, 320, 64, 64]> hidden_states_17_cast = conv(bias = down_blocks_0_attentions_0_proj_out_bias_to_fp16, dilations = var_532, groups = var_112, pad = hidden_states_17_pad_0, pad_type = hidden_states_17_pad_type_0, strides = var_530, weight = down_blocks_0_attentions_0_proj_out_weight_to_fp16, x = input_33_cast);
            tensor<fp16, [2, 320, 64, 64]> input_35_cast_1 = add(x = hidden_states_17_cast, y = hidden_states_5_cast);
            tensor<int32, [5]> reshape_12_shape_0 = const()[name = tensor<string, []>("reshape_12_shape_0"), val = tensor<int32, [5]>([2, 32, 10, 64, 64])];
            tensor<fp16, [2, 32, 10, 64, 64]> reshape_12_cast = reshape(shape = reshape_12_shape_0, x = input_35_cast_1);
            tensor<int32, [3]> reduce_mean_9_axes_0 = const()[name = tensor<string, []>("reduce_mean_9_axes_0"), val = tensor<int32, [3]>([2, 3, 4])];
            tensor<bool, []> reduce_mean_9_keep_dims_0 = const()[name = tensor<string, []>("reduce_mean_9_keep_dims_0"), val = tensor<bool, []>(true)];
            tensor<fp16, [2, 32, 1, 1, 1]> reduce_mean_9_cast = reduce_mean(axes = reduce_mean_9_axes_0, keep_dims = reduce_mean_9_keep_dims_0, x = reshape_12_cast);
            tensor<fp16, [2, 32, 10, 64, 64]> sub_6_cast = sub(x = reshape_12_cast, y = reduce_mean_9_cast);
            tensor<fp16, [2, 32, 10, 64, 64]> square_3_cast = square(x = sub_6_cast);
            tensor<int32, [3]> reduce_mean_11_axes_0 = const()[name = tensor<string, []>("reduce_mean_11_axes_0"), val = tensor<int32, [3]>([2, 3, 4])];
            tensor<bool, []> reduce_mean_11_keep_dims_0 = const()[name = tensor<string, []>("reduce_mean_11_keep_dims_0"), val = tensor<bool, []>(true)];
            tensor<fp16, [2, 32, 1, 1, 1]> reduce_mean_11_cast = reduce_mean(axes = reduce_mean_11_axes_0, keep_dims = reduce_mean_11_keep_dims_0, x = square_3_cast);
            tensor<fp16, []> add_6_y_0_to_fp16 = const()[name = tensor<string, []>("add_6_y_0_to_fp16"), val = tensor<fp16, []>(0x1.5p-17)];
            tensor<fp16, [2, 32, 1, 1, 1]> add_6_cast = add(x = reduce_mean_11_cast, y = add_6_y_0_to_fp16);
            tensor<fp16, [2, 32, 1, 1, 1]> sqrt_3_cast = sqrt(x = add_6_cast);
            tensor<fp16, [2, 32, 10, 64, 64]> real_div_3_cast = real_div(x = sub_6_cast, y = sqrt_3_cast);
            tensor<int32, [4]> reshape_13_shape_0 = const()[name = tensor<string, []>("reshape_13_shape_0"), val = tensor<int32, [4]>([2, 320, 64, 64])];
            tensor<fp16, [2, 320, 64, 64]> reshape_13_cast = reshape(shape = reshape_13_shape_0, x = real_div_3_cast);
            tensor<fp16, [320]> add_7_mean_0_to_fp16 = const()[name = tensor<string, []>("add_7_mean_0_to_fp16"), val = tensor<fp16, [320]>(BLOBFILE(path = tensor<string, []>("@model_path/weights/weight.bin"), offset = tensor<uint64, []>(14062400)))];
            tensor<fp16, [320]> add_7_variance_0_to_fp16 = const()[name = tensor<string, []>("add_7_variance_0_to_fp16"), val = tensor<fp16, [320]>(BLOBFILE(path = tensor<string, []>("@model_path/weights/weight.bin"), offset = tensor<uint64, []>(14063104)))];
            tensor<fp16, [320]> add_7_gamma_0_to_fp16 = const()[name = tensor<string, []>("add_7_gamma_0_to_fp16"), val = tensor<fp16, [320]>(BLOBFILE(path = tensor<string, []>("@model_path/weights/weight.bin"), offset = tensor<uint64, []>(14063808)))];
            tensor<fp16, [320]> add_7_beta_0_to_fp16 = const()[name = tensor<string, []>("add_7_beta_0_to_fp16"), val = tensor<fp16, [320]>(BLOBFILE(path = tensor<string, []>("@model_path/weights/weight.bin"), offset = tensor<uint64, []>(14064512)))];
            tensor<fp16, []> add_7_epsilon_0_to_fp16 = const()[name = tensor<string, []>("add_7_epsilon_0_to_fp16"), val = tensor<fp16, []>(0x1.5p-17)];
            tensor<fp16, [2, 320, 64, 64]> add_7_cast = batch_norm(beta = add_7_beta_0_to_fp16, epsilon = add_7_epsilon_0_to_fp16, gamma = add_7_gamma_0_to_fp16, mean = add_7_mean_0_to_fp16, variance = add_7_variance_0_to_fp16, x = reshape_13_cast);
            tensor<fp16, [2, 320, 64, 64]> input_39_cast = silu(x = add_7_cast);
            tensor<int32, [2]> var_547 = const()[name = tensor<string, []>("op_547"), val = tensor<int32, [2]>([1, 1])];
            tensor<int32, [2]> var_549 = const()[name = tensor<string, []>("op_549"), val = tensor<int32, [2]>([1, 1])];
            tensor<string, []> hidden_states_19_pad_type_0 = const()[name = tensor<string, []>("hidden_states_19_pad_type_0"), val = tensor<string, []>("custom")];
            tensor<int32, [4]> hidden_states_19_pad_0 = const()[name = tensor<string, []>("hidden_states_19_pad_0"), val = tensor<int32, [4]>([1, 1, 1, 1])];
            tensor<fp16, [320, 320, 3, 3]> down_blocks_0_resnets_1_conv1_weight_to_fp16 = const()[name = tensor<string, []>("down_blocks_0_resnets_1_conv1_weight_to_fp16"), val = tensor<fp16, [320, 320, 3, 3]>(BLOBFILE(path = tensor<string, []>("@model_path/weights/weight.bin"), offset = tensor<uint64, []>(14065216)))];
            tensor<fp16, [320]> down_blocks_0_resnets_1_conv1_bias_to_fp16 = const()[name = tensor<string, []>("down_blocks_0_resnets_1_conv1_bias_to_fp16"), val = tensor<fp16, [320]>(BLOBFILE(path = tensor<string, []>("@model_path/weights/weight.bin"), offset = tensor<uint64, []>(15908480)))];
            tensor<fp16, [2, 320, 64, 64]> hidden_states_19_cast = conv(bias = down_blocks_0_resnets_1_conv1_bias_to_fp16, dilations = var_549, groups = var_112, pad = hidden_states_19_pad_0, pad_type = hidden_states_19_pad_type_0, strides = var_547, weight = down_blocks_0_resnets_1_conv1_weight_to_fp16, x = input_39_cast);
            tensor<int32, [2]> var_555 = const()[name = tensor<string, []>("op_555"), val = tensor<int32, [2]>([1, 1])];
            tensor<int32, [2]> var_557 = const()[name = tensor<string, []>("op_557"), val = tensor<int32, [2]>([1, 1])];
            tensor<string, []> temb_3_pad_type_0 = const()[name = tensor<string, []>("temb_3_pad_type_0"), val = tensor<string, []>("custom")];
            tensor<int32, [4]> temb_3_pad_0 = const()[name = tensor<string, []>("temb_3_pad_0"), val = tensor<int32, [4]>([0, 0, 0, 0])];
            tensor<fp16, [320, 1280, 1, 1]> down_blocks_0_resnets_1_time_emb_proj_weight_to_fp16 = const()[name = tensor<string, []>("down_blocks_0_resnets_1_time_emb_proj_weight_to_fp16"), val = tensor<fp16, [320, 1280, 1, 1]>(BLOBFILE(path = tensor<string, []>("@model_path/weights/weight.bin"), offset = tensor<uint64, []>(15909184)))];
            tensor<fp16, [320]> down_blocks_0_resnets_1_time_emb_proj_bias_to_fp16 = const()[name = tensor<string, []>("down_blocks_0_resnets_1_time_emb_proj_bias_to_fp16"), val = tensor<fp16, [320]>(BLOBFILE(path = tensor<string, []>("@model_path/weights/weight.bin"), offset = tensor<uint64, []>(16728448)))];
            tensor<fp16, [2, 320, 1, 1]> temb_3_cast = conv(bias = down_blocks_0_resnets_1_time_emb_proj_bias_to_fp16, dilations = var_557, groups = var_112, pad = temb_3_pad_0, pad_type = temb_3_pad_type_0, strides = var_555, weight = down_blocks_0_resnets_1_time_emb_proj_weight_to_fp16, x = input_15_cast_1);
            tensor<fp16, [2, 320, 64, 64]> input_43_cast = add(x = hidden_states_19_cast, y = temb_3_cast);
            tensor<int32, [5]> reshape_16_shape_0 = const()[name = tensor<string, []>("reshape_16_shape_0"), val = tensor<int32, [5]>([2, 32, 10, 64, 64])];
            tensor<fp16, [2, 32, 10, 64, 64]> reshape_16_cast = reshape(shape = reshape_16_shape_0, x = input_43_cast);
            tensor<int32, [3]> reduce_mean_12_axes_0 = const()[name = tensor<string, []>("reduce_mean_12_axes_0"), val = tensor<int32, [3]>([2, 3, 4])];
            tensor<bool, []> reduce_mean_12_keep_dims_0 = const()[name = tensor<string, []>("reduce_mean_12_keep_dims_0"), val = tensor<bool, []>(true)];
            tensor<fp16, [2, 32, 1, 1, 1]> reduce_mean_12_cast = reduce_mean(axes = reduce_mean_12_axes_0, keep_dims = reduce_mean_12_keep_dims_0, x = reshape_16_cast);
            tensor<fp16, [2, 32, 10, 64, 64]> sub_8_cast = sub(x = reshape_16_cast, y = reduce_mean_12_cast);
            tensor<fp16, [2, 32, 10, 64, 64]> square_4_cast = square(x = sub_8_cast);
            tensor<int32, [3]> reduce_mean_14_axes_0 = const()[name = tensor<string, []>("reduce_mean_14_axes_0"), val = tensor<int32, [3]>([2, 3, 4])];
            tensor<bool, []> reduce_mean_14_keep_dims_0 = const()[name = tensor<string, []>("reduce_mean_14_keep_dims_0"), val = tensor<bool, []>(true)];
            tensor<fp16, [2, 32, 1, 1, 1]> reduce_mean_14_cast = reduce_mean(axes = reduce_mean_14_axes_0, keep_dims = reduce_mean_14_keep_dims_0, x = square_4_cast);
            tensor<fp16, []> add_8_y_0_to_fp16 = const()[name = tensor<string, []>("add_8_y_0_to_fp16"), val = tensor<fp16, []>(0x1.5p-17)];
            tensor<fp16, [2, 32, 1, 1, 1]> add_8_cast = add(x = reduce_mean_14_cast, y = add_8_y_0_to_fp16);
            tensor<fp16, [2, 32, 1, 1, 1]> sqrt_4_cast = sqrt(x = add_8_cast);
            tensor<fp16, [2, 32, 10, 64, 64]> real_div_4_cast = real_div(x = sub_8_cast, y = sqrt_4_cast);
            tensor<int32, [4]> reshape_17_shape_0 = const()[name = tensor<string, []>("reshape_17_shape_0"), val = tensor<int32, [4]>([2, 320, 64, 64])];
            tensor<fp16, [2, 320, 64, 64]> reshape_17_cast = reshape(shape = reshape_17_shape_0, x = real_div_4_cast);
            tensor<fp16, [320]> add_9_mean_0_to_fp16 = const()[name = tensor<string, []>("add_9_mean_0_to_fp16"), val = tensor<fp16, [320]>(BLOBFILE(path = tensor<string, []>("@model_path/weights/weight.bin"), offset = tensor<uint64, []>(16729152)))];
            tensor<fp16, [320]> add_9_variance_0_to_fp16 = const()[name = tensor<string, []>("add_9_variance_0_to_fp16"), val = tensor<fp16, [320]>(BLOBFILE(path = tensor<string, []>("@model_path/weights/weight.bin"), offset = tensor<uint64, []>(16729856)))];
            tensor<fp16, [320]> add_9_gamma_0_to_fp16 = const()[name = tensor<string, []>("add_9_gamma_0_to_fp16"), val = tensor<fp16, [320]>(BLOBFILE(path = tensor<string, []>("@model_path/weights/weight.bin"), offset = tensor<uint64, []>(16730560)))];
            tensor<fp16, [320]> add_9_beta_0_to_fp16 = const()[name = tensor<string, []>("add_9_beta_0_to_fp16"), val = tensor<fp16, [320]>(BLOBFILE(path = tensor<string, []>("@model_path/weights/weight.bin"), offset = tensor<uint64, []>(16731264)))];
            tensor<fp16, []> add_9_epsilon_0_to_fp16 = const()[name = tensor<string, []>("add_9_epsilon_0_to_fp16"), val = tensor<fp16, []>(0x1.5p-17)];
            tensor<fp16, [2, 320, 64, 64]> add_9_cast = batch_norm(beta = add_9_beta_0_to_fp16, epsilon = add_9_epsilon_0_to_fp16, gamma = add_9_gamma_0_to_fp16, mean = add_9_mean_0_to_fp16, variance = add_9_variance_0_to_fp16, x = reshape_17_cast);
            tensor<fp16, [2, 320, 64, 64]> input_47_cast = silu(x = add_9_cast);
            tensor<int32, [2]> var_567 = const()[name = tensor<string, []>("op_567"), val = tensor<int32, [2]>([1, 1])];
            tensor<int32, [2]> var_569 = const()[name = tensor<string, []>("op_569"), val = tensor<int32, [2]>([1, 1])];
            tensor<string, []> hidden_states_21_pad_type_0 = const()[name = tensor<string, []>("hidden_states_21_pad_type_0"), val = tensor<string, []>("custom")];
            tensor<int32, [4]> hidden_states_21_pad_0 = const()[name = tensor<string, []>("hidden_states_21_pad_0"), val = tensor<int32, [4]>([1, 1, 1, 1])];
            tensor<fp16, [320, 320, 3, 3]> down_blocks_0_resnets_1_conv2_weight_to_fp16 = const()[name = tensor<string, []>("down_blocks_0_resnets_1_conv2_weight_to_fp16"), val = tensor<fp16, [320, 320, 3, 3]>(BLOBFILE(path = tensor<string, []>("@model_path/weights/weight.bin"), offset = tensor<uint64, []>(16731968)))];
            tensor<fp16, [320]> down_blocks_0_resnets_1_conv2_bias_to_fp16 = const()[name = tensor<string, []>("down_blocks_0_resnets_1_conv2_bias_to_fp16"), val = tensor<fp16, [320]>(BLOBFILE(path = tensor<string, []>("@model_path/weights/weight.bin"), offset = tensor<uint64, []>(18575232)))];
            tensor<fp16, [2, 320, 64, 64]> hidden_states_21_cast = conv(bias = down_blocks_0_resnets_1_conv2_bias_to_fp16, dilations = var_569, groups = var_112, pad = hidden_states_21_pad_0, pad_type = hidden_states_21_pad_type_0, strides = var_567, weight = down_blocks_0_resnets_1_conv2_weight_to_fp16, x = input_47_cast);
            tensor<fp16, [2, 320, 64, 64]> hidden_states_23_cast = add(x = input_35_cast_1, y = hidden_states_21_cast);
            tensor<int32, [5]> reshape_20_shape_0 = const()[name = tensor<string, []>("reshape_20_shape_0"), val = tensor<int32, [5]>([2, 32, 10, 64, 64])];
            tensor<fp16, [2, 32, 10, 64, 64]> reshape_20_cast = reshape(shape = reshape_20_shape_0, x = hidden_states_23_cast);
            tensor<int32, [3]> reduce_mean_15_axes_0 = const()[name = tensor<string, []>("reduce_mean_15_axes_0"), val = tensor<int32, [3]>([2, 3, 4])];
            tensor<bool, []> reduce_mean_15_keep_dims_0 = const()[name = tensor<string, []>("reduce_mean_15_keep_dims_0"), val = tensor<bool, []>(true)];
            tensor<fp16, [2, 32, 1, 1, 1]> reduce_mean_15_cast = reduce_mean(axes = reduce_mean_15_axes_0, keep_dims = reduce_mean_15_keep_dims_0, x = reshape_20_cast);
            tensor<fp16, [2, 32, 10, 64, 64]> sub_10_cast = sub(x = reshape_20_cast, y = reduce_mean_15_cast);
            tensor<fp16, [2, 32, 10, 64, 64]> square_5_cast = square(x = sub_10_cast);
            tensor<int32, [3]> reduce_mean_17_axes_0 = const()[name = tensor<string, []>("reduce_mean_17_axes_0"), val = tensor<int32, [3]>([2, 3, 4])];
            tensor<bool, []> reduce_mean_17_keep_dims_0 = const()[name = tensor<string, []>("reduce_mean_17_keep_dims_0"), val = tensor<bool, []>(true)];
            tensor<fp16, [2, 32, 1, 1, 1]> reduce_mean_17_cast = reduce_mean(axes = reduce_mean_17_axes_0, keep_dims = reduce_mean_17_keep_dims_0, x = square_5_cast);
            tensor<fp16, []> add_10_y_0_to_fp16 = const()[name = tensor<string, []>("add_10_y_0_to_fp16"), val = tensor<fp16, []>(0x1.1p-20)];
            tensor<fp16, [2, 32, 1, 1, 1]> add_10_cast = add(x = reduce_mean_17_cast, y = add_10_y_0_to_fp16);
            tensor<fp16, [2, 32, 1, 1, 1]> sqrt_5_cast = sqrt(x = add_10_cast);
            tensor<fp16, [2, 32, 10, 64, 64]> real_div_5_cast = real_div(x = sub_10_cast, y = sqrt_5_cast);
            tensor<int32, [4]> reshape_21_shape_0 = const()[name = tensor<string, []>("reshape_21_shape_0"), val = tensor<int32, [4]>([2, 320, 64, 64])];
            tensor<fp16, [2, 320, 64, 64]> reshape_21_cast = reshape(shape = reshape_21_shape_0, x = real_div_5_cast);
            tensor<fp16, [320]> add_11_mean_0_to_fp16 = const()[name = tensor<string, []>("add_11_mean_0_to_fp16"), val = tensor<fp16, [320]>(BLOBFILE(path = tensor<string, []>("@model_path/weights/weight.bin"), offset = tensor<uint64, []>(18575936)))];
            tensor<fp16, [320]> add_11_variance_0_to_fp16 = const()[name = tensor<string, []>("add_11_variance_0_to_fp16"), val = tensor<fp16, [320]>(BLOBFILE(path = tensor<string, []>("@model_path/weights/weight.bin"), offset = tensor<uint64, []>(18576640)))];
            tensor<fp16, [320]> add_11_gamma_0_to_fp16 = const()[name = tensor<string, []>("add_11_gamma_0_to_fp16"), val = tensor<fp16, [320]>(BLOBFILE(path = tensor<string, []>("@model_path/weights/weight.bin"), offset = tensor<uint64, []>(18577344)))];
            tensor<fp16, [320]> add_11_beta_0_to_fp16 = const()[name = tensor<string, []>("add_11_beta_0_to_fp16"), val = tensor<fp16, [320]>(BLOBFILE(path = tensor<string, []>("@model_path/weights/weight.bin"), offset = tensor<uint64, []>(18578048)))];
            tensor<fp16, []> add_11_epsilon_0_to_fp16 = const()[name = tensor<string, []>("add_11_epsilon_0_to_fp16"), val = tensor<fp16, []>(0x1.5p-17)];
            tensor<fp16, [2, 320, 64, 64]> add_11_cast = batch_norm(beta = add_11_beta_0_to_fp16, epsilon = add_11_epsilon_0_to_fp16, gamma = add_11_gamma_0_to_fp16, mean = add_11_mean_0_to_fp16, variance = add_11_variance_0_to_fp16, x = reshape_21_cast);
            tensor<int32, [2]> var_589 = const()[name = tensor<string, []>("op_589"), val = tensor<int32, [2]>([1, 1])];
            tensor<int32, [2]> var_591 = const()[name = tensor<string, []>("op_591"), val = tensor<int32, [2]>([1, 1])];
            tensor<string, []> hidden_states_25_pad_type_0 = const()[name = tensor<string, []>("hidden_states_25_pad_type_0"), val = tensor<string, []>("custom")];
            tensor<int32, [4]> hidden_states_25_pad_0 = const()[name = tensor<string, []>("hidden_states_25_pad_0"), val = tensor<int32, [4]>([0, 0, 0, 0])];
            tensor<fp16, [320, 320, 1, 1]> down_blocks_0_attentions_1_proj_in_weight_to_fp16 = const()[name = tensor<string, []>("down_blocks_0_attentions_1_proj_in_weight_to_fp16"), val = tensor<fp16, [320, 320, 1, 1]>(BLOBFILE(path = tensor<string, []>("@model_path/weights/weight.bin"), offset = tensor<uint64, []>(18578752)))];
            tensor<fp16, [320]> down_blocks_0_attentions_1_proj_in_bias_to_fp16 = const()[name = tensor<string, []>("down_blocks_0_attentions_1_proj_in_bias_to_fp16"), val = tensor<fp16, [320]>(BLOBFILE(path = tensor<string, []>("@model_path/weights/weight.bin"), offset = tensor<uint64, []>(18783616)))];
            tensor<fp16, [2, 320, 64, 64]> hidden_states_25_cast = conv(bias = down_blocks_0_attentions_1_proj_in_bias_to_fp16, dilations = var_591, groups = var_112, pad = hidden_states_25_pad_0, pad_type = hidden_states_25_pad_type_0, strides = var_589, weight = down_blocks_0_attentions_1_proj_in_weight_to_fp16, x = add_11_cast);
            tensor<int32, [4]> var_596 = const()[name = tensor<string, []>("op_596"), val = tensor<int32, [4]>([2, 320, 1, 4096])];
            tensor<fp16, [2, 320, 1, 4096]> inputs_7_cast = reshape(shape = var_596, x = hidden_states_25_cast);
            tensor<int32, [1]> var_606 = const()[name = tensor<string, []>("op_606"), val = tensor<int32, [1]>([1])];
            tensor<fp16, [2, 1, 1, 4096]> channels_mean_7_cast = reduce_mean(axes = var_606, keep_dims = var_107, x = inputs_7_cast);
            tensor<fp16, [2, 320, 1, 4096]> zero_mean_7_cast = sub(x = inputs_7_cast, y = channels_mean_7_cast);
            tensor<fp16, [2, 320, 1, 4096]> zero_mean_sq_7_cast = mul(x = zero_mean_7_cast, y = zero_mean_7_cast);
            tensor<int32, [1]> var_610 = const()[name = tensor<string, []>("op_610"), val = tensor<int32, [1]>([1])];
            tensor<fp16, [2, 1, 1, 4096]> var_611_cast = reduce_mean(axes = var_610, keep_dims = var_107, x = zero_mean_sq_7_cast);
            tensor<fp16, []> var_612_to_fp16 = const()[name = tensor<string, []>("op_612_to_fp16"), val = tensor<fp16, []>(0x1.5p-17)];
            tensor<fp16, [2, 1, 1, 4096]> var_613_cast = add(x = var_611_cast, y = var_612_to_fp16);
            tensor<fp16, []> denom_7_epsilon_0_to_fp16 = const()[name = tensor<string, []>("denom_7_epsilon_0_to_fp16"), val = tensor<fp16, []>(0x1p-24)];
            tensor<fp16, [2, 1, 1, 4096]> denom_7_cast = rsqrt(epsilon = denom_7_epsilon_0_to_fp16, x = var_613_cast);
            tensor<fp16, [2, 320, 1, 4096]> out_7_cast = mul(x = zero_mean_7_cast, y = denom_7_cast);
            tensor<fp16, [1, 320, 1, 1]> var_617_to_fp16 = const()[name = tensor<string, []>("op_617_to_fp16"), val = tensor<fp16, [1, 320, 1, 1]>(BLOBFILE(path = tensor<string, []>("@model_path/weights/weight.bin"), offset = tensor<uint64, []>(18784320)))];
            tensor<fp16, [2, 320, 1, 4096]> var_618_cast = add(x = out_7_cast, y = var_617_to_fp16);
            tensor<fp16, [1, 320, 1, 1]> var_620_to_fp16 = const()[name = tensor<string, []>("op_620_to_fp16"), val = tensor<fp16, [1, 320, 1, 1]>(BLOBFILE(path = tensor<string, []>("@model_path/weights/weight.bin"), offset = tensor<uint64, []>(18785024)))];
            tensor<fp16, [2, 320, 1, 4096]> hidden_states_27_cast = mul(x = var_618_cast, y = var_620_to_fp16);
            tensor<int32, [2]> var_627 = const()[name = tensor<string, []>("op_627"), val = tensor<int32, [2]>([1, 1])];
            tensor<int32, [2]> var_629 = const()[name = tensor<string, []>("op_629"), val = tensor<int32, [2]>([1, 1])];
            tensor<string, []> q_5_pad_type_0 = const()[name = tensor<string, []>("q_5_pad_type_0"), val = tensor<string, []>("custom")];
            tensor<int32, [4]> q_5_pad_0 = const()[name = tensor<string, []>("q_5_pad_0"), val = tensor<int32, [4]>([0, 0, 0, 0])];
            tensor<fp16, [320, 320, 1, 1]> down_blocks_0_attentions_1_transformer_blocks_0_attn1_to_q_weight_to_fp16 = const()[name = tensor<string, []>("down_blocks_0_attentions_1_transformer_blocks_0_attn1_to_q_weight_to_fp16"), val = tensor<fp16, [320, 320, 1, 1]>(BLOBFILE(path = tensor<string, []>("@model_path/weights/weight.bin"), offset = tensor<uint64, []>(18785728)))];
            tensor<fp16, [2, 320, 1, 4096]> q_5_cast = conv(dilations = var_629, groups = var_112, pad = q_5_pad_0, pad_type = q_5_pad_type_0, strides = var_627, weight = down_blocks_0_attentions_1_transformer_blocks_0_attn1_to_q_weight_to_fp16, x = hidden_states_27_cast);
            tensor<int32, [2]> var_633 = const()[name = tensor<string, []>("op_633"), val = tensor<int32, [2]>([1, 1])];
            tensor<int32, [2]> var_635 = const()[name = tensor<string, []>("op_635"), val = tensor<int32, [2]>([1, 1])];
            tensor<string, []> k_9_pad_type_0 = const()[name = tensor<string, []>("k_9_pad_type_0"), val = tensor<string, []>("custom")];
            tensor<int32, [4]> k_9_pad_0 = const()[name = tensor<string, []>("k_9_pad_0"), val = tensor<int32, [4]>([0, 0, 0, 0])];
            tensor<fp16, [320, 320, 1, 1]> down_blocks_0_attentions_1_transformer_blocks_0_attn1_to_k_weight_to_fp16 = const()[name = tensor<string, []>("down_blocks_0_attentions_1_transformer_blocks_0_attn1_to_k_weight_to_fp16"), val = tensor<fp16, [320, 320, 1, 1]>(BLOBFILE(path = tensor<string, []>("@model_path/weights/weight.bin"), offset = tensor<uint64, []>(18990592)))];
            tensor<fp16, [2, 320, 1, 4096]> k_9_cast = conv(dilations = var_635, groups = var_112, pad = k_9_pad_0, pad_type = k_9_pad_type_0, strides = var_633, weight = down_blocks_0_attentions_1_transformer_blocks_0_attn1_to_k_weight_to_fp16, x = hidden_states_27_cast);
            tensor<int32, [2]> var_639 = const()[name = tensor<string, []>("op_639"), val = tensor<int32, [2]>([1, 1])];
            tensor<int32, [2]> var_641 = const()[name = tensor<string, []>("op_641"), val = tensor<int32, [2]>([1, 1])];
            tensor<string, []> v_5_pad_type_0 = const()[name = tensor<string, []>("v_5_pad_type_0"), val = tensor<string, []>("custom")];
            tensor<int32, [4]> v_5_pad_0 = const()[name = tensor<string, []>("v_5_pad_0"), val = tensor<int32, [4]>([0, 0, 0, 0])];
            tensor<fp16, [320, 320, 1, 1]> down_blocks_0_attentions_1_transformer_blocks_0_attn1_to_v_weight_to_fp16 = const()[name = tensor<string, []>("down_blocks_0_attentions_1_transformer_blocks_0_attn1_to_v_weight_to_fp16"), val = tensor<fp16, [320, 320, 1, 1]>(BLOBFILE(path = tensor<string, []>("@model_path/weights/weight.bin"), offset = tensor<uint64, []>(19195456)))];
            tensor<fp16, [2, 320, 1, 4096]> v_5_cast = conv(dilations = var_641, groups = var_112, pad = v_5_pad_0, pad_type = v_5_pad_type_0, strides = var_639, weight = down_blocks_0_attentions_1_transformer_blocks_0_attn1_to_v_weight_to_fp16, x = hidden_states_27_cast);
            tensor<int32, [4]> var_645_begin_0 = const()[name = tensor<string, []>("op_645_begin_0"), val = tensor<int32, [4]>([0, 0, 0, 0])];
            tensor<int32, [4]> var_645_end_0 = const()[name = tensor<string, []>("op_645_end_0"), val = tensor<int32, [4]>([2, 64, 1, 4096])];
            tensor<bool, [4]> var_645_end_mask_0 = const()[name = tensor<string, []>("op_645_end_mask_0"), val = tensor<bool, [4]>([true, false, true, true])];
            tensor<fp16, [2, 64, 1, 4096]> var_645_cast = slice_by_index(begin = var_645_begin_0, end = var_645_end_0, end_mask = var_645_end_mask_0, x = q_5_cast);
            tensor<int32, [4]> var_649_begin_0 = const()[name = tensor<string, []>("op_649_begin_0"), val = tensor<int32, [4]>([0, 64, 0, 0])];
            tensor<int32, [4]> var_649_end_0 = const()[name = tensor<string, []>("op_649_end_0"), val = tensor<int32, [4]>([2, 128, 1, 4096])];
            tensor<bool, [4]> var_649_end_mask_0 = const()[name = tensor<string, []>("op_649_end_mask_0"), val = tensor<bool, [4]>([true, false, true, true])];
            tensor<fp16, [2, 64, 1, 4096]> var_649_cast = slice_by_index(begin = var_649_begin_0, end = var_649_end_0, end_mask = var_649_end_mask_0, x = q_5_cast);
            tensor<int32, [4]> var_653_begin_0 = const()[name = tensor<string, []>("op_653_begin_0"), val = tensor<int32, [4]>([0, 128, 0, 0])];
            tensor<int32, [4]> var_653_end_0 = const()[name = tensor<string, []>("op_653_end_0"), val = tensor<int32, [4]>([2, 192, 1, 4096])];
            tensor<bool, [4]> var_653_end_mask_0 = const()[name = tensor<string, []>("op_653_end_mask_0"), val = tensor<bool, [4]>([true, false, true, true])];
            tensor<fp16, [2, 64, 1, 4096]> var_653_cast = slice_by_index(begin = var_653_begin_0, end = var_653_end_0, end_mask = var_653_end_mask_0, x = q_5_cast);
            tensor<int32, [4]> var_657_begin_0 = const()[name = tensor<string, []>("op_657_begin_0"), val = tensor<int32, [4]>([0, 192, 0, 0])];
            tensor<int32, [4]> var_657_end_0 = const()[name = tensor<string, []>("op_657_end_0"), val = tensor<int32, [4]>([2, 256, 1, 4096])];
            tensor<bool, [4]> var_657_end_mask_0 = const()[name = tensor<string, []>("op_657_end_mask_0"), val = tensor<bool, [4]>([true, false, true, true])];
            tensor<fp16, [2, 64, 1, 4096]> var_657_cast = slice_by_index(begin = var_657_begin_0, end = var_657_end_0, end_mask = var_657_end_mask_0, x = q_5_cast);
            tensor<int32, [4]> var_661_begin_0 = const()[name = tensor<string, []>("op_661_begin_0"), val = tensor<int32, [4]>([0, 256, 0, 0])];
            tensor<int32, [4]> var_661_end_0 = const()[name = tensor<string, []>("op_661_end_0"), val = tensor<int32, [4]>([2, 320, 1, 4096])];
            tensor<bool, [4]> var_661_end_mask_0 = const()[name = tensor<string, []>("op_661_end_mask_0"), val = tensor<bool, [4]>([true, false, true, true])];
            tensor<fp16, [2, 64, 1, 4096]> var_661_cast = slice_by_index(begin = var_661_begin_0, end = var_661_end_0, end_mask = var_661_end_mask_0, x = q_5_cast);
            tensor<int32, [4]> k_11_perm_0 = const()[name = tensor<string, []>("k_11_perm_0"), val = tensor<int32, [4]>([0, 3, 2, 1])];
            tensor<int32, [4]> var_668_begin_0 = const()[name = tensor<string, []>("op_668_begin_0"), val = tensor<int32, [4]>([0, 0, 0, 0])];
            tensor<int32, [4]> var_668_end_0 = const()[name = tensor<string, []>("op_668_end_0"), val = tensor<int32, [4]>([2, 4096, 1, 64])];
            tensor<bool, [4]> var_668_end_mask_0 = const()[name = tensor<string, []>("op_668_end_mask_0"), val = tensor<bool, [4]>([true, true, true, false])];
            tensor<fp16, [2, 4096, 1, 320]> transpose_75 = transpose(perm = k_11_perm_0, x = k_9_cast);
            tensor<fp16, [2, 4096, 1, 64]> var_668_cast = slice_by_index(begin = var_668_begin_0, end = var_668_end_0, end_mask = var_668_end_mask_0, x = transpose_75);
            tensor<int32, [4]> var_672_begin_0 = const()[name = tensor<string, []>("op_672_begin_0"), val = tensor<int32, [4]>([0, 0, 0, 64])];
            tensor<int32, [4]> var_672_end_0 = const()[name = tensor<string, []>("op_672_end_0"), val = tensor<int32, [4]>([2, 4096, 1, 128])];
            tensor<bool, [4]> var_672_end_mask_0 = const()[name = tensor<string, []>("op_672_end_mask_0"), val = tensor<bool, [4]>([true, true, true, false])];
            tensor<fp16, [2, 4096, 1, 64]> var_672_cast = slice_by_index(begin = var_672_begin_0, end = var_672_end_0, end_mask = var_672_end_mask_0, x = transpose_75);
            tensor<int32, [4]> var_676_begin_0 = const()[name = tensor<string, []>("op_676_begin_0"), val = tensor<int32, [4]>([0, 0, 0, 128])];
            tensor<int32, [4]> var_676_end_0 = const()[name = tensor<string, []>("op_676_end_0"), val = tensor<int32, [4]>([2, 4096, 1, 192])];
            tensor<bool, [4]> var_676_end_mask_0 = const()[name = tensor<string, []>("op_676_end_mask_0"), val = tensor<bool, [4]>([true, true, true, false])];
            tensor<fp16, [2, 4096, 1, 64]> var_676_cast = slice_by_index(begin = var_676_begin_0, end = var_676_end_0, end_mask = var_676_end_mask_0, x = transpose_75);
            tensor<int32, [4]> var_680_begin_0 = const()[name = tensor<string, []>("op_680_begin_0"), val = tensor<int32, [4]>([0, 0, 0, 192])];
            tensor<int32, [4]> var_680_end_0 = const()[name = tensor<string, []>("op_680_end_0"), val = tensor<int32, [4]>([2, 4096, 1, 256])];
            tensor<bool, [4]> var_680_end_mask_0 = const()[name = tensor<string, []>("op_680_end_mask_0"), val = tensor<bool, [4]>([true, true, true, false])];
            tensor<fp16, [2, 4096, 1, 64]> var_680_cast = slice_by_index(begin = var_680_begin_0, end = var_680_end_0, end_mask = var_680_end_mask_0, x = transpose_75);
            tensor<int32, [4]> var_684_begin_0 = const()[name = tensor<string, []>("op_684_begin_0"), val = tensor<int32, [4]>([0, 0, 0, 256])];
            tensor<int32, [4]> var_684_end_0 = const()[name = tensor<string, []>("op_684_end_0"), val = tensor<int32, [4]>([2, 4096, 1, 320])];
            tensor<bool, [4]> var_684_end_mask_0 = const()[name = tensor<string, []>("op_684_end_mask_0"), val = tensor<bool, [4]>([true, true, true, false])];
            tensor<fp16, [2, 4096, 1, 64]> var_684_cast = slice_by_index(begin = var_684_begin_0, end = var_684_end_0, end_mask = var_684_end_mask_0, x = transpose_75);
            tensor<int32, [4]> var_686_begin_0 = const()[name = tensor<string, []>("op_686_begin_0"), val = tensor<int32, [4]>([0, 0, 0, 0])];
            tensor<int32, [4]> var_686_end_0 = const()[name = tensor<string, []>("op_686_end_0"), val = tensor<int32, [4]>([2, 64, 1, 4096])];
            tensor<bool, [4]> var_686_end_mask_0 = const()[name = tensor<string, []>("op_686_end_mask_0"), val = tensor<bool, [4]>([true, false, true, true])];
            tensor<fp16, [2, 64, 1, 4096]> var_686_cast = slice_by_index(begin = var_686_begin_0, end = var_686_end_0, end_mask = var_686_end_mask_0, x = v_5_cast);
            tensor<int32, [4]> var_690_begin_0 = const()[name = tensor<string, []>("op_690_begin_0"), val = tensor<int32, [4]>([0, 64, 0, 0])];
            tensor<int32, [4]> var_690_end_0 = const()[name = tensor<string, []>("op_690_end_0"), val = tensor<int32, [4]>([2, 128, 1, 4096])];
            tensor<bool, [4]> var_690_end_mask_0 = const()[name = tensor<string, []>("op_690_end_mask_0"), val = tensor<bool, [4]>([true, false, true, true])];
            tensor<fp16, [2, 64, 1, 4096]> var_690_cast = slice_by_index(begin = var_690_begin_0, end = var_690_end_0, end_mask = var_690_end_mask_0, x = v_5_cast);
            tensor<int32, [4]> var_694_begin_0 = const()[name = tensor<string, []>("op_694_begin_0"), val = tensor<int32, [4]>([0, 128, 0, 0])];
            tensor<int32, [4]> var_694_end_0 = const()[name = tensor<string, []>("op_694_end_0"), val = tensor<int32, [4]>([2, 192, 1, 4096])];
            tensor<bool, [4]> var_694_end_mask_0 = const()[name = tensor<string, []>("op_694_end_mask_0"), val = tensor<bool, [4]>([true, false, true, true])];
            tensor<fp16, [2, 64, 1, 4096]> var_694_cast = slice_by_index(begin = var_694_begin_0, end = var_694_end_0, end_mask = var_694_end_mask_0, x = v_5_cast);
            tensor<int32, [4]> var_698_begin_0 = const()[name = tensor<string, []>("op_698_begin_0"), val = tensor<int32, [4]>([0, 192, 0, 0])];
            tensor<int32, [4]> var_698_end_0 = const()[name = tensor<string, []>("op_698_end_0"), val = tensor<int32, [4]>([2, 256, 1, 4096])];
            tensor<bool, [4]> var_698_end_mask_0 = const()[name = tensor<string, []>("op_698_end_mask_0"), val = tensor<bool, [4]>([true, false, true, true])];
            tensor<fp16, [2, 64, 1, 4096]> var_698_cast = slice_by_index(begin = var_698_begin_0, end = var_698_end_0, end_mask = var_698_end_mask_0, x = v_5_cast);
            tensor<int32, [4]> var_702_begin_0 = const()[name = tensor<string, []>("op_702_begin_0"), val = tensor<int32, [4]>([0, 256, 0, 0])];
            tensor<int32, [4]> var_702_end_0 = const()[name = tensor<string, []>("op_702_end_0"), val = tensor<int32, [4]>([2, 320, 1, 4096])];
            tensor<bool, [4]> var_702_end_mask_0 = const()[name = tensor<string, []>("op_702_end_mask_0"), val = tensor<bool, [4]>([true, false, true, true])];
            tensor<fp16, [2, 64, 1, 4096]> var_702_cast = slice_by_index(begin = var_702_begin_0, end = var_702_end_0, end_mask = var_702_end_mask_0, x = v_5_cast);
            tensor<string, []> var_706_equation_0 = const()[name = tensor<string, []>("op_706_equation_0"), val = tensor<string, []>("bkhc,bchq->bkhq")];
            tensor<fp16, [2, 4096, 1, 4096]> var_706_cast = einsum(equation = var_706_equation_0, values = (var_668_cast, var_645_cast));
            tensor<fp16, []> var_707_to_fp16 = const()[name = tensor<string, []>("op_707_to_fp16"), val = tensor<fp16, []>(0x1p-3)];
            tensor<fp16, [2, 4096, 1, 4096]> aw_21_cast = mul(x = var_706_cast, y = var_707_to_fp16);
            tensor<string, []> var_710_equation_0 = const()[name = tensor<string, []>("op_710_equation_0"), val = tensor<string, []>("bkhc,bchq->bkhq")];
            tensor<fp16, [2, 4096, 1, 4096]> var_710_cast = einsum(equation = var_710_equation_0, values = (var_672_cast, var_649_cast));
            tensor<fp16, []> var_711_to_fp16 = const()[name = tensor<string, []>("op_711_to_fp16"), val = tensor<fp16, []>(0x1p-3)];
            tensor<fp16, [2, 4096, 1, 4096]> aw_23_cast = mul(x = var_710_cast, y = var_711_to_fp16);
            tensor<string, []> var_714_equation_0 = const()[name = tensor<string, []>("op_714_equation_0"), val = tensor<string, []>("bkhc,bchq->bkhq")];
            tensor<fp16, [2, 4096, 1, 4096]> var_714_cast = einsum(equation = var_714_equation_0, values = (var_676_cast, var_653_cast));
            tensor<fp16, []> var_715_to_fp16 = const()[name = tensor<string, []>("op_715_to_fp16"), val = tensor<fp16, []>(0x1p-3)];
            tensor<fp16, [2, 4096, 1, 4096]> aw_25_cast = mul(x = var_714_cast, y = var_715_to_fp16);
            tensor<string, []> var_718_equation_0 = const()[name = tensor<string, []>("op_718_equation_0"), val = tensor<string, []>("bkhc,bchq->bkhq")];
            tensor<fp16, [2, 4096, 1, 4096]> var_718_cast = einsum(equation = var_718_equation_0, values = (var_680_cast, var_657_cast));
            tensor<fp16, []> var_719_to_fp16 = const()[name = tensor<string, []>("op_719_to_fp16"), val = tensor<fp16, []>(0x1p-3)];
            tensor<fp16, [2, 4096, 1, 4096]> aw_27_cast = mul(x = var_718_cast, y = var_719_to_fp16);
            tensor<string, []> var_722_equation_0 = const()[name = tensor<string, []>("op_722_equation_0"), val = tensor<string, []>("bkhc,bchq->bkhq")];
            tensor<fp16, [2, 4096, 1, 4096]> var_722_cast = einsum(equation = var_722_equation_0, values = (var_684_cast, var_661_cast));
            tensor<fp16, []> var_723_to_fp16 = const()[name = tensor<string, []>("op_723_to_fp16"), val = tensor<fp16, []>(0x1p-3)];
            tensor<fp16, [2, 4096, 1, 4096]> aw_29_cast = mul(x = var_722_cast, y = var_723_to_fp16);
            tensor<fp16, [2, 4096, 1, 4096]> var_725_cast = softmax(axis = var_112, x = aw_21_cast);
            tensor<fp16, [2, 4096, 1, 4096]> var_726_cast = softmax(axis = var_112, x = aw_23_cast);
            tensor<fp16, [2, 4096, 1, 4096]> var_727_cast = softmax(axis = var_112, x = aw_25_cast);
            tensor<fp16, [2, 4096, 1, 4096]> var_728_cast = softmax(axis = var_112, x = aw_27_cast);
            tensor<fp16, [2, 4096, 1, 4096]> var_729_cast = softmax(axis = var_112, x = aw_29_cast);
            tensor<string, []> var_731_equation_0 = const()[name = tensor<string, []>("op_731_equation_0"), val = tensor<string, []>("bchk,bkhq->bchq")];
            tensor<fp16, [2, 64, 1, 4096]> var_731_cast = einsum(equation = var_731_equation_0, values = (var_686_cast, var_725_cast));
            tensor<string, []> var_733_equation_0 = const()[name = tensor<string, []>("op_733_equation_0"), val = tensor<string, []>("bchk,bkhq->bchq")];
            tensor<fp16, [2, 64, 1, 4096]> var_733_cast = einsum(equation = var_733_equation_0, values = (var_690_cast, var_726_cast));
            tensor<string, []> var_735_equation_0 = const()[name = tensor<string, []>("op_735_equation_0"), val = tensor<string, []>("bchk,bkhq->bchq")];
            tensor<fp16, [2, 64, 1, 4096]> var_735_cast = einsum(equation = var_735_equation_0, values = (var_694_cast, var_727_cast));
            tensor<string, []> var_737_equation_0 = const()[name = tensor<string, []>("op_737_equation_0"), val = tensor<string, []>("bchk,bkhq->bchq")];
            tensor<fp16, [2, 64, 1, 4096]> var_737_cast = einsum(equation = var_737_equation_0, values = (var_698_cast, var_728_cast));
            tensor<string, []> var_739_equation_0 = const()[name = tensor<string, []>("op_739_equation_0"), val = tensor<string, []>("bchk,bkhq->bchq")];
            tensor<fp16, [2, 64, 1, 4096]> var_739_cast = einsum(equation = var_739_equation_0, values = (var_702_cast, var_729_cast));
            tensor<bool, []> input_51_interleave_0 = const()[name = tensor<string, []>("input_51_interleave_0"), val = tensor<bool, []>(false)];
            tensor<fp16, [2, 320, 1, 4096]> input_51_cast = concat(axis = var_112, interleave = input_51_interleave_0, values = (var_731_cast, var_733_cast, var_735_cast, var_737_cast, var_739_cast));
            tensor<int32, [2]> var_745 = const()[name = tensor<string, []>("op_745"), val = tensor<int32, [2]>([1, 1])];
            tensor<int32, [2]> var_747 = const()[name = tensor<string, []>("op_747"), val = tensor<int32, [2]>([1, 1])];
            tensor<string, []> var_749_pad_type_0 = const()[name = tensor<string, []>("op_749_pad_type_0"), val = tensor<string, []>("custom")];
            tensor<int32, [4]> var_749_pad_0 = const()[name = tensor<string, []>("op_749_pad_0"), val = tensor<int32, [4]>([0, 0, 0, 0])];
            tensor<fp16, [320, 320, 1, 1]> down_blocks_0_attentions_1_transformer_blocks_0_attn1_to_out_0_weight_to_fp16 = const()[name = tensor<string, []>("down_blocks_0_attentions_1_transformer_blocks_0_attn1_to_out_0_weight_to_fp16"), val = tensor<fp16, [320, 320, 1, 1]>(BLOBFILE(path = tensor<string, []>("@model_path/weights/weight.bin"), offset = tensor<uint64, []>(19400320)))];
            tensor<fp16, [320]> down_blocks_0_attentions_1_transformer_blocks_0_attn1_to_out_0_bias_to_fp16 = const()[name = tensor<string, []>("down_blocks_0_attentions_1_transformer_blocks_0_attn1_to_out_0_bias_to_fp16"), val = tensor<fp16, [320]>(BLOBFILE(path = tensor<string, []>("@model_path/weights/weight.bin"), offset = tensor<uint64, []>(19605184)))];
            tensor<fp16, [2, 320, 1, 4096]> var_749_cast = conv(bias = down_blocks_0_attentions_1_transformer_blocks_0_attn1_to_out_0_bias_to_fp16, dilations = var_747, groups = var_112, pad = var_749_pad_0, pad_type = var_749_pad_type_0, strides = var_745, weight = down_blocks_0_attentions_1_transformer_blocks_0_attn1_to_out_0_weight_to_fp16, x = input_51_cast);
            tensor<fp16, [2, 320, 1, 4096]> inputs_9_cast = add(x = var_749_cast, y = inputs_7_cast);
            tensor<int32, [1]> var_753 = const()[name = tensor<string, []>("op_753"), val = tensor<int32, [1]>([1])];
            tensor<fp16, [2, 1, 1, 4096]> channels_mean_9_cast = reduce_mean(axes = var_753, keep_dims = var_107, x = inputs_9_cast);
            tensor<fp16, [2, 320, 1, 4096]> zero_mean_9_cast = sub(x = inputs_9_cast, y = channels_mean_9_cast);
            tensor<fp16, [2, 320, 1, 4096]> zero_mean_sq_9_cast = mul(x = zero_mean_9_cast, y = zero_mean_9_cast);
            tensor<int32, [1]> var_757 = const()[name = tensor<string, []>("op_757"), val = tensor<int32, [1]>([1])];
            tensor<fp16, [2, 1, 1, 4096]> var_758_cast = reduce_mean(axes = var_757, keep_dims = var_107, x = zero_mean_sq_9_cast);
            tensor<fp16, []> var_759_to_fp16 = const()[name = tensor<string, []>("op_759_to_fp16"), val = tensor<fp16, []>(0x1.5p-17)];
            tensor<fp16, [2, 1, 1, 4096]> var_760_cast = add(x = var_758_cast, y = var_759_to_fp16);
            tensor<fp16, []> denom_9_epsilon_0_to_fp16 = const()[name = tensor<string, []>("denom_9_epsilon_0_to_fp16"), val = tensor<fp16, []>(0x1p-24)];
            tensor<fp16, [2, 1, 1, 4096]> denom_9_cast = rsqrt(epsilon = denom_9_epsilon_0_to_fp16, x = var_760_cast);
            tensor<fp16, [2, 320, 1, 4096]> out_9_cast = mul(x = zero_mean_9_cast, y = denom_9_cast);
            tensor<fp16, [1, 320, 1, 1]> var_764_to_fp16 = const()[name = tensor<string, []>("op_764_to_fp16"), val = tensor<fp16, [1, 320, 1, 1]>(BLOBFILE(path = tensor<string, []>("@model_path/weights/weight.bin"), offset = tensor<uint64, []>(19605888)))];
            tensor<fp16, [2, 320, 1, 4096]> var_765_cast = add(x = out_9_cast, y = var_764_to_fp16);
            tensor<fp16, [1, 320, 1, 1]> var_767_to_fp16 = const()[name = tensor<string, []>("op_767_to_fp16"), val = tensor<fp16, [1, 320, 1, 1]>(BLOBFILE(path = tensor<string, []>("@model_path/weights/weight.bin"), offset = tensor<uint64, []>(19606592)))];
            tensor<fp16, [2, 320, 1, 4096]> hidden_states_29_cast = mul(x = var_765_cast, y = var_767_to_fp16);
            tensor<int32, [2]> var_774 = const()[name = tensor<string, []>("op_774"), val = tensor<int32, [2]>([1, 1])];
            tensor<int32, [2]> var_776 = const()[name = tensor<string, []>("op_776"), val = tensor<int32, [2]>([1, 1])];
            tensor<string, []> q_7_pad_type_0 = const()[name = tensor<string, []>("q_7_pad_type_0"), val = tensor<string, []>("custom")];
            tensor<int32, [4]> q_7_pad_0 = const()[name = tensor<string, []>("q_7_pad_0"), val = tensor<int32, [4]>([0, 0, 0, 0])];
            tensor<fp16, [320, 320, 1, 1]> down_blocks_0_attentions_1_transformer_blocks_0_attn2_to_q_weight_to_fp16 = const()[name = tensor<string, []>("down_blocks_0_attentions_1_transformer_blocks_0_attn2_to_q_weight_to_fp16"), val = tensor<fp16, [320, 320, 1, 1]>(BLOBFILE(path = tensor<string, []>("@model_path/weights/weight.bin"), offset = tensor<uint64, []>(19607296)))];
            tensor<fp16, [2, 320, 1, 4096]> q_7_cast = conv(dilations = var_776, groups = var_112, pad = q_7_pad_0, pad_type = q_7_pad_type_0, strides = var_774, weight = down_blocks_0_attentions_1_transformer_blocks_0_attn2_to_q_weight_to_fp16, x = hidden_states_29_cast);
            tensor<int32, [2]> var_780 = const()[name = tensor<string, []>("op_780"), val = tensor<int32, [2]>([1, 1])];
            tensor<int32, [2]> var_782 = const()[name = tensor<string, []>("op_782"), val = tensor<int32, [2]>([1, 1])];
            tensor<string, []> k_13_pad_type_0 = const()[name = tensor<string, []>("k_13_pad_type_0"), val = tensor<string, []>("custom")];
            tensor<int32, [4]> k_13_pad_0 = const()[name = tensor<string, []>("k_13_pad_0"), val = tensor<int32, [4]>([0, 0, 0, 0])];
            tensor<fp16, [320, 1024, 1, 1]> down_blocks_0_attentions_1_transformer_blocks_0_attn2_to_k_weight_to_fp16 = const()[name = tensor<string, []>("down_blocks_0_attentions_1_transformer_blocks_0_attn2_to_k_weight_to_fp16"), val = tensor<fp16, [320, 1024, 1, 1]>(BLOBFILE(path = tensor<string, []>("@model_path/weights/weight.bin"), offset = tensor<uint64, []>(19812160)))];
            tensor<fp16, [2, 320, 1, 77]> k_13_cast = conv(dilations = var_782, groups = var_112, pad = k_13_pad_0, pad_type = k_13_pad_type_0, strides = var_780, weight = down_blocks_0_attentions_1_transformer_blocks_0_attn2_to_k_weight_to_fp16, x = encoder_hidden_states);
            tensor<int32, [2]> var_786 = const()[name = tensor<string, []>("op_786"), val = tensor<int32, [2]>([1, 1])];
            tensor<int32, [2]> var_788 = const()[name = tensor<string, []>("op_788"), val = tensor<int32, [2]>([1, 1])];
            tensor<string, []> v_7_pad_type_0 = const()[name = tensor<string, []>("v_7_pad_type_0"), val = tensor<string, []>("custom")];
            tensor<int32, [4]> v_7_pad_0 = const()[name = tensor<string, []>("v_7_pad_0"), val = tensor<int32, [4]>([0, 0, 0, 0])];
            tensor<fp16, [320, 1024, 1, 1]> down_blocks_0_attentions_1_transformer_blocks_0_attn2_to_v_weight_to_fp16 = const()[name = tensor<string, []>("down_blocks_0_attentions_1_transformer_blocks_0_attn2_to_v_weight_to_fp16"), val = tensor<fp16, [320, 1024, 1, 1]>(BLOBFILE(path = tensor<string, []>("@model_path/weights/weight.bin"), offset = tensor<uint64, []>(20467584)))];
            tensor<fp16, [2, 320, 1, 77]> v_7_cast = conv(dilations = var_788, groups = var_112, pad = v_7_pad_0, pad_type = v_7_pad_type_0, strides = var_786, weight = down_blocks_0_attentions_1_transformer_blocks_0_attn2_to_v_weight_to_fp16, x = encoder_hidden_states);
            tensor<int32, [4]> var_792_begin_0 = const()[name = tensor<string, []>("op_792_begin_0"), val = tensor<int32, [4]>([0, 0, 0, 0])];
            tensor<int32, [4]> var_792_end_0 = const()[name = tensor<string, []>("op_792_end_0"), val = tensor<int32, [4]>([2, 64, 1, 4096])];
            tensor<bool, [4]> var_792_end_mask_0 = const()[name = tensor<string, []>("op_792_end_mask_0"), val = tensor<bool, [4]>([true, false, true, true])];
            tensor<fp16, [2, 64, 1, 4096]> var_792_cast = slice_by_index(begin = var_792_begin_0, end = var_792_end_0, end_mask = var_792_end_mask_0, x = q_7_cast);
            tensor<int32, [4]> var_796_begin_0 = const()[name = tensor<string, []>("op_796_begin_0"), val = tensor<int32, [4]>([0, 64, 0, 0])];
            tensor<int32, [4]> var_796_end_0 = const()[name = tensor<string, []>("op_796_end_0"), val = tensor<int32, [4]>([2, 128, 1, 4096])];
            tensor<bool, [4]> var_796_end_mask_0 = const()[name = tensor<string, []>("op_796_end_mask_0"), val = tensor<bool, [4]>([true, false, true, true])];
            tensor<fp16, [2, 64, 1, 4096]> var_796_cast = slice_by_index(begin = var_796_begin_0, end = var_796_end_0, end_mask = var_796_end_mask_0, x = q_7_cast);
            tensor<int32, [4]> var_800_begin_0 = const()[name = tensor<string, []>("op_800_begin_0"), val = tensor<int32, [4]>([0, 128, 0, 0])];
            tensor<int32, [4]> var_800_end_0 = const()[name = tensor<string, []>("op_800_end_0"), val = tensor<int32, [4]>([2, 192, 1, 4096])];
            tensor<bool, [4]> var_800_end_mask_0 = const()[name = tensor<string, []>("op_800_end_mask_0"), val = tensor<bool, [4]>([true, false, true, true])];
            tensor<fp16, [2, 64, 1, 4096]> var_800_cast = slice_by_index(begin = var_800_begin_0, end = var_800_end_0, end_mask = var_800_end_mask_0, x = q_7_cast);
            tensor<int32, [4]> var_804_begin_0 = const()[name = tensor<string, []>("op_804_begin_0"), val = tensor<int32, [4]>([0, 192, 0, 0])];
            tensor<int32, [4]> var_804_end_0 = const()[name = tensor<string, []>("op_804_end_0"), val = tensor<int32, [4]>([2, 256, 1, 4096])];
            tensor<bool, [4]> var_804_end_mask_0 = const()[name = tensor<string, []>("op_804_end_mask_0"), val = tensor<bool, [4]>([true, false, true, true])];
            tensor<fp16, [2, 64, 1, 4096]> var_804_cast = slice_by_index(begin = var_804_begin_0, end = var_804_end_0, end_mask = var_804_end_mask_0, x = q_7_cast);
            tensor<int32, [4]> var_808_begin_0 = const()[name = tensor<string, []>("op_808_begin_0"), val = tensor<int32, [4]>([0, 256, 0, 0])];
            tensor<int32, [4]> var_808_end_0 = const()[name = tensor<string, []>("op_808_end_0"), val = tensor<int32, [4]>([2, 320, 1, 4096])];
            tensor<bool, [4]> var_808_end_mask_0 = const()[name = tensor<string, []>("op_808_end_mask_0"), val = tensor<bool, [4]>([true, false, true, true])];
            tensor<fp16, [2, 64, 1, 4096]> var_808_cast = slice_by_index(begin = var_808_begin_0, end = var_808_end_0, end_mask = var_808_end_mask_0, x = q_7_cast);
            tensor<int32, [4]> k_15_perm_0 = const()[name = tensor<string, []>("k_15_perm_0"), val = tensor<int32, [4]>([0, 3, 2, 1])];
            tensor<int32, [4]> var_815_begin_0 = const()[name = tensor<string, []>("op_815_begin_0"), val = tensor<int32, [4]>([0, 0, 0, 0])];
            tensor<int32, [4]> var_815_end_0 = const()[name = tensor<string, []>("op_815_end_0"), val = tensor<int32, [4]>([2, 77, 1, 64])];
            tensor<bool, [4]> var_815_end_mask_0 = const()[name = tensor<string, []>("op_815_end_mask_0"), val = tensor<bool, [4]>([true, true, true, false])];
            tensor<fp16, [2, 77, 1, 320]> transpose_74 = transpose(perm = k_15_perm_0, x = k_13_cast);
            tensor<fp16, [2, 77, 1, 64]> var_815_cast = slice_by_index(begin = var_815_begin_0, end = var_815_end_0, end_mask = var_815_end_mask_0, x = transpose_74);
            tensor<int32, [4]> var_819_begin_0 = const()[name = tensor<string, []>("op_819_begin_0"), val = tensor<int32, [4]>([0, 0, 0, 64])];
            tensor<int32, [4]> var_819_end_0 = const()[name = tensor<string, []>("op_819_end_0"), val = tensor<int32, [4]>([2, 77, 1, 128])];
            tensor<bool, [4]> var_819_end_mask_0 = const()[name = tensor<string, []>("op_819_end_mask_0"), val = tensor<bool, [4]>([true, true, true, false])];
            tensor<fp16, [2, 77, 1, 64]> var_819_cast = slice_by_index(begin = var_819_begin_0, end = var_819_end_0, end_mask = var_819_end_mask_0, x = transpose_74);
            tensor<int32, [4]> var_823_begin_0 = const()[name = tensor<string, []>("op_823_begin_0"), val = tensor<int32, [4]>([0, 0, 0, 128])];
            tensor<int32, [4]> var_823_end_0 = const()[name = tensor<string, []>("op_823_end_0"), val = tensor<int32, [4]>([2, 77, 1, 192])];
            tensor<bool, [4]> var_823_end_mask_0 = const()[name = tensor<string, []>("op_823_end_mask_0"), val = tensor<bool, [4]>([true, true, true, false])];
            tensor<fp16, [2, 77, 1, 64]> var_823_cast = slice_by_index(begin = var_823_begin_0, end = var_823_end_0, end_mask = var_823_end_mask_0, x = transpose_74);
            tensor<int32, [4]> var_827_begin_0 = const()[name = tensor<string, []>("op_827_begin_0"), val = tensor<int32, [4]>([0, 0, 0, 192])];
            tensor<int32, [4]> var_827_end_0 = const()[name = tensor<string, []>("op_827_end_0"), val = tensor<int32, [4]>([2, 77, 1, 256])];
            tensor<bool, [4]> var_827_end_mask_0 = const()[name = tensor<string, []>("op_827_end_mask_0"), val = tensor<bool, [4]>([true, true, true, false])];
            tensor<fp16, [2, 77, 1, 64]> var_827_cast = slice_by_index(begin = var_827_begin_0, end = var_827_end_0, end_mask = var_827_end_mask_0, x = transpose_74);
            tensor<int32, [4]> var_831_begin_0 = const()[name = tensor<string, []>("op_831_begin_0"), val = tensor<int32, [4]>([0, 0, 0, 256])];
            tensor<int32, [4]> var_831_end_0 = const()[name = tensor<string, []>("op_831_end_0"), val = tensor<int32, [4]>([2, 77, 1, 320])];
            tensor<bool, [4]> var_831_end_mask_0 = const()[name = tensor<string, []>("op_831_end_mask_0"), val = tensor<bool, [4]>([true, true, true, false])];
            tensor<fp16, [2, 77, 1, 64]> var_831_cast = slice_by_index(begin = var_831_begin_0, end = var_831_end_0, end_mask = var_831_end_mask_0, x = transpose_74);
            tensor<int32, [4]> var_833_begin_0 = const()[name = tensor<string, []>("op_833_begin_0"), val = tensor<int32, [4]>([0, 0, 0, 0])];
            tensor<int32, [4]> var_833_end_0 = const()[name = tensor<string, []>("op_833_end_0"), val = tensor<int32, [4]>([2, 64, 1, 77])];
            tensor<bool, [4]> var_833_end_mask_0 = const()[name = tensor<string, []>("op_833_end_mask_0"), val = tensor<bool, [4]>([true, false, true, true])];
            tensor<fp16, [2, 64, 1, 77]> var_833_cast = slice_by_index(begin = var_833_begin_0, end = var_833_end_0, end_mask = var_833_end_mask_0, x = v_7_cast);
            tensor<int32, [4]> var_837_begin_0 = const()[name = tensor<string, []>("op_837_begin_0"), val = tensor<int32, [4]>([0, 64, 0, 0])];
            tensor<int32, [4]> var_837_end_0 = const()[name = tensor<string, []>("op_837_end_0"), val = tensor<int32, [4]>([2, 128, 1, 77])];
            tensor<bool, [4]> var_837_end_mask_0 = const()[name = tensor<string, []>("op_837_end_mask_0"), val = tensor<bool, [4]>([true, false, true, true])];
            tensor<fp16, [2, 64, 1, 77]> var_837_cast = slice_by_index(begin = var_837_begin_0, end = var_837_end_0, end_mask = var_837_end_mask_0, x = v_7_cast);
            tensor<int32, [4]> var_841_begin_0 = const()[name = tensor<string, []>("op_841_begin_0"), val = tensor<int32, [4]>([0, 128, 0, 0])];
            tensor<int32, [4]> var_841_end_0 = const()[name = tensor<string, []>("op_841_end_0"), val = tensor<int32, [4]>([2, 192, 1, 77])];
            tensor<bool, [4]> var_841_end_mask_0 = const()[name = tensor<string, []>("op_841_end_mask_0"), val = tensor<bool, [4]>([true, false, true, true])];
            tensor<fp16, [2, 64, 1, 77]> var_841_cast = slice_by_index(begin = var_841_begin_0, end = var_841_end_0, end_mask = var_841_end_mask_0, x = v_7_cast);
            tensor<int32, [4]> var_845_begin_0 = const()[name = tensor<string, []>("op_845_begin_0"), val = tensor<int32, [4]>([0, 192, 0, 0])];
            tensor<int32, [4]> var_845_end_0 = const()[name = tensor<string, []>("op_845_end_0"), val = tensor<int32, [4]>([2, 256, 1, 77])];
            tensor<bool, [4]> var_845_end_mask_0 = const()[name = tensor<string, []>("op_845_end_mask_0"), val = tensor<bool, [4]>([true, false, true, true])];
            tensor<fp16, [2, 64, 1, 77]> var_845_cast = slice_by_index(begin = var_845_begin_0, end = var_845_end_0, end_mask = var_845_end_mask_0, x = v_7_cast);
            tensor<int32, [4]> var_849_begin_0 = const()[name = tensor<string, []>("op_849_begin_0"), val = tensor<int32, [4]>([0, 256, 0, 0])];
            tensor<int32, [4]> var_849_end_0 = const()[name = tensor<string, []>("op_849_end_0"), val = tensor<int32, [4]>([2, 320, 1, 77])];
            tensor<bool, [4]> var_849_end_mask_0 = const()[name = tensor<string, []>("op_849_end_mask_0"), val = tensor<bool, [4]>([true, false, true, true])];
            tensor<fp16, [2, 64, 1, 77]> var_849_cast = slice_by_index(begin = var_849_begin_0, end = var_849_end_0, end_mask = var_849_end_mask_0, x = v_7_cast);
            tensor<string, []> var_853_equation_0 = const()[name = tensor<string, []>("op_853_equation_0"), val = tensor<string, []>("bkhc,bchq->bkhq")];
            tensor<fp16, [2, 77, 1, 4096]> var_853_cast = einsum(equation = var_853_equation_0, values = (var_815_cast, var_792_cast));
            tensor<fp16, []> var_854_to_fp16 = const()[name = tensor<string, []>("op_854_to_fp16"), val = tensor<fp16, []>(0x1p-3)];
            tensor<fp16, [2, 77, 1, 4096]> aw_31_cast = mul(x = var_853_cast, y = var_854_to_fp16);
            tensor<string, []> var_857_equation_0 = const()[name = tensor<string, []>("op_857_equation_0"), val = tensor<string, []>("bkhc,bchq->bkhq")];
            tensor<fp16, [2, 77, 1, 4096]> var_857_cast = einsum(equation = var_857_equation_0, values = (var_819_cast, var_796_cast));
            tensor<fp16, []> var_858_to_fp16 = const()[name = tensor<string, []>("op_858_to_fp16"), val = tensor<fp16, []>(0x1p-3)];
            tensor<fp16, [2, 77, 1, 4096]> aw_33_cast = mul(x = var_857_cast, y = var_858_to_fp16);
            tensor<string, []> var_861_equation_0 = const()[name = tensor<string, []>("op_861_equation_0"), val = tensor<string, []>("bkhc,bchq->bkhq")];
            tensor<fp16, [2, 77, 1, 4096]> var_861_cast = einsum(equation = var_861_equation_0, values = (var_823_cast, var_800_cast));
            tensor<fp16, []> var_862_to_fp16 = const()[name = tensor<string, []>("op_862_to_fp16"), val = tensor<fp16, []>(0x1p-3)];
            tensor<fp16, [2, 77, 1, 4096]> aw_35_cast = mul(x = var_861_cast, y = var_862_to_fp16);
            tensor<string, []> var_865_equation_0 = const()[name = tensor<string, []>("op_865_equation_0"), val = tensor<string, []>("bkhc,bchq->bkhq")];
            tensor<fp16, [2, 77, 1, 4096]> var_865_cast = einsum(equation = var_865_equation_0, values = (var_827_cast, var_804_cast));
            tensor<fp16, []> var_866_to_fp16 = const()[name = tensor<string, []>("op_866_to_fp16"), val = tensor<fp16, []>(0x1p-3)];
            tensor<fp16, [2, 77, 1, 4096]> aw_37_cast = mul(x = var_865_cast, y = var_866_to_fp16);
            tensor<string, []> var_869_equation_0 = const()[name = tensor<string, []>("op_869_equation_0"), val = tensor<string, []>("bkhc,bchq->bkhq")];
            tensor<fp16, [2, 77, 1, 4096]> var_869_cast = einsum(equation = var_869_equation_0, values = (var_831_cast, var_808_cast));
            tensor<fp16, []> var_870_to_fp16 = const()[name = tensor<string, []>("op_870_to_fp16"), val = tensor<fp16, []>(0x1p-3)];
            tensor<fp16, [2, 77, 1, 4096]> aw_39_cast = mul(x = var_869_cast, y = var_870_to_fp16);
            tensor<fp16, [2, 77, 1, 4096]> var_872_cast = softmax(axis = var_112, x = aw_31_cast);
            tensor<fp16, [2, 77, 1, 4096]> var_873_cast = softmax(axis = var_112, x = aw_33_cast);
            tensor<fp16, [2, 77, 1, 4096]> var_874_cast = softmax(axis = var_112, x = aw_35_cast);
            tensor<fp16, [2, 77, 1, 4096]> var_875_cast = softmax(axis = var_112, x = aw_37_cast);
            tensor<fp16, [2, 77, 1, 4096]> var_876_cast = softmax(axis = var_112, x = aw_39_cast);
            tensor<string, []> var_878_equation_0 = const()[name = tensor<string, []>("op_878_equation_0"), val = tensor<string, []>("bchk,bkhq->bchq")];
            tensor<fp16, [2, 64, 1, 4096]> var_878_cast = einsum(equation = var_878_equation_0, values = (var_833_cast, var_872_cast));
            tensor<string, []> var_880_equation_0 = const()[name = tensor<string, []>("op_880_equation_0"), val = tensor<string, []>("bchk,bkhq->bchq")];
            tensor<fp16, [2, 64, 1, 4096]> var_880_cast = einsum(equation = var_880_equation_0, values = (var_837_cast, var_873_cast));
            tensor<string, []> var_882_equation_0 = const()[name = tensor<string, []>("op_882_equation_0"), val = tensor<string, []>("bchk,bkhq->bchq")];
            tensor<fp16, [2, 64, 1, 4096]> var_882_cast = einsum(equation = var_882_equation_0, values = (var_841_cast, var_874_cast));
            tensor<string, []> var_884_equation_0 = const()[name = tensor<string, []>("op_884_equation_0"), val = tensor<string, []>("bchk,bkhq->bchq")];
            tensor<fp16, [2, 64, 1, 4096]> var_884_cast = einsum(equation = var_884_equation_0, values = (var_845_cast, var_875_cast));
            tensor<string, []> var_886_equation_0 = const()[name = tensor<string, []>("op_886_equation_0"), val = tensor<string, []>("bchk,bkhq->bchq")];
            tensor<fp16, [2, 64, 1, 4096]> var_886_cast = einsum(equation = var_886_equation_0, values = (var_849_cast, var_876_cast));
            tensor<bool, []> input_53_interleave_0 = const()[name = tensor<string, []>("input_53_interleave_0"), val = tensor<bool, []>(false)];
            tensor<fp16, [2, 320, 1, 4096]> input_53_cast = concat(axis = var_112, interleave = input_53_interleave_0, values = (var_878_cast, var_880_cast, var_882_cast, var_884_cast, var_886_cast));
            tensor<int32, [2]> var_892 = const()[name = tensor<string, []>("op_892"), val = tensor<int32, [2]>([1, 1])];
            tensor<int32, [2]> var_894 = const()[name = tensor<string, []>("op_894"), val = tensor<int32, [2]>([1, 1])];
            tensor<string, []> var_896_pad_type_0 = const()[name = tensor<string, []>("op_896_pad_type_0"), val = tensor<string, []>("custom")];
            tensor<int32, [4]> var_896_pad_0 = const()[name = tensor<string, []>("op_896_pad_0"), val = tensor<int32, [4]>([0, 0, 0, 0])];
            tensor<fp16, [320, 320, 1, 1]> down_blocks_0_attentions_1_transformer_blocks_0_attn2_to_out_0_weight_to_fp16 = const()[name = tensor<string, []>("down_blocks_0_attentions_1_transformer_blocks_0_attn2_to_out_0_weight_to_fp16"), val = tensor<fp16, [320, 320, 1, 1]>(BLOBFILE(path = tensor<string, []>("@model_path/weights/weight.bin"), offset = tensor<uint64, []>(21123008)))];
            tensor<fp16, [320]> down_blocks_0_attentions_1_transformer_blocks_0_attn2_to_out_0_bias_to_fp16 = const()[name = tensor<string, []>("down_blocks_0_attentions_1_transformer_blocks_0_attn2_to_out_0_bias_to_fp16"), val = tensor<fp16, [320]>(BLOBFILE(path = tensor<string, []>("@model_path/weights/weight.bin"), offset = tensor<uint64, []>(21327872)))];
            tensor<fp16, [2, 320, 1, 4096]> var_896_cast = conv(bias = down_blocks_0_attentions_1_transformer_blocks_0_attn2_to_out_0_bias_to_fp16, dilations = var_894, groups = var_112, pad = var_896_pad_0, pad_type = var_896_pad_type_0, strides = var_892, weight = down_blocks_0_attentions_1_transformer_blocks_0_attn2_to_out_0_weight_to_fp16, x = input_53_cast);
            tensor<fp16, [2, 320, 1, 4096]> inputs_11_cast = add(x = var_896_cast, y = inputs_9_cast);
            tensor<int32, [1]> var_900 = const()[name = tensor<string, []>("op_900"), val = tensor<int32, [1]>([1])];
            tensor<fp16, [2, 1, 1, 4096]> channels_mean_11_cast = reduce_mean(axes = var_900, keep_dims = var_107, x = inputs_11_cast);
            tensor<fp16, [2, 320, 1, 4096]> zero_mean_11_cast = sub(x = inputs_11_cast, y = channels_mean_11_cast);
            tensor<fp16, [2, 320, 1, 4096]> zero_mean_sq_11_cast = mul(x = zero_mean_11_cast, y = zero_mean_11_cast);
            tensor<int32, [1]> var_904 = const()[name = tensor<string, []>("op_904"), val = tensor<int32, [1]>([1])];
            tensor<fp16, [2, 1, 1, 4096]> var_905_cast = reduce_mean(axes = var_904, keep_dims = var_107, x = zero_mean_sq_11_cast);
            tensor<fp16, []> var_906_to_fp16 = const()[name = tensor<string, []>("op_906_to_fp16"), val = tensor<fp16, []>(0x1.5p-17)];
            tensor<fp16, [2, 1, 1, 4096]> var_907_cast = add(x = var_905_cast, y = var_906_to_fp16);
            tensor<fp16, []> denom_11_epsilon_0_to_fp16 = const()[name = tensor<string, []>("denom_11_epsilon_0_to_fp16"), val = tensor<fp16, []>(0x1p-24)];
            tensor<fp16, [2, 1, 1, 4096]> denom_11_cast = rsqrt(epsilon = denom_11_epsilon_0_to_fp16, x = var_907_cast);
            tensor<fp16, [2, 320, 1, 4096]> out_11_cast = mul(x = zero_mean_11_cast, y = denom_11_cast);
            tensor<fp16, [1, 320, 1, 1]> var_911_to_fp16 = const()[name = tensor<string, []>("op_911_to_fp16"), val = tensor<fp16, [1, 320, 1, 1]>(BLOBFILE(path = tensor<string, []>("@model_path/weights/weight.bin"), offset = tensor<uint64, []>(21328576)))];
            tensor<fp16, [2, 320, 1, 4096]> var_912_cast = add(x = out_11_cast, y = var_911_to_fp16);
            tensor<fp16, [1, 320, 1, 1]> var_914_to_fp16 = const()[name = tensor<string, []>("op_914_to_fp16"), val = tensor<fp16, [1, 320, 1, 1]>(BLOBFILE(path = tensor<string, []>("@model_path/weights/weight.bin"), offset = tensor<uint64, []>(21329280)))];
            tensor<fp16, [2, 320, 1, 4096]> input_55_cast = mul(x = var_912_cast, y = var_914_to_fp16);
            tensor<int32, [2]> var_922 = const()[name = tensor<string, []>("op_922"), val = tensor<int32, [2]>([1, 1])];
            tensor<int32, [2]> var_924 = const()[name = tensor<string, []>("op_924"), val = tensor<int32, [2]>([1, 1])];
            tensor<string, []> var_926_pad_type_0 = const()[name = tensor<string, []>("op_926_pad_type_0"), val = tensor<string, []>("custom")];
            tensor<int32, [4]> var_926_pad_0 = const()[name = tensor<string, []>("op_926_pad_0"), val = tensor<int32, [4]>([0, 0, 0, 0])];
            tensor<fp16, [2560, 320, 1, 1]> down_blocks_0_attentions_1_transformer_blocks_0_ff_net_0_proj_weight_to_fp16 = const()[name = tensor<string, []>("down_blocks_0_attentions_1_transformer_blocks_0_ff_net_0_proj_weight_to_fp16"), val = tensor<fp16, [2560, 320, 1, 1]>(BLOBFILE(path = tensor<string, []>("@model_path/weights/weight.bin"), offset = tensor<uint64, []>(21329984)))];
            tensor<fp16, [2560]> down_blocks_0_attentions_1_transformer_blocks_0_ff_net_0_proj_bias_to_fp16 = const()[name = tensor<string, []>("down_blocks_0_attentions_1_transformer_blocks_0_ff_net_0_proj_bias_to_fp16"), val = tensor<fp16, [2560]>(BLOBFILE(path = tensor<string, []>("@model_path/weights/weight.bin"), offset = tensor<uint64, []>(22968448)))];
            tensor<fp16, [2, 2560, 1, 4096]> var_926_cast = conv(bias = down_blocks_0_attentions_1_transformer_blocks_0_ff_net_0_proj_bias_to_fp16, dilations = var_924, groups = var_112, pad = var_926_pad_0, pad_type = var_926_pad_type_0, strides = var_922, weight = down_blocks_0_attentions_1_transformer_blocks_0_ff_net_0_proj_weight_to_fp16, x = input_55_cast);
            tensor<int32, [2]> var_927_split_sizes_0 = const()[name = tensor<string, []>("op_927_split_sizes_0"), val = tensor<int32, [2]>([1280, 1280])];
            tensor<int32, []> var_927_axis_0 = const()[name = tensor<string, []>("op_927_axis_0"), val = tensor<int32, []>(1)];
            tensor<fp16, [2, 1280, 1, 4096]> var_927_cast_0, tensor<fp16, [2, 1280, 1, 4096]> var_927_cast_1 = split(axis = var_927_axis_0, split_sizes = var_927_split_sizes_0, x = var_926_cast);
            tensor<string, []> var_929_mode_0 = const()[name = tensor<string, []>("op_929_mode_0"), val = tensor<string, []>("EXACT")];
            tensor<fp16, [2, 1280, 1, 4096]> var_929_cast = gelu(mode = var_929_mode_0, x = var_927_cast_1);
            tensor<fp16, [2, 1280, 1, 4096]> input_57_cast = mul(x = var_927_cast_0, y = var_929_cast);
            tensor<int32, [2]> var_933 = const()[name = tensor<string, []>("op_933"), val = tensor<int32, [2]>([1, 1])];
            tensor<int32, [2]> var_935 = const()[name = tensor<string, []>("op_935"), val = tensor<int32, [2]>([1, 1])];
            tensor<string, []> var_937_pad_type_0 = const()[name = tensor<string, []>("op_937_pad_type_0"), val = tensor<string, []>("custom")];
            tensor<int32, [4]> var_937_pad_0 = const()[name = tensor<string, []>("op_937_pad_0"), val = tensor<int32, [4]>([0, 0, 0, 0])];
            tensor<fp16, [320, 1280, 1, 1]> down_blocks_0_attentions_1_transformer_blocks_0_ff_net_2_weight_to_fp16 = const()[name = tensor<string, []>("down_blocks_0_attentions_1_transformer_blocks_0_ff_net_2_weight_to_fp16"), val = tensor<fp16, [320, 1280, 1, 1]>(BLOBFILE(path = tensor<string, []>("@model_path/weights/weight.bin"), offset = tensor<uint64, []>(22973632)))];
            tensor<fp16, [320]> down_blocks_0_attentions_1_transformer_blocks_0_ff_net_2_bias_to_fp16 = const()[name = tensor<string, []>("down_blocks_0_attentions_1_transformer_blocks_0_ff_net_2_bias_to_fp16"), val = tensor<fp16, [320]>(BLOBFILE(path = tensor<string, []>("@model_path/weights/weight.bin"), offset = tensor<uint64, []>(23792896)))];
            tensor<fp16, [2, 320, 1, 4096]> var_937_cast = conv(bias = down_blocks_0_attentions_1_transformer_blocks_0_ff_net_2_bias_to_fp16, dilations = var_935, groups = var_112, pad = var_937_pad_0, pad_type = var_937_pad_type_0, strides = var_933, weight = down_blocks_0_attentions_1_transformer_blocks_0_ff_net_2_weight_to_fp16, x = input_57_cast);
            tensor<fp16, [2, 320, 1, 4096]> hidden_states_33_cast = add(x = var_937_cast, y = inputs_11_cast);
            tensor<int32, [4]> var_939 = const()[name = tensor<string, []>("op_939"), val = tensor<int32, [4]>([2, 320, 64, 64])];
            tensor<fp16, [2, 320, 64, 64]> input_59_cast = reshape(shape = var_939, x = hidden_states_33_cast);
            tensor<int32, [2]> var_943 = const()[name = tensor<string, []>("op_943"), val = tensor<int32, [2]>([1, 1])];
            tensor<int32, [2]> var_945 = const()[name = tensor<string, []>("op_945"), val = tensor<int32, [2]>([1, 1])];
            tensor<string, []> hidden_states_35_pad_type_0 = const()[name = tensor<string, []>("hidden_states_35_pad_type_0"), val = tensor<string, []>("custom")];
            tensor<int32, [4]> hidden_states_35_pad_0 = const()[name = tensor<string, []>("hidden_states_35_pad_0"), val = tensor<int32, [4]>([0, 0, 0, 0])];
            tensor<fp16, [320, 320, 1, 1]> down_blocks_0_attentions_1_proj_out_weight_to_fp16 = const()[name = tensor<string, []>("down_blocks_0_attentions_1_proj_out_weight_to_fp16"), val = tensor<fp16, [320, 320, 1, 1]>(BLOBFILE(path = tensor<string, []>("@model_path/weights/weight.bin"), offset = tensor<uint64, []>(23793600)))];
            tensor<fp16, [320]> down_blocks_0_attentions_1_proj_out_bias_to_fp16 = const()[name = tensor<string, []>("down_blocks_0_attentions_1_proj_out_bias_to_fp16"), val = tensor<fp16, [320]>(BLOBFILE(path = tensor<string, []>("@model_path/weights/weight.bin"), offset = tensor<uint64, []>(23998464)))];
            tensor<fp16, [2, 320, 64, 64]> hidden_states_35_cast = conv(bias = down_blocks_0_attentions_1_proj_out_bias_to_fp16, dilations = var_945, groups = var_112, pad = hidden_states_35_pad_0, pad_type = hidden_states_35_pad_type_0, strides = var_943, weight = down_blocks_0_attentions_1_proj_out_weight_to_fp16, x = input_59_cast);
            tensor<fp16, [2, 320, 64, 64]> input_61_cast_1 = add(x = hidden_states_35_cast, y = hidden_states_23_cast);
            tensor<int32, [2]> var_952 = const()[name = tensor<string, []>("op_952"), val = tensor<int32, [2]>([2, 2])];
            tensor<int32, [2]> var_954 = const()[name = tensor<string, []>("op_954"), val = tensor<int32, [2]>([1, 1])];
            tensor<string, []> input_63_pad_type_0 = const()[name = tensor<string, []>("input_63_pad_type_0"), val = tensor<string, []>("custom")];
            tensor<int32, [4]> input_63_pad_0 = const()[name = tensor<string, []>("input_63_pad_0"), val = tensor<int32, [4]>([1, 1, 1, 1])];
            tensor<fp16, [320, 320, 3, 3]> down_blocks_0_downsamplers_0_conv_weight_to_fp16 = const()[name = tensor<string, []>("down_blocks_0_downsamplers_0_conv_weight_to_fp16"), val = tensor<fp16, [320, 320, 3, 3]>(BLOBFILE(path = tensor<string, []>("@model_path/weights/weight.bin"), offset = tensor<uint64, []>(23999168)))];
            tensor<fp16, [320]> down_blocks_0_downsamplers_0_conv_bias_to_fp16 = const()[name = tensor<string, []>("down_blocks_0_downsamplers_0_conv_bias_to_fp16"), val = tensor<fp16, [320]>(BLOBFILE(path = tensor<string, []>("@model_path/weights/weight.bin"), offset = tensor<uint64, []>(25842432)))];
            tensor<fp16, [2, 320, 32, 32]> input_63_cast_1 = conv(bias = down_blocks_0_downsamplers_0_conv_bias_to_fp16, dilations = var_954, groups = var_112, pad = input_63_pad_0, pad_type = input_63_pad_type_0, strides = var_952, weight = down_blocks_0_downsamplers_0_conv_weight_to_fp16, x = input_61_cast_1);
            tensor<bool, []> var_979 = const()[name = tensor<string, []>("op_979"), val = tensor<bool, []>(true)];
            tensor<int32, []> var_984 = const()[name = tensor<string, []>("op_984"), val = tensor<int32, []>(1)];
            tensor<int32, [5]> reshape_24_shape_0 = const()[name = tensor<string, []>("reshape_24_shape_0"), val = tensor<int32, [5]>([2, 32, 10, 32, 32])];
            tensor<fp16, [2, 32, 10, 32, 32]> reshape_24_cast = reshape(shape = reshape_24_shape_0, x = input_63_cast_1);
            tensor<int32, [3]> reduce_mean_18_axes_0 = const()[name = tensor<string, []>("reduce_mean_18_axes_0"), val = tensor<int32, [3]>([2, 3, 4])];
            tensor<bool, []> reduce_mean_18_keep_dims_0 = const()[name = tensor<string, []>("reduce_mean_18_keep_dims_0"), val = tensor<bool, []>(true)];
            tensor<fp16, [2, 32, 1, 1, 1]> reduce_mean_18_cast = reduce_mean(axes = reduce_mean_18_axes_0, keep_dims = reduce_mean_18_keep_dims_0, x = reshape_24_cast);
            tensor<fp16, [2, 32, 10, 32, 32]> sub_12_cast = sub(x = reshape_24_cast, y = reduce_mean_18_cast);
            tensor<fp16, [2, 32, 10, 32, 32]> square_6_cast = square(x = sub_12_cast);
            tensor<int32, [3]> reduce_mean_20_axes_0 = const()[name = tensor<string, []>("reduce_mean_20_axes_0"), val = tensor<int32, [3]>([2, 3, 4])];
            tensor<bool, []> reduce_mean_20_keep_dims_0 = const()[name = tensor<string, []>("reduce_mean_20_keep_dims_0"), val = tensor<bool, []>(true)];
            tensor<fp16, [2, 32, 1, 1, 1]> reduce_mean_20_cast = reduce_mean(axes = reduce_mean_20_axes_0, keep_dims = reduce_mean_20_keep_dims_0, x = square_6_cast);
            tensor<fp16, []> add_12_y_0_to_fp16 = const()[name = tensor<string, []>("add_12_y_0_to_fp16"), val = tensor<fp16, []>(0x1.5p-17)];
            tensor<fp16, [2, 32, 1, 1, 1]> add_12_cast = add(x = reduce_mean_20_cast, y = add_12_y_0_to_fp16);
            tensor<fp16, [2, 32, 1, 1, 1]> sqrt_6_cast = sqrt(x = add_12_cast);
            tensor<fp16, [2, 32, 10, 32, 32]> real_div_6_cast = real_div(x = sub_12_cast, y = sqrt_6_cast);
            tensor<int32, [4]> reshape_25_shape_0 = const()[name = tensor<string, []>("reshape_25_shape_0"), val = tensor<int32, [4]>([2, 320, 32, 32])];
            tensor<fp16, [2, 320, 32, 32]> reshape_25_cast = reshape(shape = reshape_25_shape_0, x = real_div_6_cast);
            tensor<fp16, [320]> add_13_mean_0_to_fp16 = const()[name = tensor<string, []>("add_13_mean_0_to_fp16"), val = tensor<fp16, [320]>(BLOBFILE(path = tensor<string, []>("@model_path/weights/weight.bin"), offset = tensor<uint64, []>(25843136)))];
            tensor<fp16, [320]> add_13_variance_0_to_fp16 = const()[name = tensor<string, []>("add_13_variance_0_to_fp16"), val = tensor<fp16, [320]>(BLOBFILE(path = tensor<string, []>("@model_path/weights/weight.bin"), offset = tensor<uint64, []>(25843840)))];
…
            tensor<fp16, [2, 1280, 1, 64]> zero_mean_sq_41_cast = mul(x = zero_mean_41_cast, y = zero_mean_41_cast);
            tensor<int32, [1]> var_5316 = const()[name = tensor<string, []>("op_5316"), val = tensor<int32, [1]>([1])];
            tensor<fp16, [2, 1, 1, 64]> var_5317_cast = reduce_mean(axes = var_5316, keep_dims = var_4366, x = zero_mean_sq_41_cast);
            tensor<fp16, []> var_5318_to_fp16 = const()[name = tensor<string, []>("op_5318_to_fp16"), val = tensor<fp16, []>(0x1.5p-17)];
            tensor<fp16, [2, 1, 1, 64]> var_5319_cast = add(x = var_5317_cast, y = var_5318_to_fp16);
            tensor<fp16, []> denom_41_epsilon_0_to_fp16 = const()[name = tensor<string, []>("denom_41_epsilon_0_to_fp16"), val = tensor<fp16, []>(0x1p-24)];
            tensor<fp16, [2, 1, 1, 64]> denom_41_cast = rsqrt(epsilon = denom_41_epsilon_0_to_fp16, x = var_5319_cast);
            tensor<fp16, [2, 1280, 1, 64]> out_41_cast = mul(x = zero_mean_41_cast, y = denom_41_cast);
            tensor<fp16, [1, 1280, 1, 1]> var_5323_to_fp16 = const()[name = tensor<string, []>("op_5323_to_fp16"), val = tensor<fp16, [1, 1280, 1, 1]>(BLOBFILE(path = tensor<string, []>("@model_path/weights/weight.bin"), offset = tensor<uint64, []>(598525248)))];
            tensor<fp16, [2, 1280, 1, 64]> var_5324_cast = add(x = out_41_cast, y = var_5323_to_fp16);
            tensor<fp16, [1, 1280, 1, 1]> var_5326_to_fp16 = const()[name = tensor<string, []>("op_5326_to_fp16"), val = tensor<fp16, [1, 1280, 1, 1]>(BLOBFILE(path = tensor<string, []>("@model_path/weights/weight.bin"), offset = tensor<uint64, []>(598527872)))];
            tensor<fp16, [2, 1280, 1, 64]> input_219_cast = mul(x = var_5324_cast, y = var_5326_to_fp16);
            tensor<int32, [2]> var_5334 = const()[name = tensor<string, []>("op_5334"), val = tensor<int32, [2]>([1, 1])];
            tensor<int32, [2]> var_5336 = const()[name = tensor<string, []>("op_5336"), val = tensor<int32, [2]>([1, 1])];
            tensor<string, []> var_5338_pad_type_0 = const()[name = tensor<string, []>("op_5338_pad_type_0"), val = tensor<string, []>("custom")];
            tensor<int32, [4]> var_5338_pad_0 = const()[name = tensor<string, []>("op_5338_pad_0"), val = tensor<int32, [4]>([0, 0, 0, 0])];
            tensor<fp16, [10240, 1280, 1, 1]> mid_block_attentions_0_transformer_blocks_0_ff_net_0_proj_weight_to_fp16 = const()[name = tensor<string, []>("mid_block_attentions_0_transformer_blocks_0_ff_net_0_proj_weight_to_fp16"), val = tensor<fp16, [10240, 1280, 1, 1]>(BLOBFILE(path = tensor<string, []>("@model_path/weights/weight.bin"), offset = tensor<uint64, []>(598530496)))];
            tensor<fp16, [10240]> mid_block_attentions_0_transformer_blocks_0_ff_net_0_proj_bias_to_fp16 = const()[name = tensor<string, []>("mid_block_attentions_0_transformer_blocks_0_ff_net_0_proj_bias_to_fp16"), val = tensor<fp16, [10240]>(BLOBFILE(path = tensor<string, []>("@model_path/weights/weight.bin"), offset = tensor<uint64, []>(624744960)))];
            tensor<fp16, [2, 10240, 1, 64]> var_5338_cast = conv(bias = mid_block_attentions_0_transformer_blocks_0_ff_net_0_proj_bias_to_fp16, dilations = var_5336, groups = var_4371, pad = var_5338_pad_0, pad_type = var_5338_pad_type_0, strides = var_5334, weight = mid_block_attentions_0_transformer_blocks_0_ff_net_0_proj_weight_to_fp16, x = input_219_cast);
            tensor<int32, [2]> var_5339_split_sizes_0 = const()[name = tensor<string, []>("op_5339_split_sizes_0"), val = tensor<int32, [2]>([5120, 5120])];
            tensor<int32, []> var_5339_axis_0 = const()[name = tensor<string, []>("op_5339_axis_0"), val = tensor<int32, []>(1)];
            tensor<fp16, [2, 5120, 1, 64]> var_5339_cast_0, tensor<fp16, [2, 5120, 1, 64]> var_5339_cast_1 = split(axis = var_5339_axis_0, split_sizes = var_5339_split_sizes_0, x = var_5338_cast);
            tensor<string, []> var_5341_mode_0 = const()[name = tensor<string, []>("op_5341_mode_0"), val = tensor<string, []>("EXACT")];
            tensor<fp16, [2, 5120, 1, 64]> var_5341_cast = gelu(mode = var_5341_mode_0, x = var_5339_cast_1);
            tensor<fp16, [2, 5120, 1, 64]> input_221_cast = mul(x = var_5339_cast_0, y = var_5341_cast);
            tensor<int32, [2]> var_5345 = const()[name = tensor<string, []>("op_5345"), val = tensor<int32, [2]>([1, 1])];
            tensor<int32, [2]> var_5347 = const()[name = tensor<string, []>("op_5347"), val = tensor<int32, [2]>([1, 1])];
            tensor<string, []> var_5349_pad_type_0 = const()[name = tensor<string, []>("op_5349_pad_type_0"), val = tensor<string, []>("custom")];
            tensor<int32, [4]> var_5349_pad_0 = const()[name = tensor<string, []>("op_5349_pad_0"), val = tensor<int32, [4]>([0, 0, 0, 0])];
            tensor<fp16, [1280, 5120, 1, 1]> mid_block_attentions_0_transformer_blocks_0_ff_net_2_weight_to_fp16 = const()[name = tensor<string, []>("mid_block_attentions_0_transformer_blocks_0_ff_net_2_weight_to_fp16"), val = tensor<fp16, [1280, 5120, 1, 1]>(BLOBFILE(path = tensor<string, []>("@model_path/weights/weight.bin"), offset = tensor<uint64, []>(624765504)))];
            tensor<fp16, [1280]> mid_block_attentions_0_transformer_blocks_0_ff_net_2_bias_to_fp16 = const()[name = tensor<string, []>("mid_block_attentions_0_transformer_blocks_0_ff_net_2_bias_to_fp16"), val = tensor<fp16, [1280]>(BLOBFILE(path = tensor<string, []>("@model_path/weights/weight.bin"), offset = tensor<uint64, []>(637872768)))];
            tensor<fp16, [2, 1280, 1, 64]> var_5349_cast = conv(bias = mid_block_attentions_0_transformer_blocks_0_ff_net_2_bias_to_fp16, dilations = var_5347, groups = var_4371, pad = var_5349_pad_0, pad_type = var_5349_pad_type_0, strides = var_5345, weight = mid_block_attentions_0_transformer_blocks_0_ff_net_2_weight_to_fp16, x = input_221_cast);
            tensor<fp16, [2, 1280, 1, 64]> hidden_states_131_cast = add(x = var_5349_cast, y = inputs_41_cast);
            tensor<int32, [4]> var_5351 = const()[name = tensor<string, []>("op_5351"), val = tensor<int32, [4]>([2, 1280, 8, 8])];
            tensor<fp16, [2, 1280, 8, 8]> input_223_cast = reshape(shape = var_5351, x = hidden_states_131_cast);
            tensor<int32, [2]> var_5355 = const()[name = tensor<string, []>("op_5355"), val = tensor<int32, [2]>([1, 1])];
            tensor<int32, [2]> var_5357 = const()[name = tensor<string, []>("op_5357"), val = tensor<int32, [2]>([1, 1])];
            tensor<string, []> hidden_states_133_pad_type_0 = const()[name = tensor<string, []>("hidden_states_133_pad_type_0"), val = tensor<string, []>("custom")];
            tensor<int32, [4]> hidden_states_133_pad_0 = const()[name = tensor<string, []>("hidden_states_133_pad_0"), val = tensor<int32, [4]>([0, 0, 0, 0])];
            tensor<fp16, [1280, 1280, 1, 1]> mid_block_attentions_0_proj_out_weight_to_fp16 = const()[name = tensor<string, []>("mid_block_attentions_0_proj_out_weight_to_fp16"), val = tensor<fp16, [1280, 1280, 1, 1]>(BLOBFILE(path = tensor<string, []>("@model_path/weights/weight.bin"), offset = tensor<uint64, []>(637875392)))];
            tensor<fp16, [1280]> mid_block_attentions_0_proj_out_bias_to_fp16 = const()[name = tensor<string, []>("mid_block_attentions_0_proj_out_bias_to_fp16"), val = tensor<fp16, [1280]>(BLOBFILE(path = tensor<string, []>("@model_path/weights/weight.bin"), offset = tensor<uint64, []>(641152256)))];
            tensor<fp16, [2, 1280, 8, 8]> hidden_states_133_cast = conv(bias = mid_block_attentions_0_proj_out_bias_to_fp16, dilations = var_5357, groups = var_4371, pad = hidden_states_133_pad_0, pad_type = hidden_states_133_pad_type_0, strides = var_5355, weight = mid_block_attentions_0_proj_out_weight_to_fp16, x = input_223_cast);
            tensor<fp16, [2, 1280, 8, 8]> input_225_cast = add(x = hidden_states_133_cast, y = hidden_states_121_cast);
            tensor<int32, [5]> reshape_100_shape_0 = const()[name = tensor<string, []>("reshape_100_shape_0"), val = tensor<int32, [5]>([2, 32, 40, 8, 8])];
            tensor<fp16, [2, 32, 40, 8, 8]> reshape_100_cast = reshape(shape = reshape_100_shape_0, x = input_225_cast);
            tensor<int32, [3]> reduce_mean_75_axes_0 = const()[name = tensor<string, []>("reduce_mean_75_axes_0"), val = tensor<int32, [3]>([2, 3, 4])];
            tensor<bool, []> reduce_mean_75_keep_dims_0 = const()[name = tensor<string, []>("reduce_mean_75_keep_dims_0"), val = tensor<bool, []>(true)];
            tensor<fp16, [2, 32, 1, 1, 1]> reduce_mean_75_cast = reduce_mean(axes = reduce_mean_75_axes_0, keep_dims = reduce_mean_75_keep_dims_0, x = reshape_100_cast);
            tensor<fp16, [2, 32, 40, 8, 8]> sub_50_cast = sub(x = reshape_100_cast, y = reduce_mean_75_cast);
            tensor<fp16, [2, 32, 40, 8, 8]> square_25_cast = square(x = sub_50_cast);
            tensor<int32, [3]> reduce_mean_77_axes_0 = const()[name = tensor<string, []>("reduce_mean_77_axes_0"), val = tensor<int32, [3]>([2, 3, 4])];
            tensor<bool, []> reduce_mean_77_keep_dims_0 = const()[name = tensor<string, []>("reduce_mean_77_keep_dims_0"), val = tensor<bool, []>(true)];
            tensor<fp16, [2, 32, 1, 1, 1]> reduce_mean_77_cast = reduce_mean(axes = reduce_mean_77_axes_0, keep_dims = reduce_mean_77_keep_dims_0, x = square_25_cast);
            tensor<fp16, []> add_50_y_0_to_fp16 = const()[name = tensor<string, []>("add_50_y_0_to_fp16"), val = tensor<fp16, []>(0x1.5p-17)];
            tensor<fp16, [2, 32, 1, 1, 1]> add_50_cast = add(x = reduce_mean_77_cast, y = add_50_y_0_to_fp16);
            tensor<fp16, [2, 32, 1, 1, 1]> sqrt_25_cast = sqrt(x = add_50_cast);
            tensor<fp16, [2, 32, 40, 8, 8]> real_div_25_cast = real_div(x = sub_50_cast, y = sqrt_25_cast);
            tensor<int32, [4]> reshape_101_shape_0 = const()[name = tensor<string, []>("reshape_101_shape_0"), val = tensor<int32, [4]>([2, 1280, 8, 8])];
            tensor<fp16, [2, 1280, 8, 8]> reshape_101_cast = reshape(shape = reshape_101_shape_0, x = real_div_25_cast);
            tensor<fp16, [1280]> add_51_mean_0_to_fp16 = const()[name = tensor<string, []>("add_51_mean_0_to_fp16"), val = tensor<fp16, [1280]>(BLOBFILE(path = tensor<string, []>("@model_path/weights/weight.bin"), offset = tensor<uint64, []>(641154880)))];
            tensor<fp16, [1280]> add_51_variance_0_to_fp16 = const()[name = tensor<string, []>("add_51_variance_0_to_fp16"), val = tensor<fp16, [1280]>(BLOBFILE(path = tensor<string, []>("@model_path/weights/weight.bin"), offset = tensor<uint64, []>(641157504)))];
            tensor<fp16, [1280]> add_51_gamma_0_to_fp16 = const()[name = tensor<string, []>("add_51_gamma_0_to_fp16"), val = tensor<fp16, [1280]>(BLOBFILE(path = tensor<string, []>("@model_path/weights/weight.bin"), offset = tensor<uint64, []>(641160128)))];
            tensor<fp16, [1280]> add_51_beta_0_to_fp16 = const()[name = tensor<string, []>("add_51_beta_0_to_fp16"), val = tensor<fp16, [1280]>(BLOBFILE(path = tensor<string, []>("@model_path/weights/weight.bin"), offset = tensor<uint64, []>(641162752)))];
            tensor<fp16, []> add_51_epsilon_0_to_fp16 = const()[name = tensor<string, []>("add_51_epsilon_0_to_fp16"), val = tensor<fp16, []>(0x1.5p-17)];
            tensor<fp16, [2, 1280, 8, 8]> add_51_cast = batch_norm(beta = add_51_beta_0_to_fp16, epsilon = add_51_epsilon_0_to_fp16, gamma = add_51_gamma_0_to_fp16, mean = add_51_mean_0_to_fp16, variance = add_51_variance_0_to_fp16, x = reshape_101_cast);
            tensor<fp16, [2, 1280, 8, 8]> input_229_cast = silu(x = add_51_cast);
            tensor<int32, [2]> var_5372 = const()[name = tensor<string, []>("op_5372"), val = tensor<int32, [2]>([1, 1])];
            tensor<int32, [2]> var_5374 = const()[name = tensor<string, []>("op_5374"), val = tensor<int32, [2]>([1, 1])];
            tensor<string, []> hidden_states_135_pad_type_0 = const()[name = tensor<string, []>("hidden_states_135_pad_type_0"), val = tensor<string, []>("custom")];
            tensor<int32, [4]> hidden_states_135_pad_0 = const()[name = tensor<string, []>("hidden_states_135_pad_0"), val = tensor<int32, [4]>([1, 1, 1, 1])];
            tensor<fp16, [1280, 1280, 3, 3]> mid_block_resnets_1_conv1_weight_to_fp16 = const()[name = tensor<string, []>("mid_block_resnets_1_conv1_weight_to_fp16"), val = tensor<fp16, [1280, 1280, 3, 3]>(BLOBFILE(path = tensor<string, []>("@model_path/weights/weight.bin"), offset = tensor<uint64, []>(641165376)))];
            tensor<fp16, [1280]> mid_block_resnets_1_conv1_bias_to_fp16 = const()[name = tensor<string, []>("mid_block_resnets_1_conv1_bias_to_fp16"), val = tensor<fp16, [1280]>(BLOBFILE(path = tensor<string, []>("@model_path/weights/weight.bin"), offset = tensor<uint64, []>(670656640)))];
            tensor<fp16, [2, 1280, 8, 8]> hidden_states_135_cast = conv(bias = mid_block_resnets_1_conv1_bias_to_fp16, dilations = var_5374, groups = var_4371, pad = hidden_states_135_pad_0, pad_type = hidden_states_135_pad_type_0, strides = var_5372, weight = mid_block_resnets_1_conv1_weight_to_fp16, x = input_229_cast);
            tensor<int32, [2]> var_5380 = const()[name = tensor<string, []>("op_5380"), val = tensor<int32, [2]>([1, 1])];
            tensor<int32, [2]> var_5382 = const()[name = tensor<string, []>("op_5382"), val = tensor<int32, [2]>([1, 1])];
            tensor<string, []> temb_19_pad_type_0 = const()[name = tensor<string, []>("temb_19_pad_type_0"), val = tensor<string, []>("custom")];
            tensor<int32, [4]> temb_19_pad_0 = const()[name = tensor<string, []>("temb_19_pad_0"), val = tensor<int32, [4]>([0, 0, 0, 0])];
            tensor<fp16, [1280, 1280, 1, 1]> mid_block_resnets_1_time_emb_proj_weight_to_fp16 = const()[name = tensor<string, []>("mid_block_resnets_1_time_emb_proj_weight_to_fp16"), val = tensor<fp16, [1280, 1280, 1, 1]>(BLOBFILE(path = tensor<string, []>("@model_path/weights/weight.bin"), offset = tensor<uint64, []>(670659264)))];
            tensor<fp16, [1280]> mid_block_resnets_1_time_emb_proj_bias_to_fp16 = const()[name = tensor<string, []>("mid_block_resnets_1_time_emb_proj_bias_to_fp16"), val = tensor<fp16, [1280]>(BLOBFILE(path = tensor<string, []>("@model_path/weights/weight.bin"), offset = tensor<uint64, []>(673936128)))];
            tensor<fp16, [2, 1280, 1, 1]> temb_19_cast = conv(bias = mid_block_resnets_1_time_emb_proj_bias_to_fp16, dilations = var_5382, groups = var_4371, pad = temb_19_pad_0, pad_type = temb_19_pad_type_0, strides = var_5380, weight = mid_block_resnets_1_time_emb_proj_weight_to_fp16, x = input_15_cast_1);
            tensor<fp16, [2, 1280, 8, 8]> input_233_cast = add(x = hidden_states_135_cast, y = temb_19_cast);
            tensor<int32, [5]> reshape_104_shape_0 = const()[name = tensor<string, []>("reshape_104_shape_0"), val = tensor<int32, [5]>([2, 32, 40, 8, 8])];
            tensor<fp16, [2, 32, 40, 8, 8]> reshape_104_cast = reshape(shape = reshape_104_shape_0, x = input_233_cast);
            tensor<int32, [3]> reduce_mean_78_axes_0 = const()[name = tensor<string, []>("reduce_mean_78_axes_0"), val = tensor<int32, [3]>([2, 3, 4])];
            tensor<bool, []> reduce_mean_78_keep_dims_0 = const()[name = tensor<string, []>("reduce_mean_78_keep_dims_0"), val = tensor<bool, []>(true)];
            tensor<fp16, [2, 32, 1, 1, 1]> reduce_mean_78_cast = reduce_mean(axes = reduce_mean_78_axes_0, keep_dims = reduce_mean_78_keep_dims_0, x = reshape_104_cast);
            tensor<fp16, [2, 32, 40, 8, 8]> sub_52_cast = sub(x = reshape_104_cast, y = reduce_mean_78_cast);
            tensor<fp16, [2, 32, 40, 8, 8]> square_26_cast = square(x = sub_52_cast);
            tensor<int32, [3]> reduce_mean_80_axes_0 = const()[name = tensor<string, []>("reduce_mean_80_axes_0"), val = tensor<int32, [3]>([2, 3, 4])];
            tensor<bool, []> reduce_mean_80_keep_dims_0 = const()[name = tensor<string, []>("reduce_mean_80_keep_dims_0"), val = tensor<bool, []>(true)];
            tensor<fp16, [2, 32, 1, 1, 1]> reduce_mean_80_cast = reduce_mean(axes = reduce_mean_80_axes_0, keep_dims = reduce_mean_80_keep_dims_0, x = square_26_cast);
            tensor<fp16, []> add_52_y_0_to_fp16 = const()[name = tensor<string, []>("add_52_y_0_to_fp16"), val = tensor<fp16, []>(0x1.5p-17)];
            tensor<fp16, [2, 32, 1, 1, 1]> add_52_cast = add(x = reduce_mean_80_cast, y = add_52_y_0_to_fp16);
            tensor<fp16, [2, 32, 1, 1, 1]> sqrt_26_cast = sqrt(x = add_52_cast);
            tensor<fp16, [2, 32, 40, 8, 8]> real_div_26_cast = real_div(x = sub_52_cast, y = sqrt_26_cast);
            tensor<int32, [4]> reshape_105_shape_0 = const()[name = tensor<string, []>("reshape_105_shape_0"), val = tensor<int32, [4]>([2, 1280, 8, 8])];
            tensor<fp16, [2, 1280, 8, 8]> reshape_105_cast = reshape(shape = reshape_105_shape_0, x = real_div_26_cast);
            tensor<fp16, [1280]> add_53_mean_0_to_fp16 = const()[name = tensor<string, []>("add_53_mean_0_to_fp16"), val = tensor<fp16, [1280]>(BLOBFILE(path = tensor<string, []>("@model_path/weights/weight.bin"), offset = tensor<uint64, []>(673938752)))];
            tensor<fp16, [1280]> add_53_variance_0_to_fp16 = const()[name = tensor<string, []>("add_53_variance_0_to_fp16"), val = tensor<fp16, [1280]>(BLOBFILE(path = tensor<string, []>("@model_path/weights/weight.bin"), offset = tensor<uint64, []>(673941376)))];
            tensor<fp16, [1280]> add_53_gamma_0_to_fp16 = const()[name = tensor<string, []>("add_53_gamma_0_to_fp16"), val = tensor<fp16, [1280]>(BLOBFILE(path = tensor<string, []>("@model_path/weights/weight.bin"), offset = tensor<uint64, []>(673944000)))];
            tensor<fp16, [1280]> add_53_beta_0_to_fp16 = const()[name = tensor<string, []>("add_53_beta_0_to_fp16"), val = tensor<fp16, [1280]>(BLOBFILE(path = tensor<string, []>("@model_path/weights/weight.bin"), offset = tensor<uint64, []>(673946624)))];
            tensor<fp16, []> add_53_epsilon_0_to_fp16 = const()[name = tensor<string, []>("add_53_epsilon_0_to_fp16"), val = tensor<fp16, []>(0x1.5p-17)];
            tensor<fp16, [2, 1280, 8, 8]> add_53_cast = batch_norm(beta = add_53_beta_0_to_fp16, epsilon = add_53_epsilon_0_to_fp16, gamma = add_53_gamma_0_to_fp16, mean = add_53_mean_0_to_fp16, variance = add_53_variance_0_to_fp16, x = reshape_105_cast);
            tensor<fp16, [2, 1280, 8, 8]> input_237_cast = silu(x = add_53_cast);
            tensor<int32, [2]> var_5392 = const()[name = tensor<string, []>("op_5392"), val = tensor<int32, [2]>([1, 1])];
            tensor<int32, [2]> var_5394 = const()[name = tensor<string, []>("op_5394"), val = tensor<int32, [2]>([1, 1])];
            tensor<string, []> hidden_states_137_pad_type_0 = const()[name = tensor<string, []>("hidden_states_137_pad_type_0"), val = tensor<string, []>("custom")];
            tensor<int32, [4]> hidden_states_137_pad_0 = const()[name = tensor<string, []>("hidden_states_137_pad_0"), val = tensor<int32, [4]>([1, 1, 1, 1])];
            tensor<fp16, [1280, 1280, 3, 3]> mid_block_resnets_1_conv2_weight_to_fp16 = const()[name = tensor<string, []>("mid_block_resnets_1_conv2_weight_to_fp16"), val = tensor<fp16, [1280, 1280, 3, 3]>(BLOBFILE(path = tensor<string, []>("@model_path/weights/weight.bin"), offset = tensor<uint64, []>(673949248)))];
            tensor<fp16, [1280]> mid_block_resnets_1_conv2_bias_to_fp16 = const()[name = tensor<string, []>("mid_block_resnets_1_conv2_bias_to_fp16"), val = tensor<fp16, [1280]>(BLOBFILE(path = tensor<string, []>("@model_path/weights/weight.bin"), offset = tensor<uint64, []>(703440512)))];
            tensor<fp16, [2, 1280, 8, 8]> hidden_states_137_cast = conv(bias = mid_block_resnets_1_conv2_bias_to_fp16, dilations = var_5394, groups = var_4371, pad = hidden_states_137_pad_0, pad_type = hidden_states_137_pad_type_0, strides = var_5392, weight = mid_block_resnets_1_conv2_weight_to_fp16, x = input_237_cast);
            tensor<fp16, [2, 1280, 8, 8]> hidden_states_139_cast = add(x = input_225_cast, y = hidden_states_137_cast);
            tensor<int32, []> var_5405 = const()[name = tensor<string, []>("op_5405"), val = tensor<int32, []>(1)];
            tensor<bool, []> input_239_interleave_0 = const()[name = tensor<string, []>("input_239_interleave_0"), val = tensor<bool, []>(false)];
            tensor<fp16, [2, 2560, 8, 8]> input_239_cast = concat(axis = var_5405, interleave = input_239_interleave_0, values = (hidden_states_139_cast, input_199_cast));
            tensor<int32, [5]> reshape_108_shape_0 = const()[name = tensor<string, []>("reshape_108_shape_0"), val = tensor<int32, [5]>([2, 32, 80, 8, 8])];
            tensor<fp16, [2, 32, 80, 8, 8]> reshape_108_cast = reshape(shape = reshape_108_shape_0, x = input_239_cast);
            tensor<int32, [3]> reduce_mean_81_axes_0 = const()[name = tensor<string, []>("reduce_mean_81_axes_0"), val = tensor<int32, [3]>([2, 3, 4])];
            tensor<bool, []> reduce_mean_81_keep_dims_0 = const()[name = tensor<string, []>("reduce_mean_81_keep_dims_0"), val = tensor<bool, []>(true)];
            tensor<fp16, [2, 32, 1, 1, 1]> reduce_mean_81_cast = reduce_mean(axes = reduce_mean_81_axes_0, keep_dims = reduce_mean_81_keep_dims_0, x = reshape_108_cast);
            tensor<fp16, [2, 32, 80, 8, 8]> sub_54_cast = sub(x = reshape_108_cast, y = reduce_mean_81_cast);
            tensor<fp16, [2, 32, 80, 8, 8]> square_27_cast = square(x = sub_54_cast);
            tensor<int32, [3]> reduce_mean_83_axes_0 = const()[name = tensor<string, []>("reduce_mean_83_axes_0"), val = tensor<int32, [3]>([2, 3, 4])];
            tensor<bool, []> reduce_mean_83_keep_dims_0 = const()[name = tensor<string, []>("reduce_mean_83_keep_dims_0"), val = tensor<bool, []>(true)];
            tensor<fp16, [2, 32, 1, 1, 1]> reduce_mean_83_cast = reduce_mean(axes = reduce_mean_83_axes_0, keep_dims = reduce_mean_83_keep_dims_0, x = square_27_cast);
            tensor<fp16, []> add_54_y_0_to_fp16 = const()[name = tensor<string, []>("add_54_y_0_to_fp16"), val = tensor<fp16, []>(0x1.5p-17)];
            tensor<fp16, [2, 32, 1, 1, 1]> add_54_cast = add(x = reduce_mean_83_cast, y = add_54_y_0_to_fp16);
            tensor<fp16, [2, 32, 1, 1, 1]> sqrt_27_cast = sqrt(x = add_54_cast);
            tensor<fp16, [2, 32, 80, 8, 8]> real_div_27_cast = real_div(x = sub_54_cast, y = sqrt_27_cast);
            tensor<int32, [4]> reshape_109_shape_0 = const()[name = tensor<string, []>("reshape_109_shape_0"), val = tensor<int32, [4]>([2, 2560, 8, 8])];
            tensor<fp16, [2, 2560, 8, 8]> reshape_109_cast = reshape(shape = reshape_109_shape_0, x = real_div_27_cast);
            tensor<fp16, [2560]> add_55_mean_0_to_fp16 = const()[name = tensor<string, []>("add_55_mean_0_to_fp16"), val = tensor<fp16, [2560]>(BLOBFILE(path = tensor<string, []>("@model_path/weights/weight.bin"), offset = tensor<uint64, []>(703443136)))];
            tensor<fp16, [2560]> add_55_variance_0_to_fp16 = const()[name = tensor<string, []>("add_55_variance_0_to_fp16"), val = tensor<fp16, [2560]>(BLOBFILE(path = tensor<string, []>("@model_path/weights/weight.bin"), offset = tensor<uint64, []>(703448320)))];
            tensor<fp16, [2560]> add_55_gamma_0_to_fp16 = const()[name = tensor<string, []>("add_55_gamma_0_to_fp16"), val = tensor<fp16, [2560]>(BLOBFILE(path = tensor<string, []>("@model_path/weights/weight.bin"), offset = tensor<uint64, []>(703453504)))];
            tensor<fp16, [2560]> add_55_beta_0_to_fp16 = const()[name = tensor<string, []>("add_55_beta_0_to_fp16"), val = tensor<fp16, [2560]>(BLOBFILE(path = tensor<string, []>("@model_path/weights/weight.bin"), offset = tensor<uint64, []>(703458688)))];
            tensor<fp16, []> add_55_epsilon_0_to_fp16 = const()[name = tensor<string, []>("add_55_epsilon_0_to_fp16"), val = tensor<fp16, []>(0x1.5p-17)];
            tensor<fp16, [2, 2560, 8, 8]> add_55_cast = batch_norm(beta = add_55_beta_0_to_fp16, epsilon = add_55_epsilon_0_to_fp16, gamma = add_55_gamma_0_to_fp16, mean = add_55_mean_0_to_fp16, variance = add_55_variance_0_to_fp16, x = reshape_109_cast);
            tensor<fp16, [2, 2560, 8, 8]> input_243_cast = silu(x = add_55_cast);
            tensor<int32, [2]> var_5428 = const()[name = tensor<string, []>("op_5428"), val = tensor<int32, [2]>([1, 1])];
            tensor<int32, [2]> var_5430 = const()[name = tensor<string, []>("op_5430"), val = tensor<int32, [2]>([1, 1])];
            tensor<string, []> hidden_states_141_pad_type_0 = const()[name = tensor<string, []>("hidden_states_141_pad_type_0"), val = tensor<string, []>("custom")];
            tensor<int32, [4]> hidden_states_141_pad_0 = const()[name = tensor<string, []>("hidden_states_141_pad_0"), val = tensor<int32, [4]>([1, 1, 1, 1])];
            tensor<fp16, [1280, 2560, 3, 3]> up_blocks_0_resnets_0_conv1_weight_to_fp16 = const()[name = tensor<string, []>("up_blocks_0_resnets_0_conv1_weight_to_fp16"), val = tensor<fp16, [1280, 2560, 3, 3]>(BLOBFILE(path = tensor<string, []>("@model_path/weights/weight.bin"), offset = tensor<uint64, []>(703463872)))];
            tensor<fp16, [1280]> up_blocks_0_resnets_0_conv1_bias_to_fp16 = const()[name = tensor<string, []>("up_blocks_0_resnets_0_conv1_bias_to_fp16"), val = tensor<fp16, [1280]>(BLOBFILE(path = tensor<string, []>("@model_path/weights/weight.bin"), offset = tensor<uint64, []>(762446336)))];
            tensor<fp16, [2, 1280, 8, 8]> hidden_states_141_cast = conv(bias = up_blocks_0_resnets_0_conv1_bias_to_fp16, dilations = var_5430, groups = var_5405, pad = hidden_states_141_pad_0, pad_type = hidden_states_141_pad_type_0, strides = var_5428, weight = up_blocks_0_resnets_0_conv1_weight_to_fp16, x = input_243_cast);
            tensor<int32, [2]> var_5436 = const()[name = tensor<string, []>("op_5436"), val = tensor<int32, [2]>([1, 1])];
            tensor<int32, [2]> var_5438 = const()[name = tensor<string, []>("op_5438"), val = tensor<int32, [2]>([1, 1])];
            tensor<string, []> temb_21_pad_type_0 = const()[name = tensor<string, []>("temb_21_pad_type_0"), val = tensor<string, []>("custom")];
            tensor<int32, [4]> temb_21_pad_0 = const()[name = tensor<string, []>("temb_21_pad_0"), val = tensor<int32, [4]>([0, 0, 0, 0])];
            tensor<fp16, [1280, 1280, 1, 1]> up_blocks_0_resnets_0_time_emb_proj_weight_to_fp16 = const()[name = tensor<string, []>("up_blocks_0_resnets_0_time_emb_proj_weight_to_fp16"), val = tensor<fp16, [1280, 1280, 1, 1]>(BLOBFILE(path = tensor<string, []>("@model_path/weights/weight.bin"), offset = tensor<uint64, []>(762448960)))];
            tensor<fp16, [1280]> up_blocks_0_resnets_0_time_emb_proj_bias_to_fp16 = const()[name = tensor<string, []>("up_blocks_0_resnets_0_time_emb_proj_bias_to_fp16"), val = tensor<fp16, [1280]>(BLOBFILE(path = tensor<string, []>("@model_path/weights/weight.bin"), offset = tensor<uint64, []>(765725824)))];
            tensor<fp16, [2, 1280, 1, 1]> temb_21_cast = conv(bias = up_blocks_0_resnets_0_time_emb_proj_bias_to_fp16, dilations = var_5438, groups = var_5405, pad = temb_21_pad_0, pad_type = temb_21_pad_type_0, strides = var_5436, weight = up_blocks_0_resnets_0_time_emb_proj_weight_to_fp16, x = input_15_cast_1);
            tensor<fp16, [2, 1280, 8, 8]> input_247_cast = add(x = hidden_states_141_cast, y = temb_21_cast);
            tensor<int32, [5]> reshape_112_shape_0 = const()[name = tensor<string, []>("reshape_112_shape_0"), val = tensor<int32, [5]>([2, 32, 40, 8, 8])];
            tensor<fp16, [2, 32, 40, 8, 8]> reshape_112_cast = reshape(shape = reshape_112_shape_0, x = input_247_cast);
            tensor<int32, [3]> reduce_mean_84_axes_0 = const()[name = tensor<string, []>("reduce_mean_84_axes_0"), val = tensor<int32, [3]>([2, 3, 4])];
            tensor<bool, []> reduce_mean_84_keep_dims_0 = const()[name = tensor<string, []>("reduce_mean_84_keep_dims_0"), val = tensor<bool, []>(true)];
            tensor<fp16, [2, 32, 1, 1, 1]> reduce_mean_84_cast = reduce_mean(axes = reduce_mean_84_axes_0, keep_dims = reduce_mean_84_keep_dims_0, x = reshape_112_cast);
            tensor<fp16, [2, 32, 40, 8, 8]> sub_56_cast = sub(x = reshape_112_cast, y = reduce_mean_84_cast);
            tensor<fp16, [2, 32, 40, 8, 8]> square_28_cast = square(x = sub_56_cast);
            tensor<int32, [3]> reduce_mean_86_axes_0 = const()[name = tensor<string, []>("reduce_mean_86_axes_0"), val = tensor<int32, [3]>([2, 3, 4])];
            tensor<bool, []> reduce_mean_86_keep_dims_0 = const()[name = tensor<string, []>("reduce_mean_86_keep_dims_0"), val = tensor<bool, []>(true)];
            tensor<fp16, [2, 32, 1, 1, 1]> reduce_mean_86_cast = reduce_mean(axes = reduce_mean_86_axes_0, keep_dims = reduce_mean_86_keep_dims_0, x = square_28_cast);
            tensor<fp16, []> add_56_y_0_to_fp16 = const()[name = tensor<string, []>("add_56_y_0_to_fp16"), val = tensor<fp16, []>(0x1.5p-17)];
            tensor<fp16, [2, 32, 1, 1, 1]> add_56_cast = add(x = reduce_mean_86_cast, y = add_56_y_0_to_fp16);
            tensor<fp16, [2, 32, 1, 1, 1]> sqrt_28_cast = sqrt(x = add_56_cast);
            tensor<fp16, [2, 32, 40, 8, 8]> real_div_28_cast = real_div(x = sub_56_cast, y = sqrt_28_cast);
            tensor<int32, [4]> reshape_113_shape_0 = const()[name = tensor<string, []>("reshape_113_shape_0"), val = tensor<int32, [4]>([2, 1280, 8, 8])];
            tensor<fp16, [2, 1280, 8, 8]> reshape_113_cast = reshape(shape = reshape_113_shape_0, x = real_div_28_cast);
            tensor<fp16, [1280]> add_57_mean_0_to_fp16 = const()[name = tensor<string, []>("add_57_mean_0_to_fp16"), val = tensor<fp16, [1280]>(BLOBFILE(path = tensor<string, []>("@model_path/weights/weight.bin"), offset = tensor<uint64, []>(765728448)))];
            tensor<fp16, [1280]> add_57_variance_0_to_fp16 = const()[name = tensor<string, []>("add_57_variance_0_to_fp16"), val = tensor<fp16, [1280]>(BLOBFILE(path = tensor<string, []>("@model_path/weights/weight.bin"), offset = tensor<uint64, []>(765731072)))];
            tensor<fp16, [1280]> add_57_gamma_0_to_fp16 = const()[name = tensor<string, []>("add_57_gamma_0_to_fp16"), val = tensor<fp16, [1280]>(BLOBFILE(path = tensor<string, []>("@model_path/weights/weight.bin"), offset = tensor<uint64, []>(765733696)))];
            tensor<fp16, [1280]> add_57_beta_0_to_fp16 = const()[name = tensor<string, []>("add_57_beta_0_to_fp16"), val = tensor<fp16, [1280]>(BLOBFILE(path = tensor<string, []>("@model_path/weights/weight.bin"), offset = tensor<uint64, []>(765736320)))];
            tensor<fp16, []> add_57_epsilon_0_to_fp16 = const()[name = tensor<string, []>("add_57_epsilon_0_to_fp16"), val = tensor<fp16, []>(0x1.5p-17)];
            tensor<fp16, [2, 1280, 8, 8]> add_57_cast = batch_norm(beta = add_57_beta_0_to_fp16, epsilon = add_57_epsilon_0_to_fp16, gamma = add_57_gamma_0_to_fp16, mean = add_57_mean_0_to_fp16, variance = add_57_variance_0_to_fp16, x = reshape_113_cast);
            tensor<fp16, [2, 1280, 8, 8]> input_251_cast = silu(x = add_57_cast);
            tensor<int32, [2]> var_5448 = const()[name = tensor<string, []>("op_5448"), val = tensor<int32, [2]>([1, 1])];
            tensor<int32, [2]> var_5450 = const()[name = tensor<string, []>("op_5450"), val = tensor<int32, [2]>([1, 1])];
            tensor<string, []> hidden_states_143_pad_type_0 = const()[name = tensor<string, []>("hidden_states_143_pad_type_0"), val = tensor<string, []>("custom")];
            tensor<int32, [4]> hidden_states_143_pad_0 = const()[name = tensor<string, []>("hidden_states_143_pad_0"), val = tensor<int32, [4]>([1, 1, 1, 1])];
            tensor<fp16, [1280, 1280, 3, 3]> up_blocks_0_resnets_0_conv2_weight_to_fp16 = const()[name = tensor<string, []>("up_blocks_0_resnets_0_conv2_weight_to_fp16"), val = tensor<fp16, [1280, 1280, 3, 3]>(BLOBFILE(path = tensor<string, []>("@model_path/weights/weight.bin"), offset = tensor<uint64, []>(765738944)))];
            tensor<fp16, [1280]> up_blocks_0_resnets_0_conv2_bias_to_fp16 = const()[name = tensor<string, []>("up_blocks_0_resnets_0_conv2_bias_to_fp16"), val = tensor<fp16, [1280]>(BLOBFILE(path = tensor<string, []>("@model_path/weights/weight.bin"), offset = tensor<uint64, []>(795230208)))];
            tensor<fp16, [2, 1280, 8, 8]> hidden_states_143_cast = conv(bias = up_blocks_0_resnets_0_conv2_bias_to_fp16, dilations = var_5450, groups = var_5405, pad = hidden_states_143_pad_0, pad_type = hidden_states_143_pad_type_0, strides = var_5448, weight = up_blocks_0_resnets_0_conv2_weight_to_fp16, x = input_251_cast);
            tensor<int32, [2]> var_5455 = const()[name = tensor<string, []>("op_5455"), val = tensor<int32, [2]>([1, 1])];
            tensor<int32, [2]> var_5457 = const()[name = tensor<string, []>("op_5457"), val = tensor<int32, [2]>([1, 1])];
            tensor<string, []> x_5_pad_type_0 = const()[name = tensor<string, []>("x_5_pad_type_0"), val = tensor<string, []>("custom")];
            tensor<int32, [4]> x_5_pad_0 = const()[name = tensor<string, []>("x_5_pad_0"), val = tensor<int32, [4]>([0, 0, 0, 0])];
            tensor<fp16, [1280, 2560, 1, 1]> up_blocks_0_resnets_0_conv_shortcut_weight_to_fp16 = const()[name = tensor<string, []>("up_blocks_0_resnets_0_conv_shortcut_weight_to_fp16"), val = tensor<fp16, [1280, 2560, 1, 1]>(BLOBFILE(path = tensor<string, []>("@model_path/weights/weight.bin"), offset = tensor<uint64, []>(795232832)))];
            tensor<fp16, [1280]> up_blocks_0_resnets_0_conv_shortcut_bias_to_fp16 = const()[name = tensor<string, []>("up_blocks_0_resnets_0_conv_shortcut_bias_to_fp16"), val = tensor<fp16, [1280]>(BLOBFILE(path = tensor<string, []>("@model_path/weights/weight.bin"), offset = tensor<uint64, []>(801786496)))];
            tensor<fp16, [2, 1280, 8, 8]> x_5_cast = conv(bias = up_blocks_0_resnets_0_conv_shortcut_bias_to_fp16, dilations = var_5457, groups = var_5405, pad = x_5_pad_0, pad_type = x_5_pad_type_0, strides = var_5455, weight = up_blocks_0_resnets_0_conv_shortcut_weight_to_fp16, x = input_239_cast);
            tensor<fp16, [2, 1280, 8, 8]> hidden_states_145_cast = add(x = x_5_cast, y = hidden_states_143_cast);
            tensor<bool, []> input_253_interleave_0 = const()[name = tensor<string, []>("input_253_interleave_0"), val = tensor<bool, []>(false)];
            tensor<fp16, [2, 2560, 8, 8]> input_253_cast_1 = concat(axis = var_5405, interleave = input_253_interleave_0, values = (hidden_states_145_cast, input_185_cast));
            tensor<int32, [5]> reshape_116_shape_0 = const()[name = tensor<string, []>("reshape_116_shape_0"), val = tensor<int32, [5]>([2, 32, 80, 8, 8])];
            tensor<fp16, [2, 32, 80, 8, 8]> reshape_116_cast = reshape(shape = reshape_116_shape_0, x = input_253_cast_1);
            tensor<int32, [3]> reduce_mean_87_axes_0 = const()[name = tensor<string, []>("reduce_mean_87_axes_0"), val = tensor<int32, [3]>([2, 3, 4])];
            tensor<bool, []> reduce_mean_87_keep_dims_0 = const()[name = tensor<string, []>("reduce_mean_87_keep_dims_0"), val = tensor<bool, []>(true)];
            tensor<fp16, [2, 32, 1, 1, 1]> reduce_mean_87_cast = reduce_mean(axes = reduce_mean_87_axes_0, keep_dims = reduce_mean_87_keep_dims_0, x = reshape_116_cast);
            tensor<fp16, [2, 32, 80, 8, 8]> sub_58_cast = sub(x = reshape_116_cast, y = reduce_mean_87_cast);
            tensor<fp16, [2, 32, 80, 8, 8]> square_29_cast = square(x = sub_58_cast);
            tensor<int32, [3]> reduce_mean_89_axes_0 = const()[name = tensor<string, []>("reduce_mean_89_axes_0"), val = tensor<int32, [3]>([2, 3, 4])];
            tensor<bool, []> reduce_mean_89_keep_dims_0 = const()[name = tensor<string, []>("reduce_mean_89_keep_dims_0"), val = tensor<bool, []>(true)];
            tensor<fp16, [2, 32, 1, 1, 1]> reduce_mean_89_cast = reduce_mean(axes = reduce_mean_89_axes_0, keep_dims = reduce_mean_89_keep_dims_0, x = square_29_cast);
            tensor<fp16, []> add_58_y_0_to_fp16 = const()[name = tensor<string, []>("add_58_y_0_to_fp16"), val = tensor<fp16, []>(0x1.5p-17)];
            tensor<fp16, [2, 32, 1, 1, 1]> add_58_cast = add(x = reduce_mean_89_cast, y = add_58_y_0_to_fp16);
            tensor<fp16, [2, 32, 1, 1, 1]> sqrt_29_cast = sqrt(x = add_58_cast);
            tensor<fp16, [2, 32, 80, 8, 8]> real_div_29_cast = real_div(x = sub_58_cast, y = sqrt_29_cast);
            tensor<int32, [4]> reshape_117_shape_0 = const()[name = tensor<string, []>("reshape_117_shape_0"), val = tensor<int32, [4]>([2, 2560, 8, 8])];
            tensor<fp16, [2, 2560, 8, 8]> reshape_117_cast = reshape(shape = reshape_117_shape_0, x = real_div_29_cast);
            tensor<fp16, [2560]> add_59_mean_0_to_fp16 = const()[name = tensor<string, []>("add_59_mean_0_to_fp16"), val = tensor<fp16, [2560]>(BLOBFILE(path = tensor<string, []>("@model_path/weights/weight.bin"), offset = tensor<uint64, []>(801789120)))];
            tensor<fp16, [2560]> add_59_variance_0_to_fp16 = const()[name = tensor<string, []>("add_59_variance_0_to_fp16"), val = tensor<fp16, [2560]>(BLOBFILE(path = tensor<string, []>("@model_path/weights/weight.bin"), offset = tensor<uint64, []>(801794304)))];
            tensor<fp16, [2560]> add_59_gamma_0_to_fp16 = const()[name = tensor<string, []>("add_59_gamma_0_to_fp16"), val = tensor<fp16, [2560]>(BLOBFILE(path = tensor<string, []>("@model_path/weights/weight.bin"), offset = tensor<uint64, []>(801799488)))];
            tensor<fp16, [2560]> add_59_beta_0_to_fp16 = const()[name = tensor<string, []>("add_59_beta_0_to_fp16"), val = tensor<fp16, [2560]>(BLOBFILE(path = tensor<string, []>("@model_path/weights/weight.bin"), offset = tensor<uint64, []>(801804672)))];
            tensor<fp16, []> add_59_epsilon_0_to_fp16 = const()[name = tensor<string, []>("add_59_epsilon_0_to_fp16"), val = tensor<fp16, []>(0x1.5p-17)];
            tensor<fp16, [2, 2560, 8, 8]> add_59_cast = batch_norm(beta = add_59_beta_0_to_fp16, epsilon = add_59_epsilon_0_to_fp16, gamma = add_59_gamma_0_to_fp16, mean = add_59_mean_0_to_fp16, variance = add_59_variance_0_to_fp16, x = reshape_117_cast);
            tensor<fp16, [2, 2560, 8, 8]> input_257_cast = silu(x = add_59_cast);
            tensor<int32, [2]> var_5475 = const()[name = tensor<string, []>("op_5475"), val = tensor<int32, [2]>([1, 1])];
            tensor<int32, [2]> var_5477 = const()[name = tensor<string, []>("op_5477"), val = tensor<int32, [2]>([1, 1])];
            tensor<string, []> hidden_states_147_pad_type_0 = const()[name = tensor<string, []>("hidden_states_147_pad_type_0"), val = tensor<string, []>("custom")];
            tensor<int32, [4]> hidden_states_147_pad_0 = const()[name = tensor<string, []>("hidden_states_147_pad_0"), val = tensor<int32, [4]>([1, 1, 1, 1])];
            tensor<fp16, [1280, 2560, 3, 3]> up_blocks_0_resnets_1_conv1_weight_to_fp16 = const()[name = tensor<string, []>("up_blocks_0_resnets_1_conv1_weight_to_fp16"), val = tensor<fp16, [1280, 2560, 3, 3]>(BLOBFILE(path = tensor<string, []>("@model_path/weights/weight.bin"), offset = tensor<uint64, []>(801809856)))];
            tensor<fp16, [1280]> up_blocks_0_resnets_1_conv1_bias_to_fp16 = const()[name = tensor<string, []>("up_blocks_0_resnets_1_conv1_bias_to_fp16"), val = tensor<fp16, [1280]>(BLOBFILE(path = tensor<string, []>("@model_path/weights/weight.bin"), offset = tensor<uint64, []>(860792320)))];
            tensor<fp16, [2, 1280, 8, 8]> hidden_states_147_cast = conv(bias = up_blocks_0_resnets_1_conv1_bias_to_fp16, dilations = var_5477, groups = var_5405, pad = hidden_states_147_pad_0, pad_type = hidden_states_147_pad_type_0, strides = var_5475, weight = up_blocks_0_resnets_1_conv1_weight_to_fp16, x = input_257_cast);
            tensor<int32, [2]> var_5483 = const()[name = tensor<string, []>("op_5483"), val = tensor<int32, [2]>([1, 1])];
            tensor<int32, [2]> var_5485 = const()[name = tensor<string, []>("op_5485"), val = tensor<int32, [2]>([1, 1])];
            tensor<string, []> temb_23_pad_type_0 = const()[name = tensor<string, []>("temb_23_pad_type_0"), val = tensor<string, []>("custom")];
            tensor<int32, [4]> temb_23_pad_0 = const()[name = tensor<string, []>("temb_23_pad_0"), val = tensor<int32, [4]>([0, 0, 0, 0])];
            tensor<fp16, [1280, 1280, 1, 1]> up_blocks_0_resnets_1_time_emb_proj_weight_to_fp16 = const()[name = tensor<string, []>("up_blocks_0_resnets_1_time_emb_proj_weight_to_fp16"), val = tensor<fp16, [1280, 1280, 1, 1]>(BLOBFILE(path = tensor<string, []>("@model_path/weights/weight.bin"), offset = tensor<uint64, []>(860794944)))];
            tensor<fp16, [1280]> up_blocks_0_resnets_1_time_emb_proj_bias_to_fp16 = const()[name = tensor<string, []>("up_blocks_0_resnets_1_time_emb_proj_bias_to_fp16"), val = tensor<fp16, [1280]>(BLOBFILE(path = tensor<string, []>("@model_path/weights/weight.bin"), offset = tensor<uint64, []>(864071808)))];
            tensor<fp16, [2, 1280, 1, 1]> temb_23_cast = conv(bias = up_blocks_0_resnets_1_time_emb_proj_bias_to_fp16, dilations = var_5485, groups = var_5405, pad = temb_23_pad_0, pad_type = temb_23_pad_type_0, strides = var_5483, weight = up_blocks_0_resnets_1_time_emb_proj_weight_to_fp16, x = input_15_cast_1);
            tensor<fp16, [2, 1280, 8, 8]> input_261_cast = add(x = hidden_states_147_cast, y = temb_23_cast);
            tensor<int32, [5]> reshape_120_shape_0 = const()[name = tensor<string, []>("reshape_120_shape_0"), val = tensor<int32, [5]>([2, 32, 40, 8, 8])];
            tensor<fp16, [2, 32, 40, 8, 8]> reshape_120_cast = reshape(shape = reshape_120_shape_0, x = input_261_cast);
            tensor<int32, [3]> reduce_mean_90_axes_0 = const()[name = tensor<string, []>("reduce_mean_90_axes_0"), val = tensor<int32, [3]>([2, 3, 4])];
            tensor<bool, []> reduce_mean_90_keep_dims_0 = const()[name = tensor<string, []>("reduce_mean_90_keep_dims_0"), val = tensor<bool, []>(true)];
            tensor<fp16, [2, 32, 1, 1, 1]> reduce_mean_90_cast = reduce_mean(axes = reduce_mean_90_axes_0, keep_dims = reduce_mean_90_keep_dims_0, x = reshape_120_cast);
            tensor<fp16, [2, 32, 40, 8, 8]> sub_60_cast = sub(x = reshape_120_cast, y = reduce_mean_90_cast);
            tensor<fp16, [2, 32, 40, 8, 8]> square_30_cast = square(x = sub_60_cast);
            tensor<int32, [3]> reduce_mean_92_axes_0 = const()[name = tensor<string, []>("reduce_mean_92_axes_0"), val = tensor<int32, [3]>([2, 3, 4])];
            tensor<bool, []> reduce_mean_92_keep_dims_0 = const()[name = tensor<string, []>("reduce_mean_92_keep_dims_0"), val = tensor<bool, []>(true)];
            tensor<fp16, [2, 32, 1, 1, 1]> reduce_mean_92_cast = reduce_mean(axes = reduce_mean_92_axes_0, keep_dims = reduce_mean_92_keep_dims_0, x = square_30_cast);
            tensor<fp16, []> add_60_y_0_to_fp16 = const()[name = tensor<string, []>("add_60_y_0_to_fp16"), val = tensor<fp16, []>(0x1.5p-17)];
            tensor<fp16, [2, 32, 1, 1, 1]> add_60_cast = add(x = reduce_mean_92_cast, y = add_60_y_0_to_fp16);
            tensor<fp16, [2, 32, 1, 1, 1]> sqrt_30_cast = sqrt(x = add_60_cast);
            tensor<fp16, [2, 32, 40, 8, 8]> real_div_30_cast = real_div(x = sub_60_cast, y = sqrt_30_cast);
            tensor<int32, [4]> reshape_121_shape_0 = const()[name = tensor<string, []>("reshape_121_shape_0"), val = tensor<int32, [4]>([2, 1280, 8, 8])];
            tensor<fp16, [2, 1280, 8, 8]> reshape_121_cast = reshape(shape = reshape_121_shape_0, x = real_div_30_cast);
            tensor<fp16, [1280]> add_61_mean_0_to_fp16 = const()[name = tensor<string, []>("add_61_mean_0_to_fp16"), val = tensor<fp16, [1280]>(BLOBFILE(path = tensor<string, []>("@model_path/weights/weight.bin"), offset = tensor<uint64, []>(864074432)))];
            tensor<fp16, [1280]> add_61_variance_0_to_fp16 = const()[name = tensor<string, []>("add_61_variance_0_to_fp16"), val = tensor<fp16, [1280]>(BLOBFILE(path = tensor<string, []>("@model_path/weights/weight.bin"), offset = tensor<uint64, []>(864077056)))];
            tensor<fp16, [1280]> add_61_gamma_0_to_fp16 = const()[name = tensor<string, []>("add_61_gamma_0_to_fp16"), val = tensor<fp16, [1280]>(BLOBFILE(path = tensor<string, []>("@model_path/weights/weight.bin"), offset = tensor<uint64, []>(864079680)))];
            tensor<fp16, [1280]> add_61_beta_0_to_fp16 = const()[name = tensor<string, []>("add_61_beta_0_to_fp16"), val = tensor<fp16, [1280]>(BLOBFILE(path = tensor<string, []>("@model_path/weights/weight.bin"), offset = tensor<uint64, []>(864082304)))];
            tensor<fp16, []> add_61_epsilon_0_to_fp16 = const()[name = tensor<string, []>("add_61_epsilon_0_to_fp16"), val = tensor<fp16, []>(0x1.5p-17)];
            tensor<fp16, [2, 1280, 8, 8]> add_61_cast = batch_norm(beta = add_61_beta_0_to_fp16, epsilon = add_61_epsilon_0_to_fp16, gamma = add_61_gamma_0_to_fp16, mean = add_61_mean_0_to_fp16, variance = add_61_variance_0_to_fp16, x = reshape_121_cast);
            tensor<fp16, [2, 1280, 8, 8]> input_265_cast = silu(x = add_61_cast);
            tensor<int32, [2]> var_5495 = const()[name = tensor<string, []>("op_5495"), val = tensor<int32, [2]>([1, 1])];
            tensor<int32, [2]> var_5497 = const()[name = tensor<string, []>("op_5497"), val = tensor<int32, [2]>([1, 1])];
            tensor<string, []> hidden_states_149_pad_type_0 = const()[name = tensor<string, []>("hidden_states_149_pad_type_0"), val = tensor<string, []>("custom")];
            tensor<int32, [4]> hidden_states_149_pad_0 = const()[name = tensor<string, []>("hidden_states_149_pad_0"), val = tensor<int32, [4]>([1, 1, 1, 1])];
            tensor<fp16, [1280, 1280, 3, 3]> up_blocks_0_resnets_1_conv2_weight_to_fp16 = const()[name = tensor<string, []>("up_blocks_0_resnets_1_conv2_weight_to_fp16"), val = tensor<fp16, [1280, 1280, 3, 3]>(BLOBFILE(path = tensor<string, []>("@model_path/weights/weight.bin"), offset = tensor<uint64, []>(864084928)))];
            tensor<fp16, [1280]> up_blocks_0_resnets_1_conv2_bias_to_fp16 = const()[name = tensor<string, []>("up_blocks_0_resnets_1_conv2_bias_to_fp16"), val = tensor<fp16, [1280]>(BLOBFILE(path = tensor<string, []>("@model_path/weights/weight.bin"), offset = tensor<uint64, []>(893576192)))];
            tensor<fp16, [2, 1280, 8, 8]> hidden_states_149_cast_1 = conv(bias = up_blocks_0_resnets_1_conv2_bias_to_fp16, dilations = var_5497, groups = var_5405, pad = hidden_states_149_pad_0, pad_type = hidden_states_149_pad_type_0, strides = var_5495, weight = up_blocks_0_resnets_1_conv2_weight_to_fp16, x = input_265_cast);
            tensor<string, []> input_117_cast_dtype_0 = const()[name = tensor<string, []>("input_117_cast_dtype_0"), val = tensor<string, []>("fp32")];
            tensor<string, []> input_7_cast_dtype_0 = const()[name = tensor<string, []>("input_7_cast_dtype_0"), val = tensor<string, []>("fp32")];
            tensor<string, []> input_15_cast_dtype_0 = const()[name = tensor<string, []>("input_15_cast_dtype_0"), val = tensor<string, []>("fp32")];
            tensor<string, []> input_35_cast_dtype_0 = const()[name = tensor<string, []>("input_35_cast_dtype_0"), val = tensor<string, []>("fp32")];
            tensor<string, []> input_143_cast_dtype_0 = const()[name = tensor<string, []>("input_143_cast_dtype_0"), val = tensor<string, []>("fp32")];
            tensor<string, []> input_169_cast_dtype_0 = const()[name = tensor<string, []>("input_169_cast_dtype_0"), val = tensor<string, []>("fp32")];
            tensor<string, []> input_61_cast_dtype_0 = const()[name = tensor<string, []>("input_61_cast_dtype_0"), val = tensor<string, []>("fp32")];
            tensor<string, []> hidden_states_149_cast_dtype_0 = const()[name = tensor<string, []>("hidden_states_149_cast_dtype_0"), val = tensor<string, []>("fp32")];
            tensor<string, []> input_171_cast_dtype_0 = const()[name = tensor<string, []>("input_171_cast_dtype_0"), val = tensor<string, []>("fp32")];
            tensor<string, []> input_115_cast_dtype_0 = const()[name = tensor<string, []>("input_115_cast_dtype_0"), val = tensor<string, []>("fp32")];
            tensor<string, []> input_63_cast_dtype_0 = const()[name = tensor<string, []>("input_63_cast_dtype_0"), val = tensor<string, []>("fp32")];
            tensor<string, []> input_253_cast_dtype_0 = const()[name = tensor<string, []>("input_253_cast_dtype_0"), val = tensor<string, []>("fp32")];
            tensor<string, []> input_89_cast_dtype_0 = const()[name = tensor<string, []>("input_89_cast_dtype_0"), val = tensor<string, []>("fp32")];
            tensor<fp32, [2, 640, 32, 32]> input_89_cast = cast(dtype = input_89_cast_dtype_0, x = input_89_cast_1);
            tensor<fp32, [2, 2560, 8, 8]> input_253_cast = cast(dtype = input_253_cast_dtype_0, x = input_253_cast_1);
            tensor<fp32, [2, 320, 32, 32]> input_63_cast = cast(dtype = input_63_cast_dtype_0, x = input_63_cast_1);
            tensor<fp32, [2, 640, 32, 32]> input_115_cast = cast(dtype = input_115_cast_dtype_0, x = input_115_cast_1);
            tensor<fp32, [2, 1280, 8, 8]> input_171_cast = cast(dtype = input_171_cast_dtype_0, x = input_171_cast_1);
            tensor<fp32, [2, 1280, 8, 8]> hidden_states_149_cast = cast(dtype = hidden_states_149_cast_dtype_0, x = hidden_states_149_cast_1);
            tensor<fp32, [2, 320, 64, 64]> input_61_cast = cast(dtype = input_61_cast_dtype_0, x = input_61_cast_1);
            tensor<fp32, [2, 1280, 16, 16]> input_169_cast = cast(dtype = input_169_cast_dtype_0, x = input_169_cast_1);
            tensor<fp32, [2, 1280, 16, 16]> input_143_cast = cast(dtype = input_143_cast_dtype_0, x = input_143_cast_1);
            tensor<fp32, [2, 320, 64, 64]> input_35_cast = cast(dtype = input_35_cast_dtype_0, x = input_35_cast_1);
            tensor<fp32, [2, 1280, 1, 1]> input_15_cast = cast(dtype = input_15_cast_dtype_0, x = input_15_cast_1);
            tensor<fp32, [2, 320, 64, 64]> input_7_cast = cast(dtype = input_7_cast_dtype_0, x = input_7_cast_1);
            tensor<fp32, [2, 640, 16, 16]> input_117_cast = cast(dtype = input_117_cast_dtype_0, x = input_117_cast_1);
        } -> (input_117_cast, input_7_cast, input_15_cast, input_35_cast, input_143_cast, input_169_cast, input_61_cast, hidden_states_149_cast, input_171_cast, input_115_cast, input_63_cast, input_253_cast, input_89_cast);
}